model.pth (torch, 47848 bytes, 8 tensors)

lstm.weight_ih_l0 f4 [80, 5]
0.15701222 0.1399366 0.16959584 -0.18357925 0.3625593 0.09611558 0.0753234 0.31617078
-0.36492363 0.3129879 -0.08314425 -0.1708154 0.061057795 -0.2104558 -0.28630894 0.104137726
0.46120209 0.10134737 -0.064079314 0.16307959 0.30159515 0.018474383 0.15208304 -0.055358965
0.3292951 0.46553215 0.11939607 0.27676678 -0.0700839 -0.15497202 -0.30796218 0.00091294263
-0.20329297 -0.44110212 -0.1953155 0.17030981 -0.082696006 0.2283058 0.17493092 0.16573514
0.002408429 -0.032235075 -0.09610414 0.975391 0.3369301 -0.19668202 -0.13342166 -0.13688678
-0.11667761 -0.00076718186 0.23265639 0.2698205 0.25799903 -0.0019529553 0.04455512 0.23018055
0.13830312 0.06361431 -0.30897692 0.2542842 -0.23011535 -0.18050072 0.036736146 -0.2838988
0.0032737427 0.18977048 0.24132611 0.17141375 0.069478974 0.40372375 0.18980265 0.13581121
0.13873759 -0.016984742 0.4028948 -0.097941056 0.13382763 0.25531417 0.12600972 0.25850487
-0.1610631 -0.020911876 -0.22998731 -0.7103759 -0.27651814 0.49976814 0.17618854 0.19575989
-0.037513003 -0.007039396 0.26357886 -0.001978884 0.052831426 -0.039321914 0.070706464 0.32451448
0.16930105 0.0980145 -0.044474192 0.0026396273 0.16875951 0.4881831 0.22489892 -0.13251644
0.38286525 0.32278886 0.05824824 0.006649022 -0.34421256 0.15512587 -0.10020515 -0.08303966
-0.095452555 0.19687699 -0.07727338 -0.108971655 0.11045632 0.023941452 0.80689394 0.32722172
0.31911013 0.0374164 0.004465693 0.39220574 0.058241475 0.33782408 0.3460863 -0.027183434
0.17150524 0.17969932 -0.041574873 -0.21013194 -0.13895667 -0.15847869 -0.29065025 -0.0393158
-0.09141165 -0.095790446 0.28420207 0.113229744 -0.08783818 -0.19759858 -0.22648425 -0.11838065
0.20508957 -0.37235025 -0.25212568 0.086288236 0.20150545 -0.19243644 0.5109536 0.28500405
0.25758702 0.4055775 0.19543028 -0.0041061263 -0.37215644 -0.2715155 0.121060885 -0.32380176
-0.32245386 -0.025600534 -0.409331 0.07824914 -0.2584827 0.042370554 0.2122656 0.18914361
0.15835692 0.17957883 0.05603344 0.2584794 0.23690733 0.27898362 0.20574954 0.13009113
0.199109 0.20061968 0.7839331 0.3937857 -0.28914964 -0.4462026 -0.298018 0.46112853
-0.10516572 0.33713606 0.17592187 0.19801255 -0.23511817 -0.42211565 -0.03164337 0.11081884
0.21736442 -0.1704468 0.18737504 0.19334555 0.22516327 0.1693287 0.44829676 -0.104725026
-0.21261503 -0.17566733 -0.33554682 0.33266848 -0.27607772 0.29788715 0.27848637 0.07201409
0.15438971 -0.013241903 -0.18428308 -0.31040475 -0.0153414905 -0.070769 0.018798374 -0.13020521
-0.19473207 0.04521148 0.05774251 0.089168906 -0.34956846 -0.2827642 -0.089115985 -0.034147967
-0.35079896 0.39050528 0.114165686 0.3823701 0.026654467 0.022540214 0.14385772 0.41118395
0.43822128 0.21120246 0.3012323 -0.1505789 -0.22042109 -0.19781666 -0.061756957 -0.046108674
-0.1943752 -0.42910737 -0.13127732 0.15318967 1.4515477e-05 -0.018838 0.28620607 0.2386692
-0.115751825 -0.20663357 -0.38459173 0.056736007 -0.27809742 -0.2810467 -0.26250356 0.26346308
00000000: d0c7 203e 8a4b 0f3e 88aa 2d3e 33fc 3bbe
00000010: 5fa1 b93e 3fd8 c43d 2843 9a3d 23e1 a13e
00000020: 45d7 babe f33f a03e 8847 aabd 3bea 2ebe
00000030: bd17 7a3d ba81 57be 1697 92be 2946 d53d
00000040: ae22 ec3e 368f cf3d 043c 83bd 56fe 263e
00000050: ae6a 9a3e 9757 973c a8bb 1b3e 15c0 62bd
00000060: 5e99 a83e 3b5a ee3e ed85 f43d 60b4 8d3e
00000070: 2688 8fbd fcb0 1ebe 38ad 9dbe 8b52 6f3a
00000080: 082c 50be 23d8 e1be c900 48be b265 2e3e
00000090: 865c a9bd ffc8 693e 1721 333e 79b6 293e
000000a0: bcd6 1d3b ed08 04bd 3fd2 c4bd 39b3 793f
000000b0: 1a82 ac3e 0367 49be b09f 08be 0c2c 0cbe
000000c0: acf4 eebd b41c 49ba 7a3d 6e3e ea25 8a3e
000000d0: 7318 843e 4efa ffba 6e7f 363d 73b4 6b3e
000000e0: 559f 0d3e 3848 823d 3932 9ebe 8a31 823e
000000f0: 5ca3 6bbe 2ed5 38be a478 163d 2f5b 91be
00000100: 4a8c 563b 3153 423e 311e 773e 1687 2f3e
00000110: fe4a 8e3d e1b4 ce3e a05b 423e 1812 0b3e
00000120: 3a11 0e3e 9623 8bbc 3a48 ce3e 5295 c8bd
00000130: 1c0a 093e 8ab8 823e b108 013e c05a 843e
00000140: baed 24be 624f abbc cb81 6bbe 32db 35bf
00000150: c993 8dbe 9ce1 ff3e c56a 343e 4875 483e
00000160: 3ca7 19bd bcaa e6bb cff3 863e 2ab0 01bb
00000170: c465 583d 0410 21bd 8dce 903d c326 a63e
00000180: 415d 2d3e d4bb c83d 922a 36bd 99fd 2c3b
00000190: 4bcf 2c3e 23f3 f93e e74b 663e 64b2 07be
000001a0: ea06 c43e 9544 a53e b595 6e3d 0ae0 d93b
000001b0: a13c b0be 51d9 1e3e 5c38 cdbd b210 aabd
000001c0: a17c c3bd 1f9a 493e 8141 9ebd 882c dfbd
000001d0: ec36 e23d dd20 c43c 9a90 4e3f 9b89 a73e
000001e0: 6762 a33e f041 193d f354 923b 31cf c83e
000001f0: 9d8e 6e3d 47f7 ac3e 3932 b13e cbaf debc
00000200: 129f 2f3e 1903 383e 6a4a 2abd d42c 57be
00000210: a84a 0ebe 3d48 22be 1cd0 94be 9b09 21bd
00000220: 0836 bbbd c82d c4bd ef82 913e ffe4 e73d
00000230: 81e4 b3bd 4857 4abe 7deb 67be 8e71 f2bd
00000240: 0003 523e b1a4 bebe 9e16 81be e3b7 b03d
00000250: 7257 4e3e 0f0e 45be dbcd 023f 0dec 913e
00000260: 72e2 833e dba7 cf3e e01e 483e af8c 86bb
00000270: 4a8b bebe 1404 8bbe c5ee f73d 58c9 a5be
00000280: ac18 a5be 36b8 d1bc d593 d1be 1641 a03d
00000290: d857 84be bf8c 2d3d 275c 593e ddae 413e
000002a0: 5128 223e 83e3 373e 5283 653d 6957 843e
000002b0: d697 723e f1d6 8e3e 02b0 523e 9c36 053e
000002c0: 3be3 4b3e 3f6f 4d3e d7af 483f 479e c93e
000002d0: 6c0b 94be ab74 e4be d195 98be 0a19 ec3e
000002e0: 2061 d7bd 199d ac3e dd24 343e cdc3 4a3e
000002f0: d1c2 70be 8b1f d8be 7a9c 01bd fdf4 e23d
00000300: c794 5e3e 9b89 2ebe 3edf 3f3e 60fc 453e
00000310: 3391 663e 8164 2d3e 2787 e53e 137a d6bd
00000320: c1b7 59be 23e2 33be cbcc abbe 8653 aa3e
00000330: 0f5a 8dbe aa84 983e c495 8e3e 207c 933d
00000340: 5618 1e3e 91f4 58bc b4b4 3cbe 5fed 9ebe
00000350: e05a 7bbc 56ef 90bd 0cff 993c 8454 05be
00000360: d867 47be ac2f 393d 6983 6c3d 309e b63d
00000370: a3fa b2be 78c6 90be 7182 b6bd bdde 0bbd
00000380: ec9b b3be 4ff0 c73e b3cf e93d 04c6 c33e
00000390: 785a da3c 41a6 b83c 704f 133e b486 d23e
000003a0: 8a5e e03e 7545 583e 1f3b 9a3e 5b31 1abe
000003b0: 11b6 61be 7390 4abe ddf4 7cbd 73dc 3cbd
000003c0: 4b0a 47be f6b3 dbbe 906d 06be c1dd 1c3e
000003d0: 8087 7337 2652 9abc 9a89 923e b365 743e
000003e0: 4b0f edbd c097 53be 35e9 c4be 0464 683d
000003f0: c962 8ebe 5ae5 8fbe de66 86be a2e4 863e

lstm.weight_hh_l0 f4 [80, 20]
-0.29817244 0.11733328 -0.3456463 0.1260295 -0.004054141 0.12810715 0.14391291 0.41914064
0.295505 0.17978989 0.037986208 -0.034511864 -0.14846584 -0.070034266 0.08701955 -0.11961283
-0.26662242 0.9928843 -0.6140643 -0.13827585 -0.32899126 -0.19556648 -0.28755522 0.5360764
0.027766822 0.027089624 0.07864882 0.26309416 0.11280313 0.10838178 0.56584847 -0.531492
-0.4280286 -0.22496833 0.44625157 -0.14804852 -0.5123761 0.06426494 -0.36803702 0.48442775
-0.29013157 0.32419917 -0.18348338 -0.11880399 -0.11572179 -0.092302315 -0.07672118 0.0106204515
0.159999 -0.07707442 0.17566104 -0.04788068 0.11939111 -0.041772254 -0.0054060165 0.19997393
-0.08343907 0.11973379 0.2484294 -0.158763 -0.33787158 -0.38273618 -0.3126742 -0.30392352
-0.20921206 0.3491984 0.29063362 0.4648354 0.2462496 0.24914047 0.19431005 -0.04732451
-0.32531023 -0.1312607 -0.21064 0.07953957 -0.31225893 0.06257226 0.28209913 0.11608093
-0.03812392 -0.092458084 -0.22954863 0.15673466 -0.19099094 0.24037954 0.014156742 0.1596146
-0.09507349 -0.047965672 -0.0168407 -0.17337947 -0.076245375 0.04018878 -0.2173894 0.090043105
-0.014443506 0.07915425 0.29601237 -0.1679865 -0.043266132 0.015712317 -0.06092997 -0.07041435
-0.42262688 0.3362969 0.313589 0.058212165 0.21770391 0.24959873 0.12557232 -0.2309349
-0.26041952 0.06417596 -0.120899044 0.08324928 -0.2895055 0.03926693 -0.11529793 -0.17821403
-0.12156196 -0.002530793 0.15546696 -0.25546613 -0.19257945 0.060429078 -0.3717953 -0.0063139494
-0.021264385 -0.22827315 -0.14497688 0.06286773 0.10740557 -0.22965375 -0.09090003 0.37859228
0.074040435 0.18637556 0.30767158 -0.1642165 0.26181233 -0.07499357 -0.1945163 0.29780173
0.05717267 -0.20729183 0.31779566 0.038269572 0.2690195 0.09397648 -0.012693972 -0.08605183
-0.16539064 0.073484324 0.18008529 -0.5740183 -0.14766894 0.30621347 -0.05300529 0.50103134
0.25645664 -0.62497115 -0.10637515 0.2184454 0.03450443 -0.1406187 -0.1971056 0.1158104
-0.143392 0.18453036 0.037145928 -0.33034524 0.10612531 0.10967237 -0.021261726 -0.09941868
-0.16089334 -0.53513753 0.070019364 0.42868492 -0.03060716 -0.30075327 -0.06316787 0.39748845
0.42837214 -0.23385625 -0.08586272 0.3877754 0.38103184 0.050259944 0.47724515 -0.08711701
-0.06603894 -0.023091197 0.05834311 -0.746803 -0.035879247 0.104556926 0.0041209804 0.3747453
0.34015423 0.046414018 -0.26705667 0.07949359 -0.08314422 -0.08525245 0.14263535 0.27800682
0.31314054 0.045322876 0.018810317 -0.12766385 -0.3878403 0.122151494 -0.10834082 -0.32999313
-0.0835948 0.10932632 -0.18860513 0.074354135 0.0017725924 -0.22041853 -0.19859083 -0.21108413
0.05817343 -0.124631606 0.32921076 0.1759847 0.3981345 -0.09460297 0.29216316 -0.33609647
-0.4459549 0.1368001 0.052416276 -0.16552873 0.066384114 -0.08895339 0.18202515 0.315693
-0.26710057 0.14167687 -0.12703899 -0.14299418 -0.29324093 0.14047514 -0.0767244 0.12059728
-0.31302685 -0.08757202 -0.13130818 -0.12158631 -0.20852314 -0.13305208 -0.43846405 0.19364937
00000000: 0faa 98be 6e4c f03d 8df8 b0be e10d 013e
00000010: 9ad8 84bb 852e 033e e85d 133e 9a99 d63e
00000020: 6e4c 973e d71a 383e 6d97 1b3d 505c 0dbd
00000030: 6e07 18be 206e 8fbd 4e37 b23d 92f7 f4bd
00000040: bc82 88be aa2d 7e3f 5133 1dbf 2f98 0dbe
00000050: 8b71 a8be 9442 48be 703a 93be 4e3c 093f
00000060: 3f77 e33c 0feb dd3c a212 a13d 47b4 863e
00000070: 5405 e73d 44f7 dd3d 72db 103f dc0f 08bf
00000080: 9126 dbbe 195e 66be 167b e43e 089a 17be
00000090: 152b 03bf 569d 833d 596f bcbe ea06 f83e
000000a0: 208c 94be 6ffd a53e 11e3 3bbe 824f f3bd
000000b0: 8cff ecbd ff08 bdbd fe1f 9dbd 6701 2e3c
000000c0: c7d6 233e 32d9 9dbd 7de0 333e 881e 44bd
000000d0: 5483 f43d 6219 2bbd f424 b1bb f7c5 4c3e
000000e0: 1ae2 aabd fd36 f53d 4764 7e3e c592 22be
000000f0: 81fd acbe fff5 c3be d516 a0be dd9b 9bbe
00000100: b03b 56be 22ca b23e eecd 943e e8fe ed3e
00000110: db28 7c3e ae1e 7f3e 37f9 463e 58d7 41bd
00000120: 108f a6be 3469 06be 03b2 57be a4e5 a23d
00000130: 67e0 9fbe e325 803d 4c6f 903e d7bb ed3d
00000140: d427 1cbd aa5a bdbd cc0e 6bbe 0d7f 203e
00000150: 2193 43be 0e26 763e aef1 673c 0272 233e
00000160: e4b5 c2bd a777 44bd 82f5 89bc 638a 31be
00000170: 8926 9cbd fd9c 243d 549b 5ebe 8568 b83d
00000180: 74a4 6cbc a01b a23d ef8e 973e a704 2cbe
00000190: d437 31bd 1eb7 803c b491 79bd 6635 90bd
000001a0: 8d62 d8be 1b2f ac3e bd8e a03e e16f 6e3d
000001b0: c6ed 5e3e cf96 7f3e 0896 003e 337a 6cbe
000001c0: b555 85be b06e 833d eb99 f7bd 997e aa3d
000001d0: 113a 94be 5cd6 203d 5221 ecbd bd7d 36be
000001e0: 7af5 f8bd a9db 25bb bb32 1f3e 75cc 82be
000001f0: 8c33 45be 7b84 773d f45b bebe 3fe5 cebb
00000200: a632 aebc 70c0 69be d274 14be ccc0 803d
00000210: 74f7 db3d 5a2a 6bbe cc29 babd d9d6 c13e
00000220: 83a2 973d 3cd9 3e3e 2187 9d3e 5f28 28be
00000230: 440c 863e 3b96 99bd 482f 47be 7879 983e
00000240: e42d 6a3d 4f44 54be 1db6 a23e 8ec0 1c3d
00000250: edbc 893e be76 c03d 61fa 4fbc f13b b0bd
00000260: 2a5c 29be f37e 963d 4768 383e ddf2 12bf
00000270: 8736 17be 03c8 9c3e 131c 59bd 9743 003f
00000280: 494e 833e 1cfe 1fbf 37db d9bd 27b0 5f3e
00000290: 8454 0d3d 59fe 0fbe 0dd6 49be 012e ed3d
000002a0: 5ad5 12be 87f5 3c3e 5426 183d 0323 a9be
000002b0: 3a58 d93d e89b e03d 122d aebc 059c cbbd
000002c0: 39c1 24be c6fe 08bf 5066 8f3d 977c db3e
000002d0: debb fabc 55fc 99be 285e 81bd 9b83 cb3e
000002e0: 9853 db3e 0378 6fbe cbd8 afbd 7f8a c63e
000002f0: 9b16 c33e 5fdd 4d3d 7a59 f43e 676a b2bd
00000300: 6c3f 87bd c029 bdbc 2ff9 6e3d 7b2e 3fbf
00000310: 1ef6 12bd f121 d63d 4a09 873b 9ede bf3e
00000320: b228 ae3e a01c 3e3d a7bb 88be 89cd a23d
00000330: 8447 aabd d698 aebd 000f 123e e956 8e3e
00000340: f553 a03e 7ba4 393d 1818 9a3c 50ba 02be
00000350: 0193 c6be 902a fa3d cbe1 ddbd dcf4 a8be
00000360: c033 abbd 7ae6 df3d b421 41be fb46 983d
00000370: 5556 e83a 65b5 61be 655b 4bbe 7026 58be
00000380: 4347 6e3d db3e ffbd 508e a83e 5535 343e
00000390: 49d8 cb3e 34bf c1bd 6996 953e d614 acbe
000003a0: 3354 e4be 5315 0c3e 73b2 563d 5d80 29be
000003b0: 65f4 873d 322d b6bd cd64 3a3e 83a2 a13e
000003c0: 68c1 88be be13 113e 8216 02be 116d 12be
000003d0: ad23 96be b7d8 0f3e af21 9dbd b5fb f63d
000003e0: 0e45 a0be f658 b3bd a775 06be 3e02 f9bd
000003f0: 1787 55be ce3e 08be 5c7e e0be 054c 463e

lstm.bias_ih_l0 f4 [80]
-0.3762082 -0.26130006 -0.14318924 -0.44782043 -0.30652744 -0.105076425 0.040111467 -0.18544516
-0.25020564 -0.39196917 -0.1255487 -0.33413604 0.043201398 -0.47118643 -0.33156407 -0.24915704
-0.15625174 -0.21885195 0.20346421 -0.35281408 -0.113810495 -0.020288857 0.25487393 -0.18906607
-0.21388306 -0.017741628 0.05592118 -0.20310561 0.090909615 -0.21347228 -0.24921775 0.08510165
0.16868518 -0.32105428 -0.3202243 -0.16405568 0.37257606 0.44451046 0.11377691 0.17197974
0.030573364 -0.22819175 0.29220322 0.19352376 0.031267818 0.023626067 -0.20032473 -0.048828512
-0.3445805 0.22930247 0.030255407 0.0252524 0.11455433 0.2294804 -0.043923497 -0.122873686
0.16258381 -0.06339273 -0.017141482 0.19384898 -0.3387658 -0.20488827 -0.22802751 -0.43452483
-0.4177545 -0.15330286 0.10271742 -0.050104987 -0.2669059 -0.36161488 -0.09543477 -0.3480462
-0.06713893 -0.15020728 -0.24847527 -0.13253185 0.08711455 -0.06531238 -0.015484866 -0.10872423
00000000: 5c9e c0be 1fc9 85be 33a0 12be b848 e5be
00000010: 2af1 9cbe 4f32 d7bd ec4b 243d 56e5 3dbe
00000020: f41a 80be 2fb0 c8be d78f 00be e113 abbe
00000030: f3f3 303d 593f f1be c4c2 a9be 0623 7fbe
00000040: 7500 20be ba1a 60be ec58 503e 0ca4 b4be
00000050: 7a15 e9bd d134 a6bc d67e 823e 899a 41be
00000060: 2904 5bbe e456 91bc 9b0d 653d ebfa 4fbe
00000070: d22e ba3d 7a98 5abe f032 7fbe c649 ae3d
00000080: cfbb 2c3e 3a61 a4be 70f4 a3be 36fe 27be
00000090: 4ac2 be3e e096 e33e de03 e93d 751b 303e
000000a0: fe74 fa3c 19ab 69be a99b 953e 182b 463e
000000b0: af12 003d 748b c13c ed21 4dbe 6800 48bd
000000c0: db6c b0be 44ce 6a3e 30da f73c 1fde ce3c
000000d0: 769b ea3d e9fc 6a3e 20e9 33bd 33a5 fbbd
000000e0: 5f7c 263e 0cd4 81bd 4b6c 8cbc 5980 463e
000000f0: b672 adbe 3bce 51be 0b80 69be 0a7a debe
00000100: ebe3 d5be 6dfb 1cbe 835d d23d e33a 4dbd
00000110: e4a7 88be 9625 b9be 4e73 c3bd 1d33 b2be
00000120: 2380 89bd f0cf 19be 4d70 7ebe 6eb6 07be
00000130: 1d69 b23d 7fc2 85bd 3cb4 7dbc cfaa debd

lstm.bias_hh_l0 f4 [80]
-0.39857513 -0.5284187 0.16747324 -0.3578406 -0.1524918 -0.12478064 0.09834348 -0.3823196
-0.25748605 -0.3711598 0.006952488 -0.20634693 -0.24566732 -0.25037485 -0.41538697 -0.06887881
-0.03570009 0.0692878 0.06072203 -0.0010387023 0.07148167 -0.38570255 -0.13669807 -0.12793174
-0.11132227 0.2383563 0.20881036 -0.2516443 0.0729342 -0.19201994 -0.35604 -0.2165434
0.15011762 -0.32780078 -0.22332367 0.07478062 0.27699858 0.35403377 0.017523361 0.42869443
0.23170422 0.00077451917 0.20949538 0.027877077 0.10223643 -0.14894603 -0.15331642 -0.15396148
-0.033168565 0.189658 -0.087124854 0.08006676 -0.008847158 -0.047360897 0.32077214 0.06629927
-0.11358931 -0.12729506 -0.3870774 -0.14884041 -0.40752196 -0.48104808 0.080578275 -0.284131
-0.25703648 -0.30520633 0.271577 -0.22068039 -0.18944824 -0.33773842 0.023573486 -0.08695016
-0.09804585 -0.34155184 -0.3460884 0.015262268 -0.049943622 0.03223278 0.034854352 -0.23187722
00000000: 0a12 ccbe 7346 07bf 1b7e 2b3e e236 b7be
00000010: cf26 1cbe fe8c ffbd 4e68 c93d 65bf c3be
00000020: 36d5 83be a808 bebe b2d1 e33b 9c4c 53be
00000030: 3790 7bbe 2231 80be 9aad d4be 5510 8dbd
00000040: 423a 12bd c3e6 8d3d aab7 783d 1125 88ba
00000050: fb64 923d ce7a c5be 94fa 0bbe 8a00 03be
00000060: eefc e3bd ad13 743e 62d2 553e 86d7 80be
00000070: 875e 953d e0a0 44be e04a b6be 8ebd 5dbe
00000080: 6fb8 193e 81d5 a7be f6ae 64be 9526 993d
00000090: c2d2 8d3e ea43 b53e 278d 8f3c d67d db3e
000000a0: df43 6d3e 1a09 4b3a f585 563e 785e e43c
000000b0: 5561 d13d 4f85 18be fbfe 1cbe 14a8 1dbe
000000c0: c3db 07bd b535 423e 846e b2bd 0bfa a33d
000000d0: acf3 10bc 80fd 41bd 3f3c a43e e9c7 873d
000000e0: 83a1 e8bd a359 02be 022f c6be 9f69 18be
000000f0: b8a6 d0be ef4b f6be 3906 a53d 9e79 91be
00000100: 499a 83be 0144 9cbe 240c 8b3e 0afa 61be
00000110: b8fe 41be 0dec acbe 2f1d c13c ed12 b2bd
00000120: 43cc c8bd e2df aebe 8032 b1be 970e 7a3c
00000130: af91 4cbd 8506 043d 70c3 0e3d 3971 6dbe

fc_1.weight f4 [128, 20]
-0.019417629 -0.15162978 0.054311562 -0.0373448 -0.0050451746 0.18930466 0.034823567 -0.041804597
0.11896324 0.18570521 -0.101118445 -0.12287304 0.11187576 -0.17284352 -0.15595166 -0.12524325
-0.11214155 -0.11777075 -0.09646827 -0.08310816 -0.09789376 0.06672236 0.08512661 0.05992928
0.003876537 0.10288885 0.085650414 -0.12408686 -0.008159861 -0.064291656 0.16173443 0.09244093
-0.040154472 0.16609567 -0.19757606 0.07669401 -0.21101213 0.13798323 -0.07512598 -0.089510426
-0.0844501 -0.10937935 -0.051695433 0.04620468 -0.11996152 -0.114806645 0.061068617 -0.5375321
0.057740584 0.34630093 -0.22523667 -0.19145623 0.03079033 -0.04042969 -0.22527125 -0.19377217
-0.17722443 -0.8018002 0.037383046 0.13426885 0.048879556 0.021597717 0.044856206 -0.16768582
0.022082964 0.17854296 -0.043504585 0.46766734 -0.0329365 -0.2381717 -0.074345544 -0.28727764
-0.031779297 -0.09588506 0.10237817 -0.14686163 0.0626598 0.1224016 -0.008577425 0.11753705
-0.044566557 -0.15838787 -0.27707025 -0.02656163 -0.19928172 0.045181304 -0.042721704 -0.03387724
0.25423893 -0.033326287 -0.23271672 -0.1372772 0.12806067 -0.16698302 -0.0035060237 -0.11985629
-0.21615642 0.02761414 0.4148714 -0.19345798 -0.07627576 -0.026867095 -0.32565507 -0.72527117
-0.20683217 -0.18478274 -0.14328818 -0.092795715 0.023598574 0.02447729 -0.21975757 -0.17938848
-0.26057065 -0.2255272 -0.31069487 -0.057057016 -0.28868955 -0.051842034 -0.15430856 -0.0024670204
-0.24767861 0.06694386 0.14852343 0.17056039 -0.09139437 -0.23158406 0.08677065 0.027908117
-0.35292634 0.23727001 -0.23912041 0.16980113 -0.20197558 -0.27933782 -0.19357505 -0.28396454
-0.004447268 -0.49626443 -0.29399318 -0.40946013 0.08265542 -0.12628259 -0.19038622 0.16377187
-0.4263879 0.17940062 0.21757166 3.386591 -2.9927573 0.6348943 0.3252955 -0.04581676
-0.2858297 0.06369638 -0.341614 -0.1060578 -0.365882 -0.7074346 -0.19789167 0.74065614
-0.17424446 0.2063996 -0.1819024 0.084365115 -0.065952815 0.11199557 -0.0047744745 0.19381672
-0.030882122 -0.09115146 -0.1576069 -0.0769544 -0.093494244 -0.22773956 0.13815388 0.05277776
-0.31719136 0.3221626 -0.025730632 0.16575392 -0.121514924 -0.15311384 -0.044365585 -0.06106302
0.18103889 -0.023733467 -0.21908352 0.046974123 -0.10276549 -0.03373286 -0.19559218 0.102090925
-0.14121868 0.1271638 0.18806726 -0.027224123 -0.07466915 0.073710024 -0.0847649 0.02365449
-0.34872764 -0.16670269 -0.1280661 -0.029291863 0.091881506 -0.10095741 -0.09987304 0.030807644
-0.057585303 -0.14161378 0.07561972 -0.07593472 -0.26996267 -0.021847019 -0.22337331 -0.22949328
-0.04339974 -0.17122513 0.1171754 -0.1411518 -0.07819354 -0.29470238 0.18550764 0.22000974
-0.25589493 -0.07448555 -0.00090734434 -0.21271463 -1.4084457 0.16729309 -0.17483544 -0.11444531
-0.17484899 0.026437657 -0.23475654 -0.2586633 -0.38118827 -1.0080321 -0.39231977 -0.24956337
0.06164929 -0.030916618 0.0044756634 0.14867792 -0.4453971 -0.16922307 0.13433325 -0.1868657
-0.044210713 0.39291558 0.11258587 0.23543796 -0.2904788 -0.091975786 0.1948964 -0.022747649
00000000: b811 9fbc d644 1bbe cd75 5e3d dcf6 18bd
00000010: fe51 a5bb 15d9 413e 28a3 0e3d 4c3b 2bbd
00000020: 00a3 f33d 8229 3e3e 3017 cfbd dca4 fbbd
00000030: 1e1f e53d e4fd 30be cbb1 1fbe c43f 00be
00000040: 78aa e5bd ca31 f1bd 2891 c5bd 9c34 aabd
00000050: 867c c8bd bca5 883d dc56 ae3d 6878 753d
00000060: 800d 7e3b 64b7 d23d 7c69 af3d 4021 febd
00000070: f0b0 05bc 58ab 83bd b69d 253e ac51 bd3d
00000080: 0479 24bd fc14 2a3e 6151 4abe c011 9d3d
00000090: 9013 58be 7a4b 0d3e a6db 99bd 3e51 b7bd
000000a0: 2df4 acbd 4802 e0bd 97be 53bd 1e41 3d3d
000000b0: 63ae f5bd bf1f ebbd 1623 7a3d b49b 09bf
000000c0: 6481 6c3d 5b4e b13e 71a4 66be 1a0d 44be
000000d0: 013c fc3c 9a99 25bd 82ad 66be 366c 46be
000000e0: 527a 35be c742 4dbf f71e 193d c67d 093e
000000f0: ee35 483d b2ed b03c 24bb 373d d5b5 2bbe
00000100: 55e7 b43c f7d3 363e dd31 32bd 1872 ef3e
00000110: 6ce8 06bd 48e3 73be 7a42 98bd 0e16 93be
00000120: 022b 02bd 635f c4bd a5ab d13d e562 16be
00000130: c853 803d b1ad fa3d 5488 0cbc 44b7 f03d
00000140: 6c8b 36bd 6e30 22be 27dc 8dbe c797 d9bc
00000150: 8210 4cbe 0810 393d f4fc 2ebd dcc2 0abd
00000160: 9b2b 823e 2581 08bd 4b4d 6ebe 6592 0cbe
00000170: 5622 033e 99fd 2abe 51c5 65bb 3777 f5bd
00000180: 1c58 5dbe 0d37 e23c 066a d43e d919 46be
00000190: 7736 9cbd 6218 dcbc 43bc a6be 5fab 39bf
000001a0: d0cb 53be b037 3dbe 23ba 12be ae0b bebd
000001b0: cc51 c13c 9984 c83c 2108 61be 9db1 37be
000001c0: 8469 85be 9af0 66be 6613 9fbe 9eb4 69bd
000001d0: 1ecf 93be 5058 54bd 1003 1ebe bcad 21bb
000001e0: 769f 7dbe dd19 893d 8716 183e 62a7 2e3e
000001f0: f92c bbbd 5f24 6dbe d0b4 b13d 909f e43c
00000200: c3b2 b4be e9f6 723e fbdb 74be 59e0 2d3e
00000210: b0d2 4ebe 5e05 8fbe 8a38 46be cd63 91be
00000220: 63ba 91bb 5f16 febe 4686 96be c2a4 d1be
00000230: 3f47 a93d 3950 01be 9bf4 42be d0b3 273e
00000240: 844f dabe ccb4 373e 1bcb 5e3e e8bd 5840
00000250: 5689 3fc0 6f88 223f 228d a63e 5baa 3bbd
00000260: 4558 92be 3f73 823d 08e8 aebe d534 d9bd
00000270: e354 bbbe 6f1a 35bf 1da4 4abe a49b 3d3f
00000280: 246d 32be 6b5a 533e 9f44 3abe 9ec7 ac3d
00000290: 4512 87bd ef5d e53d 3273 9cbb e477 463e
000002a0: 81fc fcbc 9ead babd b463 21be 459a 9dbd
000002b0: e979 bfbd 8f34 69be 3678 0d3e 7e2d 583d
000002c0: e866 a2be 7ff2 a43e 0cc9 d2bc 65bb 293e
000002d0: d1dc f8bd e0c9 1cbe b0b8 35bd 381d 7abd
000002e0: 4262 393e b06c c2bc 6e57 60be f067 403d
000002f0: b776 d2bd 782b 0abd 5149 48be 0c15 d13d
00000300: a19b 10be 3a37 023e b494 403e 2005 dfbc
00000310: 24ec 98bd 48f5 963d 3899 adbd 10c7 c13c
00000320: 6e8c b2be 1cb4 2abe c223 03be 7df5 efbc
00000330: 5f2c bc3d c2c2 cebd 3d8a ccbd 5060 fc3c
00000340: 91de 6bbd 3403 11be 83de 9a3d aa83 9bbd
00000350: 8c38 8abe 85f8 b2bc f9bb 64be 4900 6bbe
00000360: edc3 31bd a455 2fbe a8f9 ef3d 198a 10be
00000370: ef23 a0bd 3be3 96be b7f5 3d3e 3c4a 613e
00000380: a904 83be e18b 98bd d9da 6dba ddd1 59be
00000390: f347 b4bf e14e 2b3e 1008 33be 4d62 eabd
000003a0: 9d0b 33be c993 d83c 0564 70be 846f 84be
000003b0: 1c2b c3be 3207 81bf 23de c8be 8a8d 7fbe
000003c0: f783 7c3d d944 fdbc 96a8 923b 063f 183e
000003d0: 170b e4be d048 2dbe a88e 093e b959 3fbe
000003e0: 4b16 35bd 3b2c c93e 6c93 e63d a616 713e
000003f0: a3b9 94be cd5d bcbd ec92 473e 4759 babc

fc_1.bias f4 [128]
-0.098680586 -0.13809155 0.102806106 0.0453725 -0.25240347 0.04629561 -0.069706276 0.06972033
-0.17445563 -0.18701436 -0.09994093 0.15211093 0.1614274 -0.13190055 -0.070123024 -0.19360264
0.17241673 0.07389521 -0.21564052 -0.053759776 0.09598556 0.14501397 0.06555452 -0.14265198
-0.041435122 -0.05455314 0.09242257 -0.07102354 0.09594503 -0.1466517 -0.00048056836 -0.007782105
-0.08464547 -0.19178045 -0.24655393 0.001202323 0.12380504 -0.12114841 -0.104382955 0.006083682
-0.16044119 -0.19999431 -0.04383988 0.10407098 -0.06880009 0.04232947 0.16007848 -0.067006215
-0.21139926 -0.037605613 -0.2456958 -0.33919117 0.019764755 -0.2371616 -0.08460111 0.09930785
-0.08089778 0.09000963 -0.27229366 -0.11633677 0.10972382 -0.025978794 -0.02511117 -0.19011661
0.15703379 -0.22184086 -0.22270462 -0.31724346 -0.12555422 0.13378102 0.005651613 -0.14387622
0.012648025 -0.17041895 -0.24854937 -0.121374026 -0.05559044 -0.14974108 -0.10442463 -0.0414349
-0.24003005 -0.078587286 -0.036772393 0.028309308 -0.107342094 0.08022503 -0.04467841 0.008983252
-0.098306715 -0.009579351 -0.21226688 -0.07758734 -0.073637806 0.18044548 -0.120017156 0.1604236
-0.20947309 0.10069956 -0.007971391 -0.17874189 -0.23912287 0.053242832 -0.18870515 0.037942268
-0.18463689 0.020464031 -0.20126034 -0.1910006 -0.020679142 0.12637997 -0.30694997 0.14033508
-0.14804906 0.13516949 0.022539107 0.01740969 -0.11766768 -0.25471398 0.055892948 -0.1268791
0.08435529 0.07794868 0.013788206 -0.13002755 -0.08631255 0.112688825 -0.16197635 0.124771565
00000000: 0c19 cabd df67 0dbe 028c d23d 84d8 393d
00000010: 073b 81be 77a0 3d3d 2ac2 8ebd 88c9 8e3d
00000020: 7fa4 32be b180 3fbe d5ad ccbd f8c2 1b3e
00000030: 394d 253e f010 07be a99c 8fbd c53f 46be
00000040: 038e 303e 5f56 973d ded0 5cbe 3633 5cbd
00000050: 1494 c43d 8b7e 143e 7341 863d 5c13 12be
00000060: e0b7 29bd 1d73 5fbd 0b48 bd3d ca74 91bd
00000070: d47e c43d dd2b 16be cbf4 fbb9 0701 ffbb
00000080: 9b5a adbd 1862 44be a278 7cbe 4497 9d3a
00000090: 7f8d fd3d a81c f8bd bbc6 d5bd a059 c73b
000000a0: b24a 24be 4fcb 4cbe 7291 33bd 2a23 d53d
000000b0: 10e7 8cbd ab61 2d3d 9deb 233e 8e3a 89bd
000000c0: 0c79 58be 5808 1abd ae97 7bbe 77aa adbe
000000d0: b2e9 a13c 7eda 72be 5943 adbd ea61 cb3d
000000e0: bcad a5bd f856 b83d 136a 8bbe f941 eebd
000000f0: e2b6 e03d 7bd1 d4bc f1b5 cdbc eead 42be
00000100: 77cd 203e 402a 63be ae0c 64be bc6d a2be
00000110: 4991 00be e4fd 083e 2b31 b93b 4a54 13be
00000120: a939 4f3c 4e82 2ebe ba83 7ebe f292 f8bd
00000130: cdb2 63bd ba55 19be 95dc d5bd a4b7 29bd
00000140: 70ca 75be 5ff2 a0bd a69e 16bd ece8 e73c
00000150: 2cd6 dbbd 054d a43d b500 37bd 7d2e 133c
00000160: 0855 c9bd b6f2 1cbc 7d5c 59be 1ce6 9ebd
00000170: 6bcf 96bd b3c6 383e 8ecb f5bd 1646 243e
00000180: 1d80 56be 923b ce3d 709a 02bc 1d08 37be
00000190: a0dc 74be 2815 5a3d ec3b 41be 5a69 1b3d
000001a0: 7411 3dbe 2fa4 a73c 3117 4ebe a995 43be
000001b0: 4e67 a9bc c069 013e 8c28 9dbe 00b4 0f3e
000001c0: 2c9a 17be df69 0a3e efa3 b83c c49e 8e3c
000001d0: c1fb f0bd df69 82be 01f0 643d 98ec 01be
000001e0: 77c2 ac3d 8fa3 9f3d ede7 613c f125 05be
000001f0: a2c4 b0bd 66c9 e63d 21dd 25be 3c88 ff3d

fc_2.weight f4 [50, 128]
-0.035743255 -0.0853259 -0.019622395 -0.032530192 -0.1834065 0.041840166 0.14767066 -0.0110640265
0.051589105 -0.07624085 0.077640325 -0.05758081 0.08048648 -0.05075534 -0.0700331 0.018478535
0.09037064 -0.006479298 0.0578262 -0.06709517 0.061076153 0.04664699 0.057060484 0.037471883
0.0033433328 -0.11243942 0.04522523 -0.025112338 -0.015043582 0.08350556 0.011577988 -0.008072949
0.13645865 -0.030165311 -0.000708159 0.12661307 0.025234003 0.0168105 -0.063541695 -0.061710056
0.053513788 -0.041475 -0.00553254 -0.054439988 0.010889074 -0.034173004 0.14124651 -0.077712215
0.07248985 -0.15599214 -0.02427947 0.31124154 -0.00425826 -0.039020147 0.008315937 -0.03417908
-0.07822905 -0.04329723 -0.31110534 -0.009038091 0.08359751 0.031474005 0.053743273 -0.05810615
-0.056410998 -0.045198806 -0.026143972 -0.026583457 -0.026019853 0.050398543 0.028075527 0.062489785
-0.063629314 -0.029479295 -0.018378345 -0.034306545 -0.060671333 -0.053739212 -0.17378983 -0.04806142
-0.0059163715 -0.03855247 -0.010211436 -0.040925097 -0.027574686 -0.04726388 0.015036372 0.060759455
0.07609709 -0.072351106 -0.04837367 0.04355739 0.13521427 -0.042461574 0.014066016 0.009500469
0.030118018 0.0682205 0.015419163 0.01327084 -0.26602653 0.07110337 -0.078175366 0.0583414
-0.0055655017 0.041291844 -0.028968446 -0.009026993 -0.008650558 -0.04026929 -0.5651165 0.048767596
0.05905301 0.035888113 -0.00073641015 0.05122059 0.33390078 -0.032984775 0.060506746 -0.06476827
0.059307158 0.093974106 -0.0106800245 -0.021981731 -0.050851844 0.052262396 0.033457283 0.030569518
0.03135334 0.024552897 -0.038619775 -0.028162662 0.05451022 -0.00081205805 0.0023506815 -0.052835755
-0.11484379 0.0637323 0.09098123 -0.008157284 0.024648497 0.02662963 -0.020916315 0.06221097
0.13415872 0.011791013 -0.06716889 -0.10264293 -0.004785646 -0.0020336458 -0.002763956 -0.013946079
-0.013607304 -0.01818339 0.042674214 -0.07720141 -0.05479258 0.009873353 -0.043188553 0.11894467
-0.049556185 0.07867024 -0.05151279 0.08378356 0.06117728 0.020058118 0.04025101 0.0024801034
-0.063623816 0.0705428 0.01643375 -0.001672023 0.056629084 0.0312671 0.14321898 0.00687202
-0.01106562 -0.03936828 0.063589975 0.27107143 0.014068924 -0.006284523 -0.1320133 -0.02661662
0.054359578 -0.042286623 -0.30113992 -0.048548684 0.089634895 -0.014878831 -0.08519178 0.06499136
-0.04650513 -0.021263994 -0.014523411 0.043269265 0.0074603856 0.06591694 -0.020899938 -0.04207487
-0.008828032 -0.0029183626 -0.070541404 -0.02308055 -0.057555564 0.048654757 -0.1480594 0.032157037
-0.028538402 -0.058076877 0.026795099 0.12161222 -0.0716712 -0.04522675 0.05869064 -0.064690046
0.011403218 0.054140337 -0.004766218 -0.011833695 0.109533854 0.023775864 0.09272934 0.07001816
0.06634123 0.03659977 -0.01763766 -0.08288329 -0.16252035 0.13919924 -0.06217013 0.0076067825
0.039191328 0.014759445 0.035206757 -0.050877657 0.0024524583 -0.012486447 -0.4847242 0.04703307
-0.078262776 -0.061815985 -0.07239052 0.03529989 0.2606499 0.009167605 0.07628191 -0.03788041
-0.044009827 -0.0002680851 0.037680145 -0.031340364 -0.028847057 -0.0060613295 -0.09472699 0.16288267
00000000: 8567 12bd 58bf aebd 25bf a0bc 613e 05bd
00000010: eace 3bbe 9860 2b3d fa36 173e e445 35bc
00000020: 194f 533d 2a24 9cbd e401 9f3d dbd9 6bbd
00000030: 18d6 a43d d5e4 4fbd 846d 8fbd 4c60 973c
00000040: 3e14 b93d 4b50 d4bb 2adb 6c3d 3169 89bd
00000050: fd2a 7a3d ea10 3f3d 41b8 693d 1e7c 193d
00000060: d11b 5b3b a346 e6bd 173e 393d 64b8 cdbc
00000070: 5b79 76bc f704 ab3d 9ab1 3d3c 6744 04bc
00000080: d1bb 0b3e 3e1d f7bc bfa3 39ba dba6 013e
00000090: 8ab7 ce3c 2cb6 893c 2622 82bd afc3 7cbd
000000a0: 4631 5b3d b1e1 29bd 4f4a b5bb 77fc 5ebd
000000b0: 1668 323c fef8 0bbd eda2 103e 9527 9fbd
000000c0: 8f75 943d 67bc 1fbe bde5 c6bc 0d5b 9f3e
000000d0: e088 8bbb 97d3 1fbd 913f 083c 5dff 0bbd
000000e0: 8d36 a0bd 7058 31bd 3349 9fbe 8014 14bc
000000f0: 2c35 ab3d e3ea 003d e821 5c3d b700 6ebd
00000100: 380f 67bd 6222 39bd e22b d6bc 8dc5 d9bc
00000110: 9627 d5bc b46e 4e3d a6fe e53c 4af5 7f3d
00000120: 1650 82bd 907e f1bc 2f8e 96bc 0585 0cbd
00000130: 8182 78bd a61d 5cbd f6f5 31be 0ddc 44bd
00000140: 1fde c1bb 32e9 1dbd de4d 27bc 13a1 27bd
00000150: 4fe4 e1bc c597 41bd 1d5b 763c e8de 783d
00000160: cbd8 9b3d d12c 94bd 7823 46bd 3c69 323d
00000170: 9c75 0a3e 30ec 2dbd 2675 663c dba7 1b3c
00000180: 10ba f63c 31b7 8b3d a8a0 7c3c f06d 593c
00000190: a134 88be a59e 913d 681a a0bd 64f7 6e3d
000001a0: d05e b6bb a321 293d 3c4f edbc f4e5 13bc
000001b0: 12bb 0dbc 69f1 24bd 7aab 10bf 88c0 473d
000001c0: 92e1 713d 6aff 123d a60b 41ba aecc 513d
000001d0: 0bf5 aa3e 0b1b 07bd ecd5 773d 3aa5 84bd
000001e0: 10ec 723d 7f75 c03d 45fb 2ebc 0813 b4bc
000001f0: 064a 50bd 1811 563d 810a 093d ed6c fa3c
00000200: 5c6c 003d 2823 c93c c52f 1ebd 62b5 e6bc
00000210: 1c46 5f3d 4be0 54ba e40d 1a3b 4e6a 58bd
00000220: 3933 ebbd 1586 823d 5e54 ba3d 21a6 05bc
00000230: a5eb c93c 6226 da3c b158 abbc eed0 7e3d
00000240: e760 093e 182f 413c d88f 89bd 7536 d2bd
00000250: e9d0 9cbb ea46 05bb 7d23 35bb 187e 64bc
00000260: 2bf1 5ebc 55f5 94bc 28cb 2e3d c61b 9ebd
00000270: 2f6e 60bd d8c3 213c 7be6 30bd 4399 f33d
00000280: 6dfb 4abd dd1d a13d 13ff 52bd b796 ab3d
00000290: 0795 7a3d ec50 a43c 3ede 243d 3b89 223b
000002a0: 344d 82bd be78 903d 12a0 863c c827 dbba
000002b0: e6f3 673d ee11 003d ffa7 123e af2e e13b
000002c0: 934c 35bc a240 21bd 763b 823d e0c9 8a3e
000002d0: 5881 663c 66ee cdbb 7f2e 07be 190b dabc
000002e0: 26a8 5e3d bd34 2dbd 032f 9abe fcda 46bd
000002f0: 8092 b73d 57c6 73bc 0779 aebd 311a 853d
00000300: 2a7c 3ebd d431 aebc 9af3 6dbc 1d3b 313d
00000310: 4076 f43b 76ff 863d 5936 abbc b356 2cbd
00000320: 73a3 10bc 0042 3fbb 0378 90bd 6c13 bdbc
00000330: 62bf 6bbd 364a 473d e29c 17be 19b7 033d
00000340: 5ec9 e9bc 05e2 6dbd 6581 db3c d40f f93d
00000350: 5ac8 92bd af3f 39bd 9965 703d 377c 84bd
00000360: 90d4 3a3c 42c2 5d3d ef2d 9cbb 1de2 41bc
00000370: 4953 e03d 9ac5 c23c e1e8 bd3d ae65 8f3d
00000380: e9dd 873d a4e9 153d db7c 90bc b7be a9bd
00000390: bc6b 26be 3f8a 0e3e 1ba6 7ebd 5142 f93b
000003a0: 1687 203d 99d1 713c f634 103d 1765 50bd
000003b0: 6cb9 203b f493 4cbc c52d f8be c0a5 403d
000003c0: 3c48 a0bd c232 7dbd 7b41 94bd 9e96 103d
000003d0: e773 853e b933 163c b139 9c3d 7d28 1bbd
000003e0: a643 34bd c68d 8cb9 7f56 1a3d c15e 00bd
000003f0: aa50 ecbc 1e9e c6bb 3900 c2bd b7ca 263e

fc_2.bias f4 [50]
0.012878062 0.004869592 -0.02355874 0.011910673 -0.018561117 -0.03520981 -0.013304643 0.0025191535
0.007131162 -0.016075669 -0.019664114 0.019106107 0.03507935 0.019705277 -0.025410356 0.021680102
-0.0007471994 -0.013956044 0.029446859 0.007863822 -0.017325904 0.0036491225 0.014855079 -0.020347752
0.03238414 -0.02519451 -0.02517806 -0.023777714 0.008050181 0.03205615 -0.01781553 0.041749455
0.030750928 0.036677264 0.0004933049 0.0038132647 -0.026016628 0.014209444 0.025827017 0.022582224
0.033362515 -0.007546827 0.027663298 0.01509133 0.030939931 0.0028146612 -0.007602427 0.022182295
0.027463565 -0.024987526
00000000: 82fe 523c 1991 9f3b 42fe c0bc fc24 433c
00000010: 7c0d 98bc 2938 10bd b8fb 59bc 6218 253b
00000020: 86ac e93b 1fb1 83bc a316 a1bc 6984 9c3c
00000030: 5daf 0f3d f66c a13c 6129 d0bc 789a b13c
00000040: b4df 43ba e4a7 64bc 8a3a f13c 43d7 003c
00000050: 0eef 8dbc 1e26 6f3b b862 733c 54b0 a6bc
00000060: 3ba5 043d b864 cebc 3842 cebc 7bc9 c2bc
00000070: e8e4 033c 4f4d 033d e0f1 91bc 7a01 2b3d
00000080: 5fe9 fb3c e63a 163d 2251 013a f7e7 793b
00000090: d320 d5bc bace 683c 2e93 d33c 5bfe b83c
000000a0: 22a7 083d 604b f7bb 249e e23c a041 773c
000000b0: bd75 fd3c 2e76 383b c81d f9bb a5b7 b53c
000000c0: 45fb e03c a4b2 ccbc
