model.pth (torch, 44218 bytes, 16 tensors)

lstm.weight_ih_l0 f4 [40, 5]
-0.074313685 0.30487663 0.11774227 0.2926219 0.14252512 0.13720307 0.008941864 -0.31383306
-0.2665181 -0.08066869 0.23564476 0.04098267 0.08379879 0.43984365 0.20926593 -0.22589348
-0.018664625 -0.0386836 0.32278988 0.27356318 -0.35940439 -0.00633844 -0.5497671 0.23250629
-0.1910691 0.19093919 -0.029970938 0.19467717 0.269814 -0.3160845 -0.013366796 0.22220954
0.20380528 -0.076711714 0.010267036 0.041299444 -0.15978582 0.023206806 0.2680807 0.24707425
0.33324888 -0.24465358 0.17378141 0.25451198 0.117050886 -0.2780072 -0.22404066 -0.11167761
0.3340845 -0.16320066 0.2561452 -0.1428842 0.11003925 0.3737153 0.114932396 0.07231772
0.064950176 0.015907798 0.110829756 -0.014068059 0.055887565 -0.059959996 -0.06848119 0.024604458
0.16752967 -0.3710546 0.23062904 -0.34258503 -0.17812324 0.012539921 -0.26051795 0.098293744
-0.13770135 0.17634194 0.004666906 -0.29516655 -0.31967652 -0.30571482 0.13605033 -0.33563268
0.012527909 0.21736933 -0.38375562 0.018902017 0.09758969 -0.2793948 -0.101576105 0.023338495
-0.044600084 -0.11401318 0.3098369 -0.012098258 0.17198525 -0.22449753 -0.26344705 -0.28655022
-0.28817317 -0.17959528 0.037732117 0.21814467 0.026062874 0.3733646 0.006520946 0.23515314
0.25096324 0.18364918 0.3158874 0.29366943 0.23018064 0.052321587 0.031679414 -0.19535078
-0.2352174 0.33340943 0.056712266 0.11774372 0.17748384 0.14099675 0.019857677 0.24415797
-0.18796507 -0.42416993 -0.15356505 -0.029633483 -0.007182786 -0.21014586 -0.074942335 0.21070407
0.22452684 0.17681314 0.049455903 0.26541695 -0.09314933 0.041916568 -0.0070565445 -0.15818913
0.07799873 -0.41478336 0.034555797 0.24557649 -0.0040662475 -0.012028826 0.15010194 -0.11391339
-0.11071001 -0.25881124 -0.32971165 -0.18503635 -0.24526481 -0.25389847 0.23112379 -0.24492773
-0.2046925 0.37285218 0.16000207 0.07567699 -0.17118299 -0.38275853 0.16580153 -0.021505978
0.08787089 0.21767963 -0.09738084 0.43294612 0.2936336 0.09251123 -0.3661866 -0.053710826
0.04512744 -0.11446222 -0.114712216 -0.3923398 -0.40266663 -0.18762824 -0.28603533 -0.012451126
0.040432658 0.28131568 -0.11920122 0.25181314 -0.2307856 -0.27457348 -0.07637529 0.30733085
-0.3235694 -0.27289724 0.0558486 0.03791474 0.04353341 0.14437295 -0.13162886 0.26185217
0.11314247 -0.14534578 0.22313118 -0.057805486 -0.16091196 0.19106613 0.18050346 0.043903556
00000000: c631 98bd ca18 9c3e dc22 f13d 8ad2 953e
00000010: 1bf2 113e f67e 0c3e e580 123c baae a0be
00000020: 0f75 88be a035 a5bd dc4c 713e 72dd 273d
00000030: b39e ab3d 3033 e13e cf49 563e 9f50 67be
00000040: 8ee6 98bc b272 1ebd b744 a53e 7910 8c3e
00000050: da03 b8be b0b2 cfbb 89bd 0cbf 2116 6e3e
00000060: 9ea7 43be 9085 433e 9d85 f5bc 7459 473e
00000070: 1025 8a3e d4d5 a1be 6800 5bbc e68a 633e
00000080: 55b2 503e 081b 9dbd 1237 283c 9b29 293d
00000090: e59e 23be 331c be3c e041 893e 0801 7d3e
000000a0: 999f aa3e 7886 7abe c1f3 313e 654f 823e
000000b0: 60b8 ef3d f656 8ebe ea6a 65be 3bb7 e4bd
000000c0: 200d ab3e 131e 27be 7725 833e 3c50 12be
000000d0: 425c e13d 9d57 bf3e ad61 eb3d 501b 943d
000000e0: 9904 853d 1251 823c b6fa e23d b77d 66bc
000000f0: 5cea 643d 9d98 75bd de3f 8cbd 4a8f c93c
00000100: e68c 2b3e defa bdbe 052a 6c3e 4e67 afbe
00000110: f065 36be 3e74 4d3c 9c62 85be 3b4e c93d
00000120: 9501 0dbe fb92 343e d8ec 983b 1220 97be
00000130: a4ac a3be a786 9cbe c750 0b3e 0cd8 abbe
00000140: dc41 4d3c 1196 5e3e 9e7b c4be 67d8 9a3c
00000150: 1add c73d d60c 8fbe 2207 d0bd 5f30 bf3c
00000160: 94ae 36bd be7f e9bd f1a2 9e3e c637 46bc
00000170: e71c 303e aee2 65be 88e2 86be b6b6 92be
00000180: 6f8b 93be d3e7 37be fe8c 1a3d 5161 5f3e
00000190: cf81 d53c a529 bf3e a9ad d53b fccb 703e
000001a0: 417e 803e 880e 3c3e febb a13e d75b 963e
000001b0: 79b4 6b3e 294f 563d 46c2 013d 090a 48be
000001c0: d5dc 70be a4b4 aa3e 1f4b 683d 9f23 f13d
000001d0: 53be 353e 7461 103e 91ac a23c 8c04 7a3e
000001e0: ea79 40be cd2c d9be 2840 1dbe ebc1 f2bc
000001f0: 935d ebbb 7a30 57be 5e7b 99bd cfc2 573e
00000200: 5dea 653e 810e 353e 4692 4a3d bbe4 873e
00000210: 13c5 bebd b5b0 2b3d 963a e7bb 55fc 21be
00000220: ccbd 9f3d 7c5e d4be 618a 0d3d 6778 7b3e
00000230: 283e 85bb 8e14 45bc 53b4 193e 6c4b e9bd
00000240: eebb e2bd e882 84be f7cf a8be 2b7a 3dbe
00000250: b326 7bbe fbfe 81be b7ab 6c3e 56ce 7abe
00000260: e99a 51be 7be6 be3e 95d7 233e 8afc 9a3d
00000270: 984a 2fbe edf8 c3be e0c7 293e 4e2d b0bc
00000280: a7f5 b33d 69e7 5e3e 9b6f c7bd 1dab dd3e
00000290: 2557 963e 8776 bd3d cf7c bbbe e2ff 5bbd
000002a0: 8dd7 383d 2b6b eabd 3dee eabd c3e0 c8be
000002b0: 522a cebe 9e21 40be 3973 92be cfff 4bbc
000002c0: b79c 253d 9c08 903e c51f f4bd a7ed 803e
000002d0: 0f53 6cbe e594 8cbe a66a 9cbd 785a 9d3e
000002e0: e3aa a5be 30b9 8bbe 80c1 643d 7d4c 1b3d
000002f0: 1750 323d 81d6 133e b7c9 06be 7d11 863e
00000300: 3db7 e73d 86d5 14be 807c 643e 72c5 6cbd
00000310: 1bc6 24be d7a6 433e e6d5 383e 37d4 333d

lstm.weight_hh_l0 f4 [40, 10]
0.274162 -0.15229306 0.2222544 -0.25270158 0.08712366 -0.117465794 -0.2902697 0.033365346
0.18346222 0.12755564 0.2873079 0.22685735 0.23644912 -0.0014874078 0.1603521 0.20007424
0.17352603 -0.17977738 0.045023557 -0.054940905 0.22124374 -0.11435271 0.14730671 -0.25021213
-0.15205441 -0.10409779 0.29152125 0.34170684 -0.008150248 0.09414163 -0.22039549 -0.34633607
0.29735443 -0.051181093 -0.12826413 -0.13138416 -0.23712896 0.11383489 0.06725156 -0.1305503
0.31196365 -0.16357571 0.3209508 -0.36092463 0.28283253 -0.072576694 -0.55066395 0.14610754
0.14549108 0.4426862 0.20070407 -0.21118204 0.25301936 -0.30997777 -0.18784471 -0.2288991
0.25302577 -0.21817185 0.29535866 -0.14051008 0.09625922 -0.123034246 0.30731577 0.24034421
-0.34485352 0.013681268 0.18394744 0.23141767 -0.117153354 0.04130348 -0.06488182 -0.23552424
-0.22864297 -0.36255917 0.007872217 0.007253571 0.079153694 0.14535414 0.06627479 0.24897309
0.2299514 -0.039953165 -0.14868504 -0.23155151 -0.1761608 -0.34914303 -0.17129618 0.04544598
0.057606995 0.17322204 0.42206064 -0.11008934 -0.08646328 0.11647088 0.020325046 -0.099433124
-0.14109527 0.22224635 0.01862387 -0.25584704 -0.23096047 -0.11700473 0.23255421 0.076258995
-0.22152999 -0.20895433 0.18129078 -0.08823459 0.2643614 0.3848734 -0.3044272 0.17340867
-0.096920714 -0.18798402 0.11471458 0.19549026 -0.27969447 -0.006596892 -0.0037223708 0.48719275
0.31787634 -0.1217939 0.3662473 0.2830354 0.020617913 -0.24507093 -0.2973388 0.32503793
-0.06419068 0.15695255 0.11748228 -0.3651666 0.37569857 -0.15176658 0.40811464 0.06457347
-0.22423351 0.18358156 0.033530366 -0.047746275 0.15739009 0.1521726 -0.29877308 -0.32599205
-0.13882779 0.16726166 -0.124358535 -0.29780984 -0.087451264 0.22489329 -0.2913962 -0.11283497
-0.22635356 0.25975603 -0.12819563 0.22320685 0.037332762 -0.26490954 0.2851907 0.018391233
0.2704044 -0.35561085 -0.12566319 0.24791335 0.093586124 -0.16607258 -0.30591515 -0.0630748
0.0475953 0.30026874 -0.15994155 0.12843019 0.053916413 -0.30941662 -0.13577706 0.2655737
-0.010382146 0.14187068 0.04608925 -0.29514813 0.10051114 -0.27746624 -0.16543046 -0.20659386
-0.04956318 -0.24484117 0.1630372 0.1261672 -0.09434406 -0.122901015 -0.07618137 -0.13657703
0.16101378 -0.01573301 0.33333594 -0.004427075 -0.10950559 0.11594944 -0.20452558 -0.32808256
0.11134547 0.3750294 -0.4024546 0.15908585 -0.12525454 0.28497496 0.099648535 -0.26879606
-0.1692405 -0.14277317 -0.14988111 0.30822518 0.18470064 -0.18475778 0.3942169 0.023428252
-0.000114161325 -0.3691335 -0.015178681 0.17965983 -0.16631521 -0.20517012 -0.118070535 0.109754466
-0.056044806 0.06533081 -0.1537958 0.18159875 -0.2938797 -0.10728035 -0.10100966 -0.25570762
-0.2627304 0.18583137 -0.08749309 0.097982444 -0.19665512 -0.027399383 -0.07586516 -0.048223827
0.31385812 0.28802976 0.017229035 0.033490255 0.4774456 -0.07311186 0.17693225 -0.21687129
0.24522948 0.10446246 0.3073974 0.1007202 -0.06952095 -0.05089823 -6.4154505e-05 0.06065208
00000000: f65e 8c3e b6f2 1bbe a896 633e 1a62 81be
00000010: e46d b23d e891 f0bd 3b9e 94be 1aaa 083d
00000020: 85dd 3b3e f29d 023e 051a 933e 4b4d 683e
00000030: b81f 723e 20f5 c2ba 5733 243e 43e0 4c3e
00000040: cfb0 313e 9017 38be 9f6a 383d b709 61bd
00000050: b88d 623e c131 eabd 92d7 163e ce1b 80be
00000060: 27b4 1bbe 3931 d5bd 4642 953e 33f4 ae3e
00000070: 9e88 05bc 54cd c03d 5baf 61be f652 b1be
00000080: d73e 983e 44a3 51bd ac57 03be 9289 06be
00000090: efd1 72be 4422 e93d 30bb 893d faae 05be
000000a0: b3b9 9f3e 6480 27be aa53 a43e 1dcb b8be
000000b0: 6dcf 903e 17a3 94bd 50f8 0cbf 379d 153e
000000c0: 9dfb 143e c4a7 e23e 5e85 4d3e 1b40 58be
000000d0: c18b 813e 68b5 9ebe 5d5a 40be 8764 6abe
000000e0: 988c 813e 7168 5fbe 4039 973e e0e1 0fbe
000000f0: 8e23 c53d 61f9 fbbd 7e58 9d3e cb1c 763e
00000100: a490 b0be 6627 603c b85c 3c3e c1f8 6c3e
00000110: 19ee efbd d62d 293d c2e0 84bd 442d 71be
00000120: 6221 6abe 5ba1 b9be 79fa 003c 5daf ed3b
00000130: 551b a23d b7d7 143e 14bb 873d cdf2 7e3e
00000140: 6178 6b3e eea5 23bd e440 18be d71b 6dbe
00000150: 7f63 34be e0c2 b2be 4468 2fbe 9025 3a3d
00000160: 50f5 6b3d 1e61 313e 5518 d83e 8576 e1bd
00000170: a913 b1bd 4988 ee3d b680 a63c 98a3 cbbd
00000180: 477b 10be 8c94 633e 1691 983c 62fe 82be
00000190: e780 6cbe 2da0 efbd b122 6e3e ad2d 9c3d
000001a0: c2d8 62be 20f8 55be 4aa4 393e 56b4 b4bd
000001b0: 615a 873e 200e c53e e2dd 9bbe 0b92 313e
000001c0: 5e7e c6bd e27e 40be 7aef ea3d 992e 483e
000001d0: 1d34 8fbe be2a d8bb 05f3 73bb 5471 f93e
000001e0: b0c0 a23e 156f f9bd c484 bb3e 04ea 903e
000001f0: e6e6 a83c e0f3 7abe cb3c 98be 5f6b a63e
00000200: 6776 83bd 2bb8 203e 8d9a f03d 1ef7 babe
00000210: 905b c03e b368 1bbe 67f4 d03e 183f 843d
00000220: 789d 65be cefc 3b3e 2357 093d 9991 43bd
00000230: de2a 213e 22d3 1b3e c9f8 98be 6ee8 a6be
00000240: df28 0ebe a446 2b3e b0af febd 887a 98be
00000250: a619 b3bd 6d4a 663e e231 95be 0516 e7bd
00000260: 3ac9 67be befe 843e b745 03be 5690 643e
00000270: 3dea 183d 39a2 87be 8404 923e 36a9 963c
00000280: 7272 8a3e a012 b6be daad 00be ffdc 7d3e
00000290: 15aa bf3d ee0e 2abe e9a0 9cbe 5c2d 81bd
000002a0: 4af3 423d d3bc 993e b8c7 23be 3483 033e
000002b0: 75d7 5c3d db6b 9ebe 2409 0bbe 47f9 873e
000002c0: e019 2abc 8c46 113e 15c8 3c3d a81d 97be
000002d0: c9d8 cd3d 0e10 8ebe 9a66 29be 578d 53be
000002e0: c302 4bbd a5b7 7abe 39f3 263e f931 013e
000002f0: 7537 c1bd 87b3 fbbd fa04 9cbd d9da 0bbe
00000300: cce0 243e 83e2 80bc 02ab aa3e ff10 91bb
00000310: 7744 e0bd e676 ed3d 276f 51be 70fa a7be
00000320: 1809 e43d db03 c03e 880e cebe 67e7 223e
00000330: ba42 00be 3de8 913e 8814 cc3d a39f 89be
00000340: 624d 2dbe 2133 12be 6f7a 19be b1cf 9d3e
00000350: 2a22 3d3e 2531 3dbe ccd6 c93e 9bec bf3c
00000360: e569 efb8 11ff bcbe 01b0 78bc bff8 373e
00000370: 894e 2abe 1e18 52be f7ce f1bd f3c6 e03d
00000380: 3d8f 65bd 29cc 853d a57c 1dbe 06f5 393e
00000390: 6677 96be cdb5 dbbd 27de cebd 1cec 82be
000003a0: 9984 86be 944a 3e3e 942f b3bd 05ab c83d
000003b0: f65f 49be ac74 e0bc 315f 9bbd 5986 45bd
000003c0: 03b2 a03e a378 933e e823 8d3c 142d 093d
000003d0: c073 f43e acbb 95bd ba2d 353e 8213 5ebe
000003e0: 701d 7b3e 6af0 d53d 3163 9d3e 6446 ce3d
000003f0: 0061 8ebd aa7a 50bd b08a 86b8 516e 783d

lstm.bias_ih_l0 f4 [40]
0.38265294 -0.11387723 0.1003802 -0.1747903 0.45766434 0.2915713 0.2776532 0.10162638
0.18189576 -0.056153294 0.1844104 0.3493561 -0.18521965 -0.32015762 0.026751427 0.05276883
-0.1244506 0.044142425 -0.14761946 -0.2573405 0.05658008 0.058800735 -0.12492129 0.3210555
-0.025560832 0.22748658 0.19765827 -0.14592114 0.13642941 -0.03400431 -0.23311608 -0.11353044
0.07918549 -0.2503421 0.335339 -0.0374947 0.23897022 0.21851979 0.06606591 -0.16422532
00000000: 16eb c33e 7738 e9bd 2294 cd3d 3afc 32be
00000010: fb52 ea3e d548 953e 8f28 8e3e 7e21 d03d
00000020: e242 3a3e ff00 66bd 14d6 3c3e cede b23e
00000030: 38aa 3dbe b3eb a3be cf25 db3c 2124 583d
00000040: f5df febd b0ce 343d 8e29 17be 22c2 83be
00000050: 84c0 673d 0ad9 703d bcd6 ffbd 6361 a43e
00000060: f364 d1bc 3ef2 683e ee66 4a3e 5a6c 15be
00000070: 27b4 0b3e 1a48 0bbd fbb5 6ebe a682 e8bd
00000080: 012c a23d d72c 80be 8eb1 ab3e 0b94 19bd
00000090: 9cb4 743e a7c3 5f3e 904d 873d af2a 28be

lstm.bias_hh_l0 f4 [40]
-0.06024995 0.25360325 0.1668257 -0.20289429 -0.013865893 0.15838502 0.03444132 0.36125982
-0.13869715 0.043571237 -0.081744365 0.06718729 -0.22904953 0.046612248 0.3505483 -0.16210559
-0.16840161 0.10624632 -5.6434867e-05 -0.15091665 0.10796558 0.19322966 0.051498994 -0.1534085
-0.23602442 0.2894552 -0.25825253 -0.0640515 0.123624854 0.17094104 -0.029422052 0.3472885
-0.14700082 0.26750687 0.14265782 -0.10566529 -0.2518986 0.35036904 -0.06448858 -0.2545005
00000000: a7c8 76bd 49d8 813e 5bd4 2a3e 85c3 4fbe
00000010: c52d 63bc af2f 223e 5712 0d3d 0cf7 b83e
00000020: a006 0ebe c177 323d 9769 a7bd 7d99 893d
00000030: f68b 6abe 7cec 3e3d 117b b33e 02ff 25be
00000040: 7971 2cbe ac97 d93d 7ab4 6cb8 e589 1abe
00000050: 0f1d dd3d ffdd 453e 9cf0 523d 1e17 1dbe
00000060: 63b0 71be 7933 943e ad39 84be 6f2d 83bd
00000070: 072f fd3d 2b0b 2f3e 8406 f1bc cccf b13e
00000080: 6287 16be a9f6 883e e414 123e 0b67 d8bd
00000090: daf8 80be 9263 b33e 9712 84bd e44d 82be

lstm.weight_ih_l1 f4 [40, 10]
0.07438739 -0.013530356 0.24197765 -0.15765633 0.3025533 0.05160943 -0.05568767 0.10863002
-0.10688885 -0.078617044 -0.23288774 0.05939509 -0.17121042 0.1600638 -0.33372125 0.30672944
-0.060835905 0.18796538 0.36229244 -0.19292516 0.071572445 -0.14540362 -0.41850504 0.22238679
0.073601075 -0.2164871 -0.045411102 0.3379433 0.07127542 -0.048538778 0.21613033 -0.320562
0.10119966 -0.10573768 -0.21303037 0.059740867 -0.31391656 0.22484352 0.02151752 0.19352193
-0.32907465 -0.25896677 0.12327924 0.014057431 -0.22449939 -0.16482134 0.036816385 0.25090462
-0.1655629 0.27315325 -0.30095923 0.29022476 0.0010800636 0.124613784 -0.0021795547 -0.2718669
0.19570109 -0.23409842 0.11933435 -0.047237072 -0.3194488 -0.25384218 0.24789877 -0.32633272
0.33372062 0.16362938 -0.27366877 0.099708594 -0.210807 0.19981697 -0.033650067 -0.046582878
0.21976553 -0.22708009 -0.1381515 0.17640512 0.12671626 -0.099330425 -0.19177301 0.23793086
0.13364086 -0.18520495 -0.050197285 -0.35958582 0.018431857 -0.0969654 0.120894454 0.11678886
0.37101254 -0.119013295 0.33523685 0.027663548 0.44545025 0.27155435 -0.25693625 -0.27842245
0.13069925 0.27189574 0.022154465 -0.09865538 0.12957624 0.23824804 0.027012993 -0.12442226
0.0981219 0.18457581 -0.13326581 0.022871185 0.29793644 0.3054159 -0.011400882 0.073771104
-0.20066348 0.14336236 -0.332299 0.10282118 -0.12151806 -0.14667372 -0.04178698 -0.04857303
-0.16138092 -0.25554994 -0.39805198 -0.22738034 -0.1001771 0.3085493 -0.06034565 0.08402325
-0.064433135 0.25359195 -0.0101905195 -0.4847361 -0.10364833 -0.2540132 -0.22044209 -0.08741881
-0.36345255 -0.22831093 0.2780318 0.16579093 0.15806079 -0.28660446 0.007686404 -0.16997509
0.08463365 -0.13585275 -0.18391716 0.32129216 0.2502229 -0.024177844 0.2538007 0.15848437
-0.19477135 0.009314908 -0.10535481 0.019734325 0.37639803 -0.2892511 -0.106194094 0.062139966
-0.2897845 -0.4285826 0.07676886 -0.2620228 -0.15348053 0.33409634 -0.5930865 0.11012849
-0.1071755 0.13650863 -0.15789054 -0.10936286 0.0077404915 -0.26169282 -0.069653384 -0.020830236
-0.07266344 -0.27019715 -0.01944876 -0.2539151 0.2001244 0.17388026 -0.0859352 0.0056308117
0.29229409 -0.11966718 -0.3839015 0.22677198 -0.107282296 0.17358926 0.0738726 0.07756379
0.48964268 0.19901104 -0.40294096 0.16676079 0.15050818 0.09590777 -0.13811983 0.08620568
-0.17086343 -0.16044986 0.0077781747 0.019337075 -0.09890114 -0.012849156 0.29083693 0.30206466
-0.0013807893 0.08348294 0.18280111 -0.13333467 0.28475475 -0.058593318 -0.25444663 -0.25401995
-0.06350357 0.009178016 -0.10908174 0.035879195 0.13593723 -0.08520843 -0.19151452 -0.20467348
0.32092264 0.0076718275 -0.30061725 0.094903395 -0.18383658 -0.21186195 0.010593887 -0.21625002
0.20418952 0.15352507 0.21319641 0.1761742 -0.17027394 -0.14518325 0.14090936 0.16196626
0.016165184 0.21122591 0.2830385 -0.23563431 0.12958789 0.27844545 0.034601938 -0.20626968
-0.2776896 0.23971601 -0.024908787 0.113817446 0.02396311 0.31445986 0.15088604 0.21809459
00000000: 6a58 983d 6dae 5dbc fdc8 773e a970 21be
00000010: 44e8 9a3e 6964 533d c118 64bd 6a79 de3d
00000020: 8be8 dabd f901 a1bd 207a 6ebe 4448 733d
00000030: c951 2fbe c4e7 233e 83dd aabe a40b 9d3e
00000040: 122f 79bd ff79 403e 657e b93e 2c8e 45be
00000050: 9394 923d b0e4 14be 4b46 d6be 5db9 633e
00000060: 29bc 963d cbae 5dbe fe00 3abd e706 ad3e
00000070: d9f8 913d 99d0 46bd 4551 5d3e b420 a4be
00000080: c441 cf3d ff8c d8bd a224 5abe d7b2 743d
00000090: acb9 a0be 613d 663e 8345 b03c 9d2a 463e
000000a0: 797c a8be 4b97 84be d479 fc3d 2451 663c
000000b0: 2be3 65be edc6 28be c7cc 163d 9276 803e
000000c0: 5289 29be beda 8b3e 5417 9abe 5798 943e
000000d0: ec90 8d3a 8335 ff3d dcd6 0ebb 2332 8bbe
000000e0: de65 483e 7fb7 6fbe 9165 f43d a97b 41bd
000000f0: cb8e a3be 9af7 81be 2dd9 7d3e 1515 a7be
00000100: 6edd aa3e 768e 273e 501e 8cbe 0534 cc3d
00000110: cadd 57be d29c 4c3e a7d4 09bd b0cd 3ebd
00000120: 370a 613e af87 68be 9677 0dbe 8ba3 343e
00000130: e8c1 013e c06d cbbd 2560 44be 26a4 733e
00000140: 26d9 083e 5ea6 3dbe ab9b 4dbd a21b b8be
00000150: 68fe 963c cc95 c6bd 8397 f73d ff2e ef3d
00000160: 5bf5 bd3e 3ebd f3bd 2aa4 ab3e aa9e e23c
00000170: 0e12 e43e 2c09 8b3e 268d 83be 638d 8ebe
00000180: 06d6 053e eb35 8b3e 487d b53c d50b cabd
00000190: a2af 043e 4bf7 733e 5a4a dd3c 19d1 febd
000001a0: 22f4 c83d 7101 3d3e d576 08be 5a5c bb3c
000001b0: 208b 983e 795f 9c3e c4ca 3abc 4e15 973d
000001c0: ba7a 4dbe 95cd 123e 1823 aabe e993 d23d
000001d0: 76de f8bd a331 16be d328 2bbd 83f4 46bd
000001e0: 0a41 25be 71d7 82be 78cd cbbe 64d6 68be
000001f0: a729 cdbd 2dfa 9d3e 002d 77bd 6214 ac3d
00000200: 85f5 83bd ced6 813e 23f6 26bc 552f f8be
00000210: 9345 d4bd 050e 82be 92bb 61be a208 b3bd
00000220: 7416 babe 57ca 69be 2f5a 8e3e 19c5 293e
00000230: b0da 213e d2bd 92be 3bde fb3b f30d 2ebe
00000240: 6854 ad3d fc1c 0bbe c854 3cbe 6880 a43e
00000250: 371d 803e 9d10 c6bc 2af2 813e ba49 223e
00000260: 2472 47be 8e9d 183c 43c4 d7bd e1a9 a13c
00000270: 3eb7 c03e b818 94be 4a7c d9bd 7a86 7e3d
00000280: a25e 94be 2e6f dbbe fe38 9d3d da27 86be
00000290: 002a 1dbe ad0e ab3e 84d4 17bf 0c8b e13d
000002a0: d47e dbbd ebc8 0b3e 0fae 21be a3f9 dfbd
000002b0: f3a3 fd3b 9afc 85be 6fa6 8ebd 2ca4 aabc
000002c0: 92d0 94bd 4857 8abe 0253 9fbc 2901 82be
000002d0: 69ed 4c3e ab0d 323e cbfe afbd ac82 b83b
000002e0: 92a7 953e 1114 f5bd bd8e c4be ea36 683e
000002f0: d2b6 dbbd 62c1 313e 854a 973d c4d9 9e3d
00000300: 72b2 fa3e 8dc9 4b3e 474e cebe 57c3 2a3e
00000310: d11e 1a3e 4b6b c43d 496f 0dbe 9b8c b03d
00000320: d3f6 2ebe f84c 24be 0fe0 fe3b c968 9e3c
00000330: ae8c cabd 4485 52bc 94e8 943e 38a8 9a3e
00000340: 9afb b4ba 1bf9 aa3d 3730 3b3e e288 08be
00000350: 60cb 913e 8cff 6fbd d446 82be e70e 82be
00000360: 290e 82bd 645f 163c 3f66 dfbd 10f6 123d
00000370: 2133 0b3e c281 aebd 621c 44be ed95 51be
00000380: f94f a43e f463 fb3b 81ea 99be b65c c23d
00000390: a83f 3cbe 57f2 58be fc91 2d3c a570 5dbe
000003a0: 0f17 513e ad35 1d3e 2950 5a3e 0267 343e
000003b0: 4b5c 2ebe ebaa 14be 8b4a 103e 7cda 253e
000003c0: d96c 843c 9b4b 583e 6cea 903e 1f4a 71be
000003d0: b0b2 043e 6790 8e3e c3ba 0d3d 5c38 53be
000003e0: 552d 8ebe 1d78 753e 830d ccbc 1f19 e93d
000003f0: 494e c43c e200 a13e df81 1a3e 3054 5f3e

lstm.weight_hh_l1 f4 [40, 10]
0.097165585 -0.29222745 0.17876169 0.047921825 -0.16007374 0.118559614 0.16792212 0.13796255
0.18194881 -0.057199016 0.24973729 0.19250363 -0.13218907 0.30479258 0.024829915 0.19360502
0.20823404 0.0673151 -0.24563067 0.1388495 -0.17730916 0.045149453 0.081217945 -0.2694167
-0.11156511 -0.25872517 0.38649917 0.15629825 0.34404892 0.017124256 0.19448286 -0.17078704
-0.3382113 0.03688792 0.060909484 -0.0155012105 -0.2018075 -0.12177205 0.23193306 0.14747167
-0.082490094 -0.2835828 0.13998808 0.46901658 -0.004537419 0.08930054 0.3865404 -0.26463342
0.2367804 -0.14969623 -0.38873732 -0.3230482 0.16605134 -0.017647523 -0.30110845 -0.20006545
0.060115512 -0.17806175 0.44848126 0.46298662 0.46052486 0.36542585 0.4445364 -0.315639
-0.1524444 -0.12114953 -0.018959988 -0.5135851 -0.05720374 -0.26900846 -0.15196027 -0.14625673
-0.25573015 0.08408064 -0.011638061 0.29968205 -0.106725305 0.23521802 -0.17697543 0.033474542
-0.39905572 -0.24354778 -0.40994808 0.36362454 -0.30613104 -0.21067044 -0.016380232 -0.20216806
-0.05955625 -0.05384616 0.016821425 0.11834477 -0.19681624 0.19060318 0.03846738 0.26244363
-0.033449005 -0.24798198 -0.42065287 0.22192617 -0.21053489 0.023419024 -0.092652 0.15009193
-0.05879214 0.13040487 0.58893865 0.20489952 -0.09646046 -0.0055752406 -0.065759376 -0.3369846
-0.15556689 0.3717001 -0.41863433 -0.25501788 0.32891515 0.21015817 0.25276262 -0.084856145
-0.084475376 -0.1412918 -0.30610162 0.3366914 -0.21386972 -0.46483368 0.327931 0.20417365
0.2161285 -0.0035425855 -0.22101054 -0.23292217 -0.07730879 0.3855142 -0.08520654 -0.1934014
-0.11803115 0.014179181 0.13639551 -0.11888069 -0.3137274 -0.16332695 -0.40493947 0.26231077
-0.1692875 -0.2820491 0.05250043 -0.0640327 0.49819723 0.033846598 -0.393666 -0.4652552
0.052331332 0.05539869 -0.2945437 -0.3169133 0.18095255 0.0049423994 0.55864096 0.267127
0.39281675 0.3523422 0.4987318 0.057412233 0.44467282 0.21059301 -0.12443299 -0.54389
-0.12943108 -0.44033608 0.16644265 -0.0068144123 -0.22089961 -0.07535592 -0.1873826 0.08422094
-0.01977024 -0.09109634 -0.10385554 -0.21075617 -0.17919612 0.014387277 -0.010685594 0.23488566
-0.3052597 -0.41297808 -0.08097671 0.3489786 0.4916997 0.34769318 -0.29862136 -0.29747084
-0.23730864 0.1063816 0.104802504 -0.10658701 0.14680889 0.086918026 0.18844406 0.07270793
0.30626827 0.18146765 -0.00088110165 -0.17022829 0.23202516 0.06881565 -0.080895565 -0.2119108
0.26155013 0.08298636 0.36518162 0.24752721 0.015340652 -0.3113926 0.1760324 -0.040267102
-0.05920062 -0.10916117 -0.031537652 -0.3578712 -0.037949257 0.3698996 0.16799536 0.09460773
-0.065655544 -0.052571982 0.17678262 -0.17632253 -0.3209928 -0.30753314 -0.071212836 -0.14405334
-0.25460228 0.065336354 0.16258165 0.041963685 -0.103059284 0.3118787 0.07438432 0.24908054
0.002208073 0.3567574 0.27752978 -0.21316883 0.09985016 0.20406602 0.3320597 -0.11098978
-0.16317986 -0.03475297 0.3168031 0.23367207 0.16722222 0.08760294 0.38581607 -0.02186814
00000000: c0fe c63d d69e 95be 4e0d 373e ad49 443d
00000010: 5fea 23be 62cf f23d c7f3 2b3e 0e46 0d3e
00000020: ca50 3a3e 8449 6abd 22bb 7f3e ac1f 453e
00000030: 925c 07be c60d 9c3e 1b68 cb3c 6540 463e
00000040: 4e3b 553e 80dc 893d 9b86 7bbe 902e 0e3e
00000050: 8890 35be a2ee 383d 9855 a63d fcf0 89be
00000060: 407c e4bd a077 84be 38e3 c53e a60c 203e
00000070: 2e27 b03e 2b48 8c3c 8426 473e cce2 2ebe
00000080: 082a adbe ca17 173d 397c 793d caf8 7dbc
00000090: a0a6 4ebe a063 f9bd dc7f 6d3e d002 173e
000000a0: 91f0 a8bd c431 91be 0959 0f3e f122 f03e
000000b0: a1ae 94bb 34e3 b63d a0e8 c53e 087e 87be
000000c0: 9076 723e f849 19be 9408 c7be 9366 a5be
000000d0: 5d09 2a3e 8a91 90bc e32a 9abe f5dd 4cbe
000000e0: af3b 763d d255 36be 569f e53e 950c ed3e
000000f0: eac9 eb3e 1919 bb3e 469a e33e 6f9b a1be
00000100: 631a 1cbe 3f1d f8bd fa51 9bbc 507a 03bf
00000110: 784e 6abd 7abb 89be 799b 1bbe 53c4 15be
00000120: 10ef 82be 7832 ac3d 91ad 3ebc ed6f 993e
00000130: cc92 dabd fedc 703e 0c39 35be 9a1c 093d
00000140: 0851 ccbe 9764 79be b7e4 d1be ff2c ba3e
00000150: 35bd 9cbe feb9 57be d62f 86bc 2505 4fbe
00000160: 41f1 73bd cb8d 5cbd 16cd 893c be5e f23d
00000170: 328a 49be 7b2d 433e f98f 1d3d 035f 863e
00000180: d301 09bd fdee 7dbe d05f d7be 9d40 633e
00000190: 7596 57be 41d9 bf3c 55c0 bdbd b3b1 193e
000001a0: 07d0 70bd db88 053e afc4 163f 2ed1 513e
000001b0: 108d c5bd 82b0 b6bb daac 86bd 3f89 acbe
000001c0: ed4c 1fbe 7a4f be3e 3d57 d6be b491 82be
000001d0: 9167 a83e b433 573e 1a6a 813e 0fc9 adbd
000001e0: 6d01 adbd ccae 10be 5ab9 9cbe d162 ac3e
000001f0: aa00 5bbe aefe edbe 92e6 a73e e612 513e
00000200: ca50 5d3e b92a 68bb 9650 62be 2683 6ebe
00000210: 1254 9ebd 1e62 c53e c480 aebd 040b 46be
00000220: 51ba f1bd cc4f 683c 44ab 0b3e b877 f3bd
00000230: e1a0 a0be 2e3f 27be 3a54 cfbe 994d 863e
00000240: b459 2dbe bd68 90be b10a 573d 9423 83bd
00000250: b513 ff3e bba2 0a3d 978e c9be ee35 eebe
00000260: 6159 563d bde9 623d 6fce 96be 7642 a2be
00000270: a04b 393e daf3 a13b 1803 0f3f dfc4 883e
00000280: 471f c93e 3266 b43e c659 ff3e 1729 6b3d
00000290: 28ac e33e b2a5 573e b9d6 febd 603c 0bbf
000002a0: 9589 04be bb73 e1be f16f 2a3e 6f4b dfbb
000002b0: 8233 62be 3454 9abd 39e1 3fbe 077c ac3d
000002c0: 33f5 a1bc b890 babd 37b2 d4bd 77d0 57be
000002d0: 307f 37be 9db8 6b3c a112 2fbc de85 703e
000002e0: 004b 9cbe dd71 d3be 1ed7 a5bd 53ad b23e
000002f0: 10c0 fb3e d704 b23e e6e4 98be 194e 98be
00000300: 0901 73be 99de d93d b2a2 d63d 4a4a dabd
00000310: 1255 163e 1402 b23d 7bf7 403e e5e7 943d
00000320: 32cf 9c3e a8d2 393e bbf9 66ba 5350 2ebe
00000330: 0198 6d3e 38ef 8c3d 93ac a5bd 25ff 58be
00000340: e6e9 853e c1f4 a93d 16f9 ba3e c677 7d3e
00000350: 5c57 7b3c da6e 9fbe d641 343e 1eef 24bd
00000360: 597c 72bd e48f dfbd a02d 01bd e53a b7be
00000370: ae70 1bbd 7b63 bd3e fa06 2c3e b3c1 c13d
00000380: 6a76 86bd b855 57bd 8106 353e e58d 34be
00000390: 2b59 a4be fc74 9dbe 09d8 91bd b882 13be
000003a0: 3b5b 82be 11cf 853d ce7b 263e 1de2 2b3d
000003b0: bf10 d3bd 91ae 9f3e ce56 983d f80e 7f3e
000003c0: 51b5 103b e8a8 b63e 6218 8e3e ee48 5abe
000003d0: 3e7e cc3d aff6 503e bb03 aa3e 9c4e e3bd
000003e0: 9f18 27be 2159 0ebd 0434 a23e bb47 6f3e
000003f0: 4d3c 2b3e 2c69 b33d af89 c53e d024 b3bc

lstm.bias_ih_l1 f4 [40]
0.35991448 -0.24842523 -0.06928995 0.26854533 0.009733091 0.016705854 -0.06969814 0.23745391
0.2762105 0.022763886 0.0012308984 0.20476565 -0.034920968 0.20108144 -0.034604657 -0.10976213
-0.067722425 0.19444083 0.00860917 -0.10966921 -0.22304946 -0.076957576 -0.26896927 -0.2571908
-0.01901564 -0.01091968 0.14572868 0.15075745 -0.16095313 0.20191203 -0.062489912 -0.19487846
0.30158353 0.1284606 0.07903733 0.28145316 -0.05462447 0.33139366 0.009878817 0.033341445
00000000: b646 b83e 2f63 7ebe e4e7 8dbd c67e 893e
00000010: 8b77 1f3c b7da 883c e6bd 8ebd 1e27 733e
00000020: 766b 8d3e 547b ba3c 1956 a13a 16ae 513e
00000030: 4a09 0fbd 4be8 4d3e 9dbd 0dbd f8ca e0bd
00000040: 0eb2 8abd 7f1b 473e 7a0d 0d3c 409a e0bd
00000050: 1467 64be ef9b 9dbd 57b6 89be 83ae 83be
00000060: b0c6 9bbc 75e8 32bc e639 153e 2960 1a3e
00000070: e6d0 24be 07c2 4e3e 6cf5 7fbd 388e 47be
00000080: 2869 9a3e 2d8b 033e 53de a13d a11a 903e
00000090: e9bd 5fbd 6eac a93e c3da 213c 0a91 083d

lstm.bias_hh_l1 f4 [40]
0.2073543 -0.109883316 -0.20590866 -0.0045048585 -0.17829503 0.056185007 -0.23975654 0.2811152
-0.07417825 0.15089981 0.19867052 0.3727691 0.2994261 0.28612816 0.3206878 0.010542453
0.31098673 0.30186158 0.15855783 -0.07767548 0.23580465 0.10791452 0.21175544 0.1340584
0.009685546 0.06720006 -0.103589445 0.031053366 0.17679368 -0.2145248 0.17294951 0.25886473
0.15027896 0.031755853 0.25475982 -0.33172214 0.16362526 -0.034625344 0.17249869 -0.29128578
00000000: b054 543e 810a e1bd b8d9 52be 7e9d 93bb
00000010: f992 36be 4022 663d bd82 75be 55ee 8f3e
00000020: c4ea 97bd 7b85 1a3e 4970 4b3e 97db be3e
00000030: 614e 993e 647f 923e 3131 a43e 41ba 2c3c
00000040: a739 9f3e 9a8d 9a3e fc5c 223e 5214 9fbd
00000050: c676 713e 4a02 dd3d 6bd6 583e 9b46 093e
00000060: 20b0 1e3c 2fa0 893d b426 d4bd a163 fe3c
00000070: 6709 353e 64ac 5bbe ad19 313e eb89 843e
00000080: bae2 193e 6d12 023d e16f 823e 7cd7 a9be
00000090: 618d 273e 4ed3 0dbd 7fa3 303e 6923 95be

lstm.weight_ih_l2 f4 [40, 10]
-0.020643517 0.37041187 -0.30820414 -0.10204204 -0.301879 0.20447576 -0.21553084 -0.11393491
-0.0062250793 0.018705638 -0.0939858 -0.23242188 0.2565439 0.15303114 -0.110972695 0.2381876
0.105978854 -0.3108458 -0.24066845 0.23418148 0.17010398 -0.004557702 -0.063898064 0.2501979
-0.00020793844 0.17005686 0.42195266 0.004338403 0.30678442 0.23692724 -0.18466935 -0.077735655
0.16860197 0.03640034 -0.15358803 -0.22304909 -0.12986247 -0.19259335 0.12451485 0.20113607
-0.12941895 -0.27542642 -0.16688165 0.028012529 -0.3478882 -0.3422247 0.10219261 -0.16976735
0.17582403 -0.3783044 0.12830852 -0.08178095 -0.010653175 0.13562296 0.0628881 -0.034709074
-0.072477624 0.26800603 0.32720184 0.08133326 -0.028024007 0.0038508286 0.05358244 -0.1838136
-0.26883885 -0.24168842 0.007940666 -1.1009182e-05 0.1643707 -0.07918897 0.32360488 0.10582982
0.17636712 -0.35734245 -0.0026565439 0.24156404 0.0050618723 -0.312944 -0.3149629 -0.039000567
-0.18399246 0.21397276 0.1858316 0.14314456 -0.28630328 0.2307504 0.042216104 0.14756067
-0.25745183 0.19877581 -0.14759625 0.052624643 -0.06885969 0.11909379 0.23706557 -0.31954077
-0.1481185 -0.12764536 -0.0043951445 -0.12738352 -0.041498493 0.38481537 0.26551276 -0.055585023
-0.4725635 0.054291733 -0.2742285 0.025179327 0.0823454 -0.46422657 0.34504005 -0.17936568
0.073092096 -0.24361952 0.1801449 -0.31272334 0.2732187 0.08023103 -0.10915387 0.3139243
0.18260048 0.060872577 -0.02432467 0.1734699 -0.29071802 -0.17236513 1.0274138e-05 -0.0813843
-0.08078685 -0.15777788 0.14357251 -0.023411537 -0.099043 0.05655292 0.00092787604 0.07432416
-0.19789618 0.26900664 0.41575864 0.041368537 -0.20377685 0.04884047 -0.26583514 0.09652241
-0.16863495 -0.06766525 0.20901601 -0.21231319 0.50112224 -0.058269005 0.1945281 -0.16022022
0.018750379 0.046888836 -0.0027453986 -0.3663835 -0.24753873 -0.13007441 0.5489034 -0.28155673
0.075665206 0.024028042 -0.1534148 0.26539278 -0.16556719 -0.14292192 0.16409512 -0.015214762
-0.035230562 0.07314174 -0.08393125 0.3548444 -0.009397661 -0.22396691 0.2394431 0.18765329
0.17728552 0.010422671 0.015901314 -0.25124884 0.25618786 -0.02432457 0.12604055 0.093945675
-0.16053729 -0.28728712 0.27605635 0.11400216 -0.089326374 0.26142198 -0.20589958 -0.046686642
0.023969168 -0.23351504 -0.29374203 -0.034804165 0.079231955 0.13263582 0.26671693 0.059355825
-0.0040999455 0.0037751726 0.14482884 -0.19050656 0.059023105 -0.10399655 0.11733158 -0.34393
0.063050635 0.0365249 -0.23517045 0.24503142 -0.28146967 0.09055329 0.20348845 0.04673632
-0.07188371 -0.16729699 0.045865327 0.06452691 -0.11351825 -0.38369438 -0.24801818 0.098857254
-0.39588153 0.02990308 -0.03663795 0.20943041 0.17297938 0.3459503 -0.069152325 -0.0095138205
-0.11100065 -0.1856946 0.26050535 0.25334144 0.24996352 -0.062081635 0.32853803 -0.27162185
0.04204961 0.11188458 -0.11214803 0.02391556 -0.028473722 -0.23061086 0.12722164 -0.13542931
0.41599458 -0.22133337 0.12720306 -0.031209001 0.04469074 -0.10883642 -0.07457506 0.27772382
00000000: 981c a9bc a0a6 bd3e efcc 9dbe 6bfb d0bd
00000010: e28f 9abe 1862 513e 1eb4 5cbe b556 e9bd
00000020: c0fb cbbb 913c 993c a17b c0bd 0000 6ebe
00000030: b959 833e 32b4 1c3e a745 e3bd 73e7 733e
00000040: 710b d93d 2e27 9fbe ca71 76be 45cd 6f3e
00000050: bd2f 2e3e c758 95bb fddc 82bd f019 803e
00000060: 0d0a 5ab9 6323 2e3e 2e0a d83e 2a29 8e3b
00000070: d912 9d3e 0e9d 723e f619 3dbe df33 9fbd
00000080: ffa5 2c3e 8618 153d 2e46 1dbe fb66 64be
00000090: abfa 04be 3137 45be a401 ff3d 9df6 4d3e
000000a0: 6786 04be b104 8dbe 06e3 2abe 887a e53c
000000b0: 671e b2be 1338 afbe 5c4a d13d 7ed7 2dbe
000000c0: 370b 343e 1db1 c1be 4f63 033e c57c a7bd
000000d0: a88a 2ebc bfe0 0a3e 7acb 803d 1a2b 0ebd
000000e0: 266f 94bd 1638 893e 0087 a73e 0d92 a63d
000000f0: 9a92 e5bc 2f5e 7c3b 4379 5b3d a239 3cbe
00000100: 3fa5 89be 2b7d 77be 9119 023c 14b4 38b7
00000110: cb50 283e d42d a2bd 8aaf a53e 4ebd d83d
00000120: 9599 343e 97f5 b6be 6919 2ebb 905c 773e
00000130: 10de a53b 323a a0be d142 a1be 0fbf 1fbd
00000140: 8568 3cbe ad1b 5b3e a44a 3e3e 7d94 123e
00000150: 5896 92be d549 6c3e cbea 2c3d 251a 173e
00000160: bad0 83be e38b 4b3e 7923 17be f08c 573d
00000170: 4f06 8dbd 72e7 f33d 51c1 723e d99a a3be
00000180: 60ac 17be 77b5 02be 2505 90bb d370 02be
00000190: 53fa 29bd 8506 c53e 4af1 873e 1fad 63bd
000001a0: d8f3 f1be 0261 5e3d ae67 8cbe e044 ce3c
000001b0: b4a4 a83d 1baf edbe 17a9 b03e a3ab 37be
000001c0: 4fb1 953d 6577 79be e877 383e 461d a0be
000001d0: 52e3 8b3e 2b50 a43d 108c dfbd b0ba a03e
000001e0: 9ffb 3a3e 8655 793d 8844 c7bc 18a2 313e
000001f0: fed8 94be 7c80 30be 165f 2c37 d0ac a6bd
00000200: 9373 a5bd 8690 21be ac04 133e 8dc9 bfbc
00000210: 0ed7 cabd 09a4 673d b53c 733a 4437 983d
00000220: 4ca5 4abe 3dbb 893e 51de d43e 0e72 293d
00000230: e1aa 50be f20c 483d 8b1b 88be 8bad c53d
00000240: a4ae 2cbe 1494 8abd 4b08 563e a168 59be
00000250: 8c49 003f 7bab 6ebd 6032 473e c510 24be
00000260: 659a 993c 820e 403d 25ec 33bb 9e96 bbbe
00000270: cb7a 7dbe 3a32 05be ef84 0c3f 3428 90be
00000280: 5cf6 9a3d 75d6 c43c c518 1dbe 90e1 873e
00000290: 728a 29be 205a 12be 8d08 283e 5647 79bc
000002a0: ec4d 10bd 56cb 953d 26e4 abbd 2aae b53e
000002b0: a6f8 19bc 9557 65be 9230 753e 2f28 403e
000002c0: 568a 353e dac3 2a3c 7943 823c b0a3 80be
000002d0: 0e2b 833e 5244 c7bc c610 013e 9766 c03d
000002e0: e363 24be 4c17 93be 4257 8d3e f779 e93d
000002f0: bff0 b6bd 1ad9 853e 57d7 52be 7e3a 3fbd
00000300: fd5a c43c 911e 6fbe 5b65 96be d08e 0ebd
00000310: 5d44 a23d afd1 073e 1f8f 883e 181f 733d
00000320: d658 86bb e368 773b 034e 143e 2714 43be
00000330: 36c2 713d 25fc d4bd 8a4b f03d 9817 b0be
00000340: b120 813d 229b 153d 86d0 70be 84e9 7a3e
00000350: cb1c 90be 0174 b93d 475f 503e 956e 3f3d
00000360: c437 93bd e74f 2bbe 48dd 3b3d af26 843d
00000370: 427c e8bd 9773 c4be 7af8 7dbe ac75 ca3d
00000380: fcb0 cabe 4ef7 f43c ad11 16bd ed74 563e
00000390: 8221 313e 6620 b13e bc9f 8dbd dbdf 1bbc
000003a0: 4f54 e3bd ba26 3ebe f560 853e f8b5 813e
000003b0: 70f6 7f3e 5049 7ebd 2336 a83e 0512 8bbe
000003c0: 363c 2c3d be23 e53d dead e5bd 91ea c33c
000003d0: b941 e9bc 4125 6cbe 6446 023e fbad 0abe
000003e0: 3efd d43e 37a5 62be 8541 023e 05aa ffbc
000003f0: a30d 373d a1e5 debd cfba 98bd d131 8e3e

lstm.weight_hh_l2 f4 [40, 10]
-0.028350675 -0.036251456 -0.1365843 -0.21799946 -0.24974158 0.17060086 0.087295495 -0.19159143
-0.18655212 -0.31111363 -0.23305766 -0.34356627 0.068037845 -0.03369993 -0.16059037 0.18317166
0.032158118 -0.03847344 -0.024782047 0.15516464 0.06130187 0.14711706 0.071377896 -0.039101936
0.2784781 -0.23365465 -0.13386825 -0.19116664 -0.112855785 -0.11485111 0.1965523 0.09922642
0.039176058 0.010921611 0.24721071 0.14361027 -0.010757229 -0.12275666 0.21305561 -0.29487067
0.22688158 -0.099397354 0.17913902 0.17636377 0.32317105 0.056488235 -0.1323045 -0.14252105
-0.1381417 0.14917561 -0.067794815 0.39783353 -0.06562829 0.11932113 -0.075588904 -0.19741511
0.17547798 0.36754408 0.03864241 0.24049832 -0.1368615 -0.064767264 0.020439718 -0.28126356
-0.04973976 0.018650435 -0.15892348 0.046623394 0.061017465 0.19856082 0.033470195 0.29112327
-0.404628 -0.080300316 -0.12716167 -0.07545113 -0.09297454 -0.19367589 -0.48097956 0.21766454
0.08726013 -0.1909372 0.29804045 0.0014888495 -0.15937501 -0.07762545 -0.07577057 0.1633768
0.19822025 -0.13703232 -0.13649184 0.0077256826 -0.24179177 -0.13927598 -0.25028917 0.0844897
-0.022552041 0.035106473 -0.12940134 -0.070618495 0.3891503 0.26165858 -0.31995532 0.20245726
-0.069747865 -0.16542651 0.13106248 0.029644182 0.16550337 -0.043130122 -0.0060013495 0.24774756
-0.31297007 0.13145165 0.22784169 0.07341024 -0.10007568 -0.13351999 0.091881216 0.11043903
-0.25657874 0.054489378 -0.118327945 -0.39399654 -0.1005348 -0.5145818 -0.051999357 0.11389952
0.39438382 0.065490134 -0.25321805 0.13623722 0.011106299 -0.04712146 0.064365946 -0.43226472
0.35738012 -0.07941997 0.14132023 -0.6213892 -0.0022764755 0.17283398 0.21456634 -0.28773394
0.066139 -0.083788544 0.3072486 -0.0041449293 0.03846225 -0.17535976 -0.012278933 0.045610566
-0.0901024 -0.36372355 -0.013208412 -0.29383785 0.5236979 0.1863668 -0.06152661 0.2792008
0.09451361 0.29093418 -0.011203888 0.03349618 0.015166267 -0.4527966 -0.13935953 -0.1091509
0.39042053 -0.042524688 0.004337494 -0.008594721 -0.3342302 0.41590342 -0.18940194 -0.029999329
-0.04286342 -0.23224472 -0.33152518 0.16464314 -0.23648141 -0.21085304 0.20912185 -0.49220836
0.17620344 -0.44779956 0.10257092 -0.2632875 -0.021064902 -0.4489712 0.17847559 0.26110244
-0.053730253 -0.15022874 0.2064955 -0.19896111 -0.018096693 -0.30869845 -0.032310944 0.2102007
-0.22752409 -0.15672725 0.29422852 -0.09797432 0.26451045 0.22209117 -0.13670777 0.36729795
-0.17137943 -0.05133719 -0.2591999 -0.012737187 0.31733662 0.03491618 0.042080775 -0.26045284
-0.1645594 0.1796512 -0.29670244 -0.19413537 0.08789297 -0.23652615 0.030636938 0.07282704
0.19134521 0.24595313 0.15981597 0.079823665 0.34700555 -0.2814836 -0.13490126 0.012968834
-0.1846693 0.20306316 0.12208448 -0.014974575 -0.20787126 -0.0015696045 -0.18545696 -0.17814866
-0.29676014 -0.15150215 0.10815482 0.33536148 0.09911855 0.01764616 0.1180155 -0.18955287
-0.023352772 -0.2685427 -0.17924154 0.2508864 -0.14626136 0.33255565 -0.20673521 0.12691824
00000000: ad3f e8bc 687c 14bd c1dc 0bbe 403b 5fbe
00000010: 42bc 7fbe feb1 2e3e fbc7 b23d 8b30 44be
00000020: 8507 3fbe 494a 9fbe aba6 6ebe ebe7 afbe
00000030: 6d57 8b3d f008 0abd cd71 24be 5a91 3b3e
00000040: 3bb8 033d 5396 1dbd b803 cbbc 7be3 1e3e
00000050: ab17 7b3d dba5 163e 932e 923d 5a29 20bd
00000060: ae94 8e3e 2a43 6fbe c214 09be 30c1 43be
00000070: ef20 e7bd 0f37 ebbd 0245 493e 3937 cb3d
00000080: 1377 203d 8ff0 323c ce24 7d3e 920e 133e
00000090: 173f 30bc d867 fbbd 402b 5a3e 4af9 96be
000000a0: a553 683e d790 cbbd 3870 373e b498 343e
000000b0: ad76 a53e 3560 673d d57a 07be 0af1 11be
000000c0: 0575 0dbe 7ec1 183e 02d8 8abd d6b0 cb3e
000000d0: 2068 86bd a35e f43d 5bce 9abd 3027 4abe
000000e0: 80b0 333e bd2e bc3e 8147 1e3d 3145 763e
000000f0: 6c25 0cbe b3a4 84bd 3271 a73c c701 90be
00000100: ebbb 4bbd ccc8 983c d6bc 22be 2cf8 3e3d
00000110: 73ed 793d 8753 4b3e 0b18 093d 1c0e 953e
00000120: 672b cfbe 7e74 a4bd ab36 02be 1f86 9abd
00000130: 7069 bebd f952 46be f442 f6be 74e3 5e3e
00000140: 70b5 b23d 0b85 43be c298 983e 8025 c33a
00000150: 3433 23be 18fa 9ebd 9a2d 9bbd 3f4c 273e
00000160: 40fa 4a3e 3352 0cbe 84c4 0bbe b927 fd3b
00000170: 4398 77be 5d9e 0ebe e725 80be f008 ad3d
00000180: 0fbf b8bc cecb 0f3d c981 04be 6ea0 90bd
00000190: b53e c73e 1df8 853e 2fd1 a3be f550 4f3e
000001a0: f8d7 8ebd 9165 29be 3e35 063e 5bd8 f23c
000001b0: b779 293e 36a9 30bd f8a6 c4bb 89b1 7d3e
000001c0: 9d3d a0be 439b 063e 554f 693e 1c58 963d
000001d0: 7af4 ccbd 77b9 08be 382c bc3d dc2d e23d
000001e0: 4a5e 83be 4130 5f3d ec55 f2bd eab9 c9be
000001f0: 30e5 cdbd a2bb 03bf 47fd 54bd 2744 e93d
00000200: adec c93e b11f 863d cca5 81be c581 0b3e
00000210: 32f7 353c 6f02 41bd 4bd2 833d cd51 ddbe
00000220: 87fa b63e f0a6 a2bd 40b6 103e 5d13 1fbf
00000230: ec30 15bb 64fb 303e 47b7 5b3e dd51 93be
00000240: e273 873d 5499 abbd b04f 9d3e 30d2 87bb
00000250: 988a 1d3d 8291 33be 942d 49bc 25d2 3a3d
00000260: 9b87 b8bd f939 babe 1868 58bc ea71 96be
00000270: 1111 063f f0d6 3e3e 5403 7cbd 68f3 8e3e
00000280: 5a90 c13d 53f5 943e 8390 37bc 4a33 093d
00000290: ef7b 783c f5d4 e7be 44b4 0ebe 828a dfbd
000002a0: 33e5 c73e 5e2e 2ebd 8921 8e3b dfd0 0cbc
000002b0: 3920 abbe 4bf1 d43e 95f2 41be 27c1 f5bc
000002c0: 8e91 2fbd 8fd1 6dbe abbd a9be 3698 283e
000002d0: 2f28 72be dce9 57be 0a24 563e bc02 fcbe
000002e0: ad6e 343e fc45 e5be b410 d23d 9fcd 86be
000002f0: 4d90 acbc 8edf e5be 4ec2 363e 38af 853e
00000300: 4114 5cbd 90d5 19be 8e73 533e 76bc 4bbe
00000310: 843f 94bc b90d 9ebe 7b58 04bd da3e 573e
00000320: 13fc 68be 1c7d 20be 1fa5 963e c3a6 c8bd
00000330: ea6d 873e de6b 633e 1ffd 0bbe 7a0e bc3e
00000340: 177e 2fbe f246 52bd d9b5 84be a2af 50bc
00000350: f279 a23e 4504 0f3d e45c 2c3d 135a 85be
00000360: 4282 28be 7cf6 373e 62e9 97be 6ccb 46be
00000370: 3b01 b43d e933 72be 51fa fa3c 5826 953d
00000380: 00f0 433e 23db 7b3e cca6 233e 977a a33d
00000390: b6aa b13e 9e1e 90be 8e23 0abe 3b7b 543c
000003a0: f319 3dbe caef 4f3e 6e07 fa3d eb57 75bc
000003b0: 34dc 54be 30bb cdba 6ee8 3dbe 9a6c 36be
000003c0: f2f0 97be 6123 1bbe 4680 dd3d 80b4 ab3e
000003d0: abfe ca3d ae8e 903c 1cb2 f13d 261a 42be
000003e0: 504e bfbc 6e7e 89be 188b 37be 2f74 803e
000003f0: 8ac5 15be bc44 aa3e 65b2 53be dbf6 013e

lstm.bias_ih_l2 f4 [40]
-0.20555791 -0.11052672 -0.027755568 -0.036749464 -0.18194152 -0.19677122 0.17933626 0.14566636
-0.22571848 0.08656145 0.010648172 -0.3186113 0.360885 -0.012465942 0.28857982 -0.14338186
0.40505755 0.12021729 -0.051823944 0.27622482 -0.18999487 0.072502725 0.114935204 -0.08921663
0.21212544 -0.1813142 0.36860883 0.115248516 -0.18828449 0.115363084 -0.036261197 -0.06964171
0.09865616 0.09665952 -0.28870085 0.09938584 0.3411691 0.11563773 -0.10539422 0.264306
00000000: c67d 52be d55b e2bd a55f e3bc 9b86 16bd
00000010: e14e 3abe 657e 49be eda3 373e 9029 153e
00000020: bf22 67be 2147 b13d ac75 2e3c 0521 a3be
00000030: ebc5 b83e f33d 4cbc bcc0 933e b2d2 12be
00000040: b463 cf3e 7c34 f63d 5845 54bd 576d 8d3e
00000050: 048e 42be 4f7c 943d 2663 eb3d 35b7 b6bd
00000060: 6937 593e 6eaa 39be 4cba bc3e 6a07 ec3d
00000070: a6cd 40be 7b43 ec3d 9f86 14bd 50a0 8ebd
00000080: 3e0c ca3d 6df5 c53d 99d0 93be ce8a cb3d
00000090: b7ad ae3e 79d3 ec3d edd8 d7bd 1e53 873e

lstm.bias_hh_l2 f4 [40]
-0.037477553 0.17973673 -0.17774533 -0.16457047 -0.157874 -0.116988644 -0.19275902 -0.021284759
-0.29212043 -0.096397795 0.32026643 0.17605692 -0.055177 -0.20948276 0.2636561 0.28078076
-0.10059473 -0.109496005 -0.14515437 0.27314803 0.31450498 0.28388098 -0.076577574 -0.023546413
0.2742081 -0.08413877 -0.23046781 -0.0896769 0.29658958 0.28610143 0.20702319 -0.021946855
0.17381968 0.09106949 -0.0013251349 0.21022981 -0.017954992 0.1038169 0.0014139817 0.2994184
00000000: 1082 19bd e80c 383e df02 36be 2985 28be
00000010: b9a9 21be be97 efbd 9f62 45be 605d aebc
00000020: cf90 95be 356c c5bd f6f9 a33e 4448 343e
00000030: 4701 62bd a682 56be effd 863e 7fc2 8f3e
00000040: 9c04 cebd 713f e0bd 59a3 14be 0fda 8b3e
00000050: cc06 a13e d958 913e b4d4 9cbd 68e4 c0bc
00000060: 0165 8c3e f350 acbd c1ff 6bbe 86a8 b7bd
00000070: 97da 973e e37b 923e e3fd 533e e4c9 b3bc
00000080: c9fd 313e a482 ba3d 26b0 adba 7c46 573e
00000090: 5916 93bc f49d d43d 5a55 b93a 5e4d 993e

fc_1.weight f4 [128, 10]
-0.16110983 0.21875761 0.14032033 -0.019982003 -0.063588865 -0.23283061 0.20000675 -0.161857
0.23639171 0.13746168 0.19093773 0.05723682 0.2578437 0.16767508 -0.070733875 0.026902258
-0.17783533 0.17627224 0.29617938 0.26707575 -0.24429426 -0.08970159 0.14459682 -0.21666278
0.10657486 -0.23497808 -0.036681116 0.27925393 -0.24294308 0.06703368 -0.08012932 0.27864125
-0.038357932 0.11518219 -0.08150563 -0.24287759 -0.22394499 0.1331389 -0.25057548 -0.31078205
0.2541577 0.024520516 -0.08051032 -0.110314205 -0.26230982 -0.030893266 -0.16439176 0.024178207
-0.114534944 -0.12496914 -0.22121054 -0.029909804 -0.22811724 -0.22682531 -0.06504227 -0.085798755
0.23773609 0.007228033 -0.017966168 0.22540718 0.1584205 -0.06867391 0.04060775 -0.087478474
-0.27943957 -0.06619263 0.012037873 -0.08845194 -0.22229475 -0.11919354 0.16670711 0.032712687
-0.100964695 -0.0725571 0.13215375 -0.28075862 -0.015698623 -0.28535527 0.22900534 0.17829588
0.059921414 -0.033787612 -0.17286399 -0.26979625 -0.17329368 -0.29785922 -0.29546055 0.053234078
-0.03250159 0.13448553 -0.20661338 -0.000875059 0.28441533 -0.18701401 -0.21832873 0.29260752
-0.052564114 0.18304981 0.24625573 -0.11115962 -0.14358221 -0.262676 0.2651446 -0.26570588
-0.11608749 0.30787203 -0.059633687 0.27280828 0.06871872 0.27313676 0.22160481 0.13392036
0.2500226 0.061398003 -0.16304047 0.26914224 0.3316334 -0.036966156 -0.081096046 -0.23117846
0.050228477 0.22422013 0.23298636 -0.08457726 -0.13445288 -0.1825885 -0.3066021 0.055629402
0.17811674 0.2871482 -0.24565297 -0.3102679 -0.09022258 -0.03807953 0.225781 -0.066469744
-0.05714789 0.07891452 0.23627225 -0.07715082 -0.26131535 0.13318688 0.22041728 0.13983752
0.2247059 0.26191136 -0.028886767 0.24641286 -0.035572227 0.23325793 0.0053368555 -0.18354131
0.079026185 -0.20857845 -0.05206775 0.22033462 -0.17274931 0.28900045 -0.2453004 -0.1535988
0.121928655 0.071798034 0.24100281 0.067608 0.25216192 -0.0088249445 0.25899008 0.26886073
-0.12845322 0.04974156 0.035349697 0.25650454 0.04552048 -0.27197444 -0.041974783 -0.21059985
-0.12503678 -0.29096577 0.19610709 0.28849235 0.083136864 0.11727413 -0.060239695 -0.17971894
-0.0062521896 0.25734654 0.065373756 0.07267433 0.3033146 -0.081750765 -0.368722 0.20265847
0.03278898 0.0138942655 -0.15506682 -0.06578779 -0.0067927763 0.12724164 -0.16064104 0.2713634
-0.10675063 0.14868167 -0.011669299 0.019993702 -0.13246742 -0.3056473 -0.12780975 0.11389
0.15607905 -0.18234006 -0.3115492 -0.15916963 -0.30806908 -0.11674236 0.23461512 0.19292858
0.21839616 -0.028560638 -0.04155931 -0.13377982 0.06532022 0.04557249 0.012094408 -0.19132723
-0.13464984 -0.10957651 -0.008600056 0.20539746 0.15545505 0.28396252 0.28016627 -0.07317106
-0.07122852 -0.11684295 -0.20626803 0.20549265 -0.06362658 -0.022098994 0.03451973 0.14980476
-0.113384254 0.1879565 0.19907635 -0.2840989 0.05896249 0.29313186 0.15160838 -0.078023806
0.16310355 0.07422216 0.23473725 0.0017733276 -0.17186671 0.07958138 0.064783424 -0.105113566
00000000: faf9 24be ff01 603e 22b0 0f3e 4cb1 a3bc
00000010: e13a 82bd 266b 6ebe 92ce 4c3e d7bd 25be
00000020: ab10 723e c1c2 0c3e 2e85 433e 2871 6a3d
00000030: 1704 843e 04b3 2b3e ecdc 90bd 2062 dc3c
00000040: 771a 36be b680 343e d3a4 973e 27be 883e
00000050: 4628 7abe 78b5 b7bd 3011 143e d9dc 5dbe
00000060: ec43 da3d 189e 70be f03e 16bd 5ffa 8e3e
00000070: 12c6 78be f448 893d d71a a4bd 11aa 8e3e
00000080: 351d 1dbd a4e4 eb3d 6cec a6bd e7b4 78be
00000090: d651 65be 9055 083e 6e4b 80be d31e 9fbe
000000a0: f520 823e 40df c83c 98e2 a4bd 6aec e1bd
000000b0: 794d 86be e013 fdbc 5056 28be 6011 c63c
000000c0: 4c91 eabd d2ef ffbd 0485 62be 6805 f5bc
000000d0: 9197 69be e544 68be e234 85bd 42b7 afbd
000000e0: 1771 733e 23d9 ec3b c92d 93bc 24d1 663e
000000f0: fc38 223e e8a4 8cbd 5054 263d ea27 b3bd
00000100: b412 8fbe 0090 87bd 803a 453c 4a26 b5bd
00000110: 3ca1 63be be1b f4bd 45b5 2a3e bdfd 053d
00000120: 94c6 cebd d198 94bd 5053 073e 98bf 8fbe
00000130: 669a 80bc 161a 92be 6080 6a3e 3293 363e
00000140: 2870 753d e164 0abd 4203 31be bc22 8abe
00000150: e673 31be 0181 98be 9b46 97be fa0b 5a3d
00000160: 6320 05bd 93b6 093e 7592 53be 3764 65ba
00000170: e39e 913e 9a80 3fbe 9191 5fbe a7d0 953e
00000180: 784d 57bd 6971 3b3e 762a 7c3e a8a7 e3bd
00000190: 3707 13be 787d 86be 08c1 873e 9a0a 88be
000001a0: 47bf edbd 67a1 9d3e 7442 74bd 87ad 8b3e
000001b0: 66bc 8c3d 95d8 8b3e 5fec 623e 6b22 093e
000001c0: f602 803e 797c 7b3d 15f4 26be 03cd 893e
000001d0: dacb a93e d369 17bd af15 a6bd 0cba 6cbe
000001e0: 60bc 4d3d f699 653e fa93 6e3e d836 adbd
000001f0: 04ae 09be 7bf8 3abe f3fa 9cbe a8db 633d
00000200: 3c64 363e 1705 933e 748c 7bbe 6fdb 9ebe
00000210: 9ec6 b8bd 48f9 1bbd 2233 673e 4a21 88bd
00000220: e813 6abd f09d a13d 5af1 713e 4001 9ebd
00000230: 20cb 85be 2462 083e 11b5 613e 9131 0f3e
00000240: 4e19 663e 3f19 863e f1a3 ecbc a753 7c3e
00000250: 2fb4 11bd 2bdb 6e3e cae0 ae3b 41f2 3bbe
00000260: 7bd8 a13d 9795 55be fe44 55bd 669f 613e
00000270: 32e5 30be def7 933e 0730 7bbe 0149 1dbe
00000280: bbb5 f93d d90a 933d 71c9 763e 1076 8a3d
00000290: 5e1b 813e 8096 10bc 599a 843e 1da8 893e
000002a0: 3e89 03be cebd 4b3d d8ca 103d 9054 833e
000002b0: af73 3a3d 3c40 8bbe c0ed 2bbd 7da7 57be
000002c0: a409 00be 77f9 94be 4cd0 483e 45b5 933e
000002d0: a943 aa3d 6b2d f03d e6bd 76bd 3e08 38be
000002e0: 2bdf ccbb edc2 833e ade2 853d 47d6 943d
000002f0: 0d4c 9b3e f26c a7bd 21c9 bcbe b485 4f3e
00000300: bd4d 063d c6a4 633c d6c9 1ebe c0bb 86bd
00000310: f095 debb a24b 023e 167f 24be 25f0 8a3e
00000320: 13a0 dabd 0240 183e 9630 3fbc d5c9 a33c
00000330: 8aa5 07be ce7d 9cbe 8fe0 02be 293f e93d
00000340: 30d3 1f3e 5ab7 3abe 6083 9fbe 5dfd 22be
00000350: 3bbb 9dbe 9e16 efbd f23e 703e 128f 453e
00000360: 3ea3 5f3e 00f8 e9bc 183a 2abd 94fd 08be
00000370: 9cc6 853d 38aa 3a3d a027 463c 49eb 43be
00000380: a6e1 09be a669 e0bd 40e7 0cbc b653 523e
00000390: 9c2f 1f3e 8963 913e f471 8f3e b5da 95bd
000003a0: 42e0 91bd 5b4b efbd ed37 53be aa6c 523e
000003b0: a74e 82bd f308 b5bc 8f64 0d3d 6b66 193e
000003c0: 0136 e8bd ab77 403e acda 4b3e 6975 91be
000003d0: a782 713d 6115 963e 3a3f 1b3e f2ca 9fbd
000003e0: 9e04 273e ca01 983d f65e 703e 006f e83a
000003f0: d4fd 2fbe 90fb a23d 2cad 843d c845 d7bd
