model.pth (torch, 45694 bytes, 16 tensors)

lstm.weight_ih_l0 f4 [40, 5]
00000000: fc46 e4bc e23c 053b 4585 583e 9b2a 2a3e
00000010: a58c 79bd 403c 84be 62cc 52be 66c5 8bbe
00000020: 5c50 9bbe 0f6d acbe 897c c7bd c447 3bbe
00000030: 1cf2 aa3c 76b2 50bd d8ce 1d3e b12e 44be
00000040: 8dd9 26bd eddb b63e 7303 cbbd 3284 79be
00000050: ab65 363e ecff 7c3e 7794 9a3e 8a52 40be
00000060: 0cb0 a43e 22a0 9f3e 95aa cf3e 596f db3e
00000070: 0388 83bd e9e5 99bd e6a2 45be 12b2 8e3e
00000080: daed bd3e 39ae 973e 1885 11be 6990 723c
00000090: ef6a a13c b8fd f9bd 68c3 f53e f012 f5bd
000000a0: b27c 6fbd 8818 2dbe 0394 55be 60ad cd3c
000000b0: a8fe e23d bf6d b23e 860d a53e c0c9 963e
000000c0: 6d2c 2a3e e9c9 4cbc add7 863d 8e49 a13e
000000d0: 4af4 ac3e b221 083f d71d d23c f069 e8bd
000000e0: b8da c33a 2761 693d e281 d13d 766a 263d
000000f0: 1d0a a9bd 6b71 d7bd 3d47 263e 772f 333d
00000100: 9576 38be 8ef8 893c cfe2 9fbd d7c7 983b
00000110: d310 19bc ff23 b03c 1ae4 83bd 240d 0cbb
00000120: 6fc1 883e 3108 6c3e 20c4 283e 5feb c73e
00000130: a5f0 5e3e c67b 803e 3039 87bd 0244 c2bd
00000140: 7ccb 1abe a80f 3e3e 60fc 433e e26f f53d
00000150: c090 8d3b 38c6 e83d 5673 e83d 3a68 b6bd
00000160: 4093 343e ac21 6c3d a31f b93d 368d aabe
00000170: 38cb 1a3d f560 6b3d 76d5 19be 1b30 d93e
00000180: 9e60 22be 88ba 813d c46c df3e 13e6 71bb
00000190: 72e8 aa3d 34e5 0abe dd52 e43d 15a6 6a3e
000001a0: cfe8 31be 0950 dcbd f24b a4be b7b8 b8bd
000001b0: feb2 673c 8a46 633e 8a32 8ebc 9a3f 933d
000001c0: e511 86be 3678 0d3e c671 40be 41a1 bc3e
000001d0: 8621 373e ab2b 283e ae51 aa3d 7e3f 53bc
000001e0: 036e 673e f22b 6b3e 5833 16be aea3 a93e
000001f0: 2dc7 b03c ed9c 403e 1220 7cbe dc37 5ebe
00000200: 472b 17be bfeb 0fbe 4071 f2bd 74c1 76be
00000210: 9f24 423e 4c97 2b3e 1143 713e 7854 173e
00000220: 1937 0fbe efc4 1f3e ce6b 4f3e 7bee 3ebe
00000230: 8b75 ad3e e864 53bd 7f32 d63e b99c 46be
00000240: 2cbf af3e 0ff4 07bd 7e47 36be 1840 523e
00000250: 6dca b93e 2afc f73c 0d3b d53e 6944 cd3e
00000260: 04fc 0abc f635 943e f9c9 69bd 7486 e2be
00000270: 332a d93d a212 a8bd 33ea 833e 2a59 4dbe
00000280: 8cca 3a3c 0ce3 083e d48e 023e d57b 75be
00000290: 267a 69bd 35dd 203d 6dd2 633e ce47 4b3e
000002a0: c91f da3e ed8b 8f3e a90c ba3d b6e8 3c3e
000002b0: 46dc 1e3e cac9 5fbe 6e29 893e 457c 423e
000002c0: b8ea 0bbe 7288 0b3e 0622 09bb 6a7f 74bd
000002d0: 9de6 23be 610c 793e 236f 723e b3a4 b83e
000002e0: 31ae 58bd c1ba e2bd bacd d3bd 2530 943e
000002f0: eabb fa3e dda1 c7bd a230 993d 29e5 2e3e
00000300: 3c15 bebe 32cd 8fbe aa5c eb3d 9d39 91bd
00000310: daee d63e 9b9c b93d aaeb 31be 6134 2fbe
-0.02786588 0.0020330478 0.21144588 0.16617815 -0.060925145 -0.25827217 -0.20585778 -0.2729904
-0.30334747 -0.33676955 -0.0974055 -0.18289095 0.0208674 -0.050951444 0.15410936 -0.19158436
-0.040734816 0.35714665 -0.09912767 -0.24366835 0.17812221 0.24707001 0.30191395 -0.18781486
0.32165563 0.3117686 0.4055983 0.4285839 -0.064224266 -0.07514555 -0.19300422 0.27870232
0.3709553 0.2962511 -0.14210927 0.014804938 0.01970431 -0.12206596 0.48000646 -0.11966503
-0.058468528 -0.16903889 -0.20857243 0.025107086 0.11083728 0.34849355 0.3223688 0.29450798
0.1661851 -0.012499311 0.06584106 0.3150143 0.33780128 0.53176415 0.025648994 -0.11348331
0.0014942503 0.056977417 0.10229851 0.040628873 -0.08253882 -0.1051968 0.16238113 0.043746438
-0.18013985 0.016842153 -0.07806932 0.0046624946 -0.00934239 0.02150154 -0.06439991 -0.0021370137
0.26710078 0.2305 0.16481066 0.3904676 0.21771486 0.25094432 -0.066027045 -0.09485628
-0.15116686 0.1856066 0.19139242 0.119842306 0.004320234 0.11365932 0.113501236 -0.089065984
0.17634296 0.0576493 0.09039237 -0.3331086 0.03779146 0.057465512 -0.15022835 0.42419514
-0.15857169 0.06334406 0.4363767 -0.0036910817 0.08345117 -0.13563997 0.111486174 0.22914918
-0.17373966 -0.10757453 -0.32089192 -0.090196066 0.014141796 0.22194877 -0.017358083 0.071898654
-0.26185527 0.13815388 -0.18793401 0.36841777 0.17883882 0.16422908 0.083163604 -0.012893556
0.2260056 0.22965983 -0.14668024 0.3313269 0.02157935 0.18809862 -0.24621609 -0.21700996
-0.14762603 -0.14054774 -0.11838007 -0.24097234 0.18959282 0.16756934 0.2356074 0.14778316
-0.13985862 0.15602468 0.20255968 -0.1864566 0.3387874 -0.051609904 0.418354 -0.19395722
0.3432554 -0.033191737 -0.1780071 0.20532262 0.3628725 0.030271608 0.41646615 0.40091255
-0.008482937 0.2894742 -0.05707738 -0.44243205 0.10603752 -0.08206679 0.25764617 -0.20053545
0.01140083 0.13367862 0.12749797 -0.2397302 -0.057001255 0.03927346 0.2224824 0.1985161
0.42602375 0.28036442 0.09084446 0.18448147 0.15513715 -0.2185432 0.2678942 0.18992718
-0.13663757 0.13626269 -0.002092482 -0.059691824 -0.1600594 0.24321128 0.23675208 0.36063156
-0.052900497 -0.11070777 -0.103419736 0.2894298 0.48971492 -0.0974767 0.07479979 0.17079605
-0.37125576 -0.2808624 0.11492284 -0.07091067 0.41979104 0.09063073 -0.17375055 -0.17109825

lstm.weight_hh_l0 f4 [40, 10]
00000000: bd16 1b3d 4325 83be fa2a 2fbd 9d67 d33e
00000010: 99c5 15bd 3dc8 f1be 4831 ab3d 6c8c e83e
00000020: 0172 fcbc 8768 da3e ec69 5bbe f554 833e
00000030: 6218 af3e d2bf 4abe 1355 11bd c080 eebd
00000040: 2a25 643e 2274 0abe fa19 a6bd 0d32 b93d
00000050: 1509 9e3d ef05 453e 260a ba3e 601b 063e
00000060: c17f 8fbe 9567 493e 49bd a8bb baae 6fbe
00000070: 3110 f2be 777e 2abe b936 b93e 1ed6 2d3e
00000080: 9879 b43e 3e18 b43d cc53 863e b7a2 753e
00000090: 013f 333d 199c b4bd e2cb 49be 2038 1d3e
000000a0: cb06 b5bd 81f0 313e 8141 453e a20e 2c3e
000000b0: 7db3 393d 2373 923e 1076 4d3e ba8a 783e
000000c0: f16a 8c3e 3258 483e 28ab 4bbe d370 fbbd
000000d0: 155f 6f3e 9924 243d f1b2 903e 04e6 34be
000000e0: c858 2f3e 58f8 88be 3922 b23e 59f9 d33e
000000f0: 638e 983e f3c1 573d 5906 883e bed0 463e
00000100: 5c88 48bc 8101 6dbe 3220 893e e689 d1bd
00000110: 0779 763d 7795 123e a24d 12bd aec8 f7bd
00000120: bdc8 85be 248c e63d 95bf 49be 074e 26bd
00000130: 51ee 8fbc 7a31 c33e 6e81 8e3d 7dc0 af3d
00000140: 4ba7 5fbe 9ab7 833d 57cb 773e af14 903d
00000150: 6129 2abe 9af8 c0be a550 8f3e dd54 c1be
00000160: fdce d43d 919e 4dbe 3bbb 383d 092b d1be
00000170: 20a3 d7bd 1136 97bc 46ce 6e3e 2c12 283e
00000180: 4f9b aa3e e721 6dbd 118a bd3d ffed 213e
00000190: 7ccf 5d3e f23a 123e 1712 bbbe 5221 0d3f
000001a0: ae1c 053f a6e3 89bc 4305 853c a9de 243e
000001b0: 1e4b 6d3e 47c2 883e d92c 673e 8879 ef3e
000001c0: ca98 1439 00a5 13be 07af bd3d a64a 643e
000001d0: cf1c acbd 4389 713e 61b4 cabe f7fc 923d
000001e0: 10e4 723e 8c64 b93c 804d 3a3e 2c1c 43be
000001f0: 819b 81be 27c3 5cbe a381 52be e085 3abe
00000200: 4caa 95bd 5314 823d 8ff3 aa3e 5f47 053e
00000210: d221 a43e 4cd4 893e b79b ab3e c3fe 7dbd
00000220: 3e7b 8f3d 0957 333e 20c1 073e 95a9 3e3d
00000230: 3dcb c0be 5db0 d63d c01c 2abe b868 41be
00000240: 9e06 0c3d 2216 d03d 170c 803e 3e3b e63d
00000250: 9c9e 2b3e ad50 4b3e 57ef b1bd 021c 9ebd
00000260: a8aa 793d ff96 ba3d 38d4 a23e 1a48 e5bd
00000270: 7ba9 83bc f8e4 c23d 2ff9 a83d 2b91 b33e
00000280: 840e 25be d069 9fbe 95d3 d23b 2af5 253e
00000290: 6afd cebd 7004 213d e093 0fbe 78f2 16be
000002a0: 3c1e c73e 70be 813e 5db0 fbbb 288c a73d
000002b0: 5de7 9fbe f5ab 4a3d 6248 cd3c b6b1 a23d
000002c0: 2912 223e 04bd d63d 7199 b53d b8d5 1dbe
000002d0: f088 633d 7b04 123d a0f3 273e b0c2 c43e
000002e0: 76b9 4b3d bcea c3be 9cbd 053e 3971 b0be
000002f0: b6d6 9ebe 9f7d 09bd fb21 6b3e 84c4 87be
00000300: 6fc1 9dbe d9e0 32be ed14 623e aeeb cebe
00000310: 4587 713d 0ac8 493e 8049 163e 7c93 c13e
00000320: 68aa 103e 25d4 203e a126 e23d 68aa a2bd
00000330: f18b 203e 086d a73e 43f2 30be 32a4 0b3e
00000340: c128 78be dd9d 43be ef0e ab3e f9f7 ab3c
00000350: 5eee 24be 05b9 30be b798 41bc a191 153e
00000360: bcf6 ac3d b48e 49be 9a02 cfbe 53be f6bd
00000370: 6c7f b53e a61f 91bd 524c fbbd a4bf eb3d
00000380: 2b45 77bd b256 a33e 71d0 b7bd 972b 0abe
00000390: dfdb 7cbe e550 3ebd 43bf 9d3d 7e90 2d3e
000003a0: d73b 7abe 7c49 83be f990 fa3c f847 6fbe
000003b0: 20f1 a0bd 0499 523e 73bd a9bd 3e57 b63e
000003c0: ec84 253d b466 3b3e 20ef f53d 4b70 443e
000003d0: 3fce bfbd 754f 85be f8bb 0abe aea1 6d3d
000003e0: 7194 c73e ba5d c1ba 3200 8a3e 4b4d 31be
000003f0: cb18 cebd 61eb cebd 7e08 79bd 3d7b 103e
0.03786348 -0.25614366 -0.042765595 0.41289988 -0.036565397 -0.47223082 0.08359009 0.45419633
-0.03081608 0.42657873 -0.21427125 0.25650755 0.3419829 -0.19799736 -0.035481524 -0.11645651
0.22279802 -0.13520864 -0.081104234 0.090427496 0.07716576 0.19240545 0.36335868 0.1309638
-0.28027156 0.1966842 -0.0051495177 -0.23406497 -0.47277978 -0.16649805 0.36174563 0.1697621
0.3524902 0.08793686 0.26235807 0.23987852 0.043761257 -0.08818836 -0.19706681 0.15353441
-0.08839186 0.17376901 0.19263269 0.16802457 0.04533719 0.28603467 0.20064569 0.2427167
0.2742534 0.19564894 -0.1988951 -0.12277379 0.23376115 0.040073965 0.2826152 -0.17665869
0.17123711 -0.2675197 0.34791735 0.41401175 0.29796132 0.0526752 0.26567343 0.19415566
-0.012239542 -0.23145105 0.26782376 -0.1023138 0.060174014 0.14314829 -0.035718568 -0.120988235
-0.26129714 0.112571985 -0.19701989 -0.040601756 -0.017569693 0.38123685 0.069582805 0.08581636
-0.21841161 0.064315036 0.24198662 0.07035195 -0.16617347 -0.37689668 0.27991214 -0.37760058
0.103910424 -0.2008002 0.045100432 -0.40853146 -0.105291605 -0.018458398 0.23320875 0.16413182
0.33321616 -0.05789366 0.0925485 0.15813445 0.2166118 0.14280298 -0.3653724 0.5512897
0.51996887 -0.016832184 0.01623786 0.16100563 0.23173186 0.26710722 0.22575702 0.46772408
0.00014171298 -0.14418411 0.092618994 0.22294101 -0.08403932 0.23587517 -0.39590743 0.071771555
0.23719811 0.022630952 0.18193626 -0.19053715 -0.25313953 -0.2155882 -0.20557265 -0.18215132
-0.07307872 0.06351533 0.33388945 0.13015507 0.32057053 0.26919782 0.33517238 -0.062010538
0.070059285 0.1751367 0.13257265 0.046548445 -0.37655059 0.104828574 -0.1661253 -0.18887603
0.034186 0.101604715 0.25009224 0.11241768 0.16759723 0.19854994 -0.086882286 -0.07720186
0.060953766 0.091108315 0.31802535 -0.11195393 -0.016072026 0.095163286 0.08250653 0.35071692
-0.16118819 -0.31135416 0.006433914 0.16206804 -0.10106929 0.039310873 -0.14021254 -0.14740932
0.38890254 0.25340605 -0.0076809363 0.081810296 -0.31231204 0.049480397 0.025058929 0.07944052
0.1582724 0.104852706 0.08867157 -0.15413558 0.055550516 0.035648804 0.1640153 0.38429785
0.049737416 -0.38265026 0.13060611 -0.34461382 -0.31023186 -0.033567067 0.22962181 -0.26517117
-0.3081164 -0.17468585 0.22078295 -0.40414184 0.058966894 0.19705215 0.14676476 0.37807834
0.14127505 0.15705927 0.11042524 -0.07942659 0.15678383 0.32700372 -0.17279916 0.13636854
-0.24234296 -0.19103189 0.3340983 0.020992266 -0.16106555 -0.1725808 -0.011816195 0.14606334
0.08445498 -0.19683343 -0.40431672 -0.1204802 0.35448778 -0.070861146 -0.12270416 0.11511162
-0.060368698 0.3190208 -0.08975304 -0.1349319 -0.24693249 -0.046463866 0.07702496 0.1694965
-0.2443689 -0.25642002 0.030586706 -0.23367298 -0.07858491 0.20566183 -0.08288088 0.35613436
0.040409967 0.18300897 0.120085 0.19183461 -0.0936551 -0.26037183 -0.13548267 0.058015518
0.3898044 -0.0014752664 0.26953274 -0.17314641 -0.10063323 -0.10103489 -0.060799114 0.14109512

lstm.bias_ih_l0 f4 [40]
00000000: 8c70 74bb 26ce 873d 02ff 533b 639a 98bc
00000010: 8815 3b3e 51b3 9abc 1522 16bd 0e8f 163d
00000020: 5464 783e 4208 b9bd b547 b43d 2365 713e
00000030: d0f9 cebd 6fb3 f9bd 9b3d 51be a5f7 40be
00000040: ef7b 41be ea63 8f3d 198f bdbd 2c31 5ebe
00000050: 9e8c b2bd 0073 293e c971 783d e49e 393e
00000060: fd22 393d 3ffc 8e3c a593 62bc 1f17 28be
00000070: 9107 713e 76c4 643e 4985 6abe 3375 2e3e
00000080: 6dd3 ba3d 39e9 11be d5fc 84be 351d cf3d
00000090: a6b2 66be 9f1a 773e 0708 02bd d1ce 95bd
-0.0037298528 0.066311166 0.0032348041 -0.018628305 0.18269932 -0.018884333 -0.036653597 0.03675752
0.24257022 -0.09034778 0.088027395 0.23573737 -0.10106242 -0.12192427 -0.20433657 -0.18844469
-0.18894933 0.07001479 -0.09255809 -0.21698445 -0.08718227 0.16547775 0.06065539 0.18127018
0.045199383 0.017454265 -0.0138291465 -0.1641507 0.23538043 0.22340569 -0.22902407 0.17036895
0.091223575 -0.14249124 -0.25974146 0.10112993 -0.22529086 0.24131249 -0.031745937 -0.07314838

lstm.bias_hh_l0 f4 [40]
00000000: 471c 8e3d d2e9 60be bf58 ea3c a8e5 2e3e
00000010: c654 283e cb67 523e 45c8 093e 474c bd3d
00000020: 449d 873e cd79 8cbd 473d 24be 6c66 34be
00000030: bec9 0d3e 9c99 a13e 10fa 4d3e 7c98 27be
00000040: 158a 20bd e359 993e 904c 35be f00b b93e
00000050: 6998 163e aead a3be d738 d9bd 61bb 813d
00000060: 4fad 583e 6e71 c8be b134 0a3e 82d5 783e
00000070: 09e5 1e3e a13e ba3d 39da 4a3e 910a e5bc
00000080: f8ac 8d3e 0a96 9c3e 1bf0 183a a17e b43e
00000090: 9b90 fe3c 3bbf 183d 1b5c 4f3e 5dfd 8a3e
0.06938987 -0.21964195 0.02860677 0.17079794 0.16438589 0.20547406 0.13455303 0.092430644
0.26487172 -0.06859169 -0.16039 -0.17617196 0.1384649 0.31562507 0.20114923 -0.16366762
-0.039194185 0.2995139 -0.17704988 0.3614192 0.14706577 -0.31968445 -0.106065445 0.06334568
0.21159862 -0.3914904 0.13496663 0.24300197 0.15517057 0.09093977 0.19809808 -0.02795914
0.27671027 0.3058322 0.00058341183 0.3525286 0.031074813 0.037291747 0.20249979 0.27146426

lstm.weight_ih_l1 f4 [40, 10]
00000000: 6ac9 3bbe 45da 46bd 3224 303d c2c5 6e3e
00000010: 4f75 dcbd 2ce9 a8be 8c86 81be 390d 863e
00000020: d979 c7bd 85fc 803d cd2d 18bf 8933 96bd
00000030: f4cf 20bf 03c0 463e 6ad8 313e d888 9ebd
00000040: 454f 873d 239b 09bf c373 f93d a9e5 c5be
00000050: bf6d dbbd 9d99 97be 739c a73c 472a 47be
00000060: 5111 213e 13f6 fa3d ed98 2b3e 2794 f0be
00000070: 45dc 1c3d 1aa6 5bbd 450d 103c 777a 46be
00000080: 1141 6c3e a887 0abe e4bb b83d 13bd d33e
00000090: b329 19be b8ab b9be 0c23 c23d 98c4 493e
000000a0: 2ff0 5abd decd 87be abab 4e3e 49f3 693d
000000b0: 3269 74be 5c00 a2be bb22 06bd e58c 863e
000000c0: ff71 673e fcb8 403e 8b2e 22be f0b9 4ebd
000000d0: a382 563d 63d0 503e 8ace e6bd 3834 a7bc
000000e0: 39ad 5f3e 071b 43be a952 19bd 6094 26be
000000f0: f707 533e e844 e23d a738 313e b85e 4dbd
00000100: d1da aa3d e392 483e c59b dabd 2d88 a93e
00000110: 9aec b7bd bd74 7c3d 3609 753e 2cdc 30be
00000120: 4c4f 903d 6c04 3a3e 0f65 5e3e 4db8 093e
00000130: 956f 40be dc2e 85be ffa9 1e3c 32c0 233e
00000140: dfd0 5f3e ed47 3b3e 9d4f b13c b3d4 6ebc
00000150: 9241 6ebe deac 893c 3d2d 323e 4275 8fbd
00000160: 3a68 04bd 76e0 59be f486 5bbe 0272 743e
00000170: 6c94 fd3d fd5d d8bd b491 b4bd 9977 233d
00000180: 9ed2 05be d14e cdbd 227e 323e 0de9 98be
00000190: 694b b8bd 8f37 3dbe e579 733e 26c4 15be
000001a0: fc13 303e 4022 c7be 0949 a83d 4e8c be3d
000001b0: bf88 60be 5a21 b83d fd38 a0be e47c 9cbd
000001c0: 40f5 3fbf 1398 843e 5946 5e3d 8034 203e
000001d0: cb11 04be d8ea 22bf c2ba 953e 9907 12be
000001e0: 9110 ab3b c0a7 8fbe 472f 563e bd0e a03e
000001f0: 6836 e9bd 5483 abbe 1306 9e3e 48dc 2f3d
00000200: eef4 2fbe 44ab 1dbe 4fe4 e7bd 3d01 90bd
00000210: 6b8b 763e 9de0 e3be 26dd 5f3e 6c68 5d3e
00000220: 40cd 553e f1cf 213e 5aaf acbe 57fa 78be
00000230: 9819 2abd f857 813e 2ba2 d8bd d213 6c3e
00000240: a725 913e 0dac ec3d df88 8c3e 838b 653e
00000250: 037b a43e 296d 1ebd b398 78be 45be a73a
00000260: 3edd 62be 249b 71be 333f acbd 249e e8bd
00000270: 00fc 433e a9ac 9ebe b68b a63c 93fa 893d
00000280: 7161 243e 5cf1 f93d 907a f83d 9161 ac3c
00000290: ceda 28be 91ff 2dbd 5461 8ebd bd4d abbd
000002a0: f6bf 633e dcd5 c93c a4ad 49bd 04a2 2bbe
000002b0: 97c8 5b3c 5332 1a3e bced ab3c c27f 6abe
000002c0: fc40 87be 4d66 593e 422f 983e 4f8c 363e
000002d0: 4fff 48be a5be ca3e 2472 513e 7e3e 6f3e
000002e0: 366b 923e 0b0e 1ebd a2c5 a73e 2494 5b3d
000002f0: bd36 37be b2b2 fa3d 4f8e a53e 987c 773d
00000300: a608 c13d 34da c03d b39d 85bd 87a8 fa3d
00000310: 2c20 96be 2d99 2c3e 8318 c83d 26c1 6b3e
00000320: 0814 53be fc8f c4bd bb3f a3bb 6bb8 6cbe
00000330: 128f 0dbe 04d3 c13d aea4 bd3d 3a58 0d3e
00000340: 0c4a 09be 8498 3a3e 00e1 99be 7b33 d1bd
00000350: 40bd fb3b b933 053e 0188 303e 1c77 cc3d
00000360: cf4f 62be 3e8e e33d e151 723e adb5 0f3e
00000370: 2081 d43d cc41 a1be c44f c2bc bc60 7cbe
00000380: 9ced 7d3e 16b3 94be 5fbc 2ebe 4e55 21be
00000390: 3ad5 923e 4804 643e ebfe dabd 0f73 82be
000003a0: 7de0 61bd bf2b 0cbe f941 57be e102 9d3d
000003b0: 95c8 33be f499 a6bc 2451 8abd 4618 c83d
000003c0: f94d 18bd 3c94 2ebc febc a2be cf0c 303e
000003d0: 0a00 083d 5c98 663e f4c2 6b3c 8d76 4f3e
000003e0: 023f 043e 46fb b13d 39c2 1f3e 4cdc a0be
000003f0: 3487 a3be 2a06 c2bd 1b9f 143e edfd 7e3e
-0.18338552 -0.048548 0.04300327 0.23317626 -0.10764562 -0.32990396 -0.25297964 0.26181963
-0.097400375 0.06298164 -0.59444886 -0.07334048 -0.6281731 0.19409184 0.17367712 -0.077409446
0.06606916 -0.53752345 0.12180283 -0.3865178 -0.10714292 -0.29609385 0.020460343 -0.19449721
0.15729262 0.12253966 0.16757555 -0.4698803 0.038296003 -0.053625204 0.008792226 -0.19382654
0.23071696 -0.13528311 0.09020212 0.4135519 -0.14957313 -0.36263824 0.09479341 0.19703901
-0.053451713 -0.26524252 0.20182674 0.05711678 -0.23868254 -0.316409 -0.032747965 0.2627937
0.2260208 0.18820566 -0.15838067 -0.050470293 0.05237068 0.20391993 -0.11269863 -0.020410642
0.21843423 -0.19053279 -0.037432346 -0.16267538 0.20608507 0.11048299 0.17306767 -0.05013916
0.08342517 0.19587283 -0.10674242 0.33111706 -0.08980675 0.061634768 0.23929295 -0.17271489
0.07046375 0.1816575 0.21718238 0.13449211 -0.18792565 -0.26012313 0.009684085 0.15991285
0.21857022 0.18289156 0.021644408 -0.014577079 -0.232672 0.016806062 0.1740007 -0.07004787
-0.03232596 -0.21277031 -0.214382 0.23871616 0.12381825 -0.10564802 -0.08816853 0.03990898
-0.13068625 -0.10024799 0.17430928 -0.29865304 -0.08998758 -0.18478225 0.23776968 -0.14625606
0.17195123 -0.38893318 0.08217055 0.09304105 -0.21927164 0.08990736 -0.3129348 -0.076410085
-0.74983597 0.25897273 0.054266308 0.15645027 -0.12897412 -0.63639593 0.29244047 -0.14260711
0.0052204807 -0.2805767 0.20916472 0.31261244 -0.1138733 -0.33498633 0.3086401 0.042934686
-0.17183277 -0.15397364 -0.11322843 -0.07031486 0.24076621 -0.44507304 0.21861705 0.21621865
0.20879078 0.1580198 -0.33727533 -0.24314247 -0.041528314 0.25262427 -0.10577806 0.23054436
0.2834904 0.115562536 0.27448174 0.22416501 0.321251 -0.038678322 -0.24277 0.0012797794
-0.2215471 -0.23594338 -0.08410492 -0.11358288 0.19139099 -0.30991104 0.020330291 0.06737246
0.16052796 0.12204239 0.12132752 0.021042617 -0.16489717 -0.042480055 -0.069521576 -0.08364437
0.22241196 0.024638109 -0.049237862 -0.16761023 0.013414524 0.1505826 0.020987384 -0.22900298
-0.26416767 0.21230431 0.29723555 0.17826961 -0.19628642 0.39598575 0.20453697 0.23363683
0.2859742 -0.03858761 0.3276797 0.053608075 -0.17891975 0.12241115 0.32335135 0.060421556
0.09425478 0.09416619 -0.06524219 0.12239175 -0.2932142 0.16855307 0.097703 0.23022899
-0.2061311 -0.09597775 -0.0049819625 -0.23117225 -0.13824108 0.09464076 0.09259926 0.13803187
-0.13407153 0.18222243 -0.30054474 -0.10214897 0.0076824725 0.13008012 0.17239381 0.09983656
-0.22100757 0.11111115 0.23664047 0.14034148 0.10376191 -0.31495512 -0.023719676 -0.24646276
0.24797672 -0.29042882 -0.17064045 -0.15755197 0.28678304 0.22267258 -0.10693153 -0.25478408
-0.05514573 -0.13688563 -0.2102126 0.07666565 -0.17556985 -0.020337082 -0.067537576 0.09770255
-0.037183736 -0.010655459 -0.31784815 0.17192386 0.033203162 0.22519058 0.014389742 0.20260067
0.1291466 0.08690505 0.15601434 -0.31418073 -0.3193909 -0.09473832 0.14513819 0.24901552

lstm.weight_hh_l1 f4 [40, 10]
00000000: dc82 8abe 4301 ae3e 1204 9c3e 8add f7bd
00000010: d9be 983d d1cb 9c3d 83be a73e 373b 073d
00000020: 98ff babe 97bd 903d 17b3 93be 854e 223e
00000030: 3d1c 213e 204a 3dbe 6d06 a63d 5551 c23e
00000040: af72 77be 7534 333e 665a 2a3e 3b8c 49be
00000050: d558 75be 4b0e 893e 1fbf acbd 7013 6d3e
00000060: eaad 1d3e 4d15 28be 8db8 c7bd 2f35 c7bd
00000070: dcdd e03d b56e a3be f2c5 4b3e 202c a73e
00000080: 0cb4 603d 66c2 4e3e 9c65 84be 761a e5bd
00000090: d05f 8cbe 68e8 ad3e 3671 3bbd 2fd1 073d
000000a0: ba83 a5be 6785 543e b57c 963e 743c 18bd
000000b0: 8498 cd3e 24eb 04be 1120 883e 0c54 c9bb
000000c0: 66ef 1c3e 95d6 51be 200f ba3c 78bd 623e
000000d0: 5930 803e 0be3 f73d db3f 80be 341a 7dbe
000000e0: 3cfb 01be 370d 40bd 1332 b5be 7202 d43c
000000f0: 499f 443e b4c2 2cbe f977 1abe 93b2 153d
00000100: f7cb 88bd 785f 2f3e 6f53 82be 89de 313e
00000110: 0bb5 f1bc c201 a5be 7f52 a1be f42c 493e
00000120: 2e45 0e3d f3d9 8a3e 03c7 06be 442d b73d
00000130: 3f0d c63d a466 5fbe c42c 62bd 670b b13e
00000140: 5556 49be b42b 523e f095 173e 5f07 90be
00000150: 0810 c93c 3406 55be b81a 243e 558b ab3d
00000160: 2ea1 b9be 60a7 adbd 07d5 c8bd 4d9b e53b
00000170: 4d38 403c 3023 37be 143e 5c3e e6ed d13c
00000180: 5e7a 97be 0fe2 163e 8df4 06be c421 033e
00000190: 43a4 d03c 38f3 fd3e db46 e63e 8f5c e13e
000001a0: 5e5d 8cbd 9593 053b c6dc 91bd 377e f83d
000001b0: ee99 713c f2ff 51be 443c 33bc 0264 0d3f
000001c0: 67a6 a83e 229f c53c da3d a93e c854 043f
000001d0: 48f9 21be bb4e 2cbe 655e 6d3c 0d7b f3bd
000001e0: f1fc ed3d 7d40 8b3e 5c80 b5bd 08d7 073e
000001f0: 8a80 a8bd b788 963d 9c2c 85bc c980 603e
00000200: a03a 7abd f35a 873e 2ff6 b23d 1666 e5bd
00000210: 7edb 6cbe f19d 96be 947b f13d c5b5 69be
00000220: 01c9 07bd ff45 753d 7fb8 2cbd 2d85 af3d
00000230: f1a4 a2be 3e49 563e 5cf0 5bbd 2796 fc3d
00000240: 798e 673e 81a7 f13d 77af 9c3e 68d8 30be
00000250: 2ee3 b1be b706 4a3d 28c7 cebd 1c98 9a3b
00000260: 07e7 aa3d 9ab0 10bd fe28 ac3e fccd 4bbe
00000270: 6afa 793e 9756 4bbe 364f 3c3d 1beb e23b
00000280: 9a3d 8fbe 7169 bbbe fd98 edbd 7756 b7be
00000290: 5a9f 383e 5edb 6cbc 5323 c13e 9fdd a93e
000002a0: 3927 7f3e b913 443e 3ed0 8e3e 1f2d c43e
000002b0: baf1 103e f153 cb3d 5afc e4bd a465 4b3e
000002c0: caeb 36be 39b9 7bbe 9803 143e 7d14 4b3e
000002d0: 14f6 8abd ad71 883e 38ae 28bd 814e 8f3e
000002e0: dee1 a7bd 1f38 41be 62d5 18be 20ca 7ebd
000002f0: 67a9 923d f683 273e 19b4 fb3d dcc4 b2be
00000300: ceba 853c fd2f 39be c7b4 33bd b6d4 d8be
00000310: bd71 783c 08f9 3bbe fca7 07be a39d 48be
00000320: de90 523e 8c3c c23d 644d 21be 27c3 55be
00000330: e70e c5be ebb8 99be c9a0 c03d 8a68 a8be
00000340: 926e 573e ba1e 7f3e b265 99be 2636 3e3d
00000350: 635d 5c3d 7afb ebbd 0ae1 8b3d 4ad1 893e
00000360: c9d4 4f3d 3cd9 a4be c604 cc3d c4de 0cbe
00000370: ad2c 94be 169a 583e 9153 18be ec9a b63d
00000380: 7281 d1bd c8bb e9bd ff9d 743e 2ed7 a33c
00000390: 84e8 95be 9546 50be e809 483e d396 5d3e
000003a0: f99d 903e 88fd b5be 764e e63d 8a40 60be
000003b0: 1a78 133d 0e1a f4bd 7813 073e 120c 18be
000003c0: 0e92 dfbe 0014 81be 4bd5 b73e 43c8 6d3c
000003d0: 5046 d4bd 4392 a03e 5b5e 933e 67cb 173e
000003e0: 2131 9bbc 8e53 c3bd 0e63 cabe 77ec fdbd
000003f0: f33c 313e e672 653e 15b2 9f3c 210a 023e
-0.27052963 0.33985338 0.30471855 -0.12102802 0.07458276 0.076560624 0.32762536 0.033015456
-0.36523128 0.070674114 -0.28847572 0.15850265 0.15733428 -0.18485308 0.08106694 0.37952676
-0.24164842 0.1750048 0.16636047 -0.196824 -0.23959668 0.26768717 -0.08434891 0.23151946
0.15398374 -0.16414376 -0.09751997 -0.09726941 0.10979816 -0.319204 0.19899729 0.32650852
0.054859206 0.20191345 -0.25858772 -0.11186688 -0.2741685 0.33966374 -0.045762263 0.033158477
-0.32327062 0.20754014 0.2939202 -0.037167028 0.40155423 -0.12980324 0.26586965 -0.0061440524
0.15325698 -0.20492013 0.02271229 0.22142589 0.25036886 0.12103852 -0.25048718 -0.24717027
-0.12693495 -0.046887603 -0.35389766 0.025880072 0.19201387 -0.16871148 -0.15084828 0.036547255
-0.06679528 0.17126262 -0.2545428 0.17370047 -0.029505273 -0.32227904 -0.31508252 0.19646055
0.034733944 0.27119407 -0.13161854 0.089441806 0.09670495 -0.21816498 -0.055218473 0.34579012
-0.1966184 0.20524484 0.1480329 -0.28130624 0.024543777 -0.20803148 0.16025817 0.08376185
-0.36255783 -0.0847919 -0.09806257 0.0070070387 0.011732173 -0.17884517 0.21508056 0.025626134
-0.29585546 0.14734672 -0.13179226 0.1280585 0.025468951 0.49599624 0.44975933 0.4401593
-0.06853746 0.0020382155 -0.07122187 0.121334486 0.014746172 -0.20507792 -0.010939661 0.55230725
0.32939455 0.024123732 0.33055001 0.51691866 -0.1581775 -0.16826908 0.014487837 -0.118887044
0.1162051 0.27197638 -0.08862373 0.13265622 -0.08227642 0.07350295 -0.016256623 0.21924128
-0.061091065 0.26436576 0.08738362 -0.11201112 -0.23130605 -0.29417375 0.11791149 -0.22823246
-0.033150677 0.059881207 -0.042168137 0.08570323 -0.31766465 0.20926377 -0.05369602 0.12333327
0.22612943 0.11799527 0.3060262 -0.17270052 -0.34743637 0.04932281 -0.1009658 0.00471784
0.08344846 -0.03532467 0.33625025 -0.19902796 0.24411932 -0.1985725 0.04597398 0.0069249994
-0.27976686 -0.36603883 -0.11601446 -0.35808155 0.18029538 -0.014456598 0.37722263 0.33176896
0.24917306 0.19148149 0.2789325 0.38315675 0.14154711 0.0992812 -0.11180945 0.19862992
-0.17863384 -0.24582376 0.14454496 0.19832034 -0.06785217 0.26649228 -0.041181773 0.2798958
-0.081973776 -0.18869065 -0.14925149 -0.06220448 0.07161217 0.16358933 0.1229021 -0.34915817
0.016324427 -0.18084712 -0.043873575 -0.42349786 0.015163836 -0.18356717 -0.13247675 -0.19591384
0.20563075 0.09484205 -0.15752178 -0.20875226 -0.38487932 -0.30023894 0.09405667 -0.32892257
0.21038273 0.24914065 -0.299604 0.04643836 0.053799998 -0.11522575 0.06830032 0.26917487
0.050740037 -0.32196987 0.09961848 -0.13756853 -0.28940335 0.21152529 -0.14875628 0.08916268
-0.10229768 -0.114127696 0.23888396 0.020000067 -0.29278958 -0.20339425 0.19535029 0.21639566
0.28245524 -0.35544991 0.11245434 -0.2189962 0.03600321 -0.11919032 0.1319102 -0.14848354
-0.43666118 -0.2521057 0.35904917 0.014513078 -0.103649735 0.3136159 0.28782925 0.14823686
-0.018944325 -0.09537421 -0.39528698 -0.12398618 0.17308407 0.22407112 0.019494096 0.12699176

lstm.bias_ih_l1 f4 [40]
00000000: ea0d b43e 80ee 49bd 61be 20be c349 75be
00000010: d6d2 763e eeef 553e e17b 723e 88e6 fd3d
00000020: f73b 913e f0c3 4a3d d181 d83e 780f 8fbd
00000030: afc8 643e 75c8 4fbc e35c 833e 071f f5bd
00000040: 9096 94be 160a 9a3e c5e7 b23d 3e24 b9be
00000050: 8664 853d 7edc 0bbe c8b0 30be 23da 833e
00000060: ccbb 233d f96d 7abe bcb6 db3d 1e1c b33d
00000070: ecef 99bd d4e3 113e 87cf 0b3e ec0c a7bb
00000080: 02fb 2c3e 065a 4fbe 9b06 1e3c 8d55 b9bd
00000090: e1ec 1c3e 18d2 603d 8908 133d 79b4 093d
0.35166866 -0.049299717 -0.15697624 -0.23953919 0.24103865 0.20892307 0.23680069 0.12397486
0.28366062 0.049503267 0.42286542 -0.06985372 0.2234218 -0.01268207 0.25656804 -0.119688086
-0.2902112 0.3008582 0.08735613 -0.36160463 0.06513314 -0.1365833 -0.17254937 0.25752363
0.03997402 -0.24456014 0.10728213 0.08745597 -0.075164646 0.14247066 0.13653384 -0.005097976
0.16892627 -0.20249185 0.00964513 -0.09049521 0.15324737 0.05488786 0.03589681 0.033619378

lstm.bias_hh_l1 f4 [40]
00000000: 7682 e93c 5ac3 f4ba 1c55 843e 04e6 043d
00000010: dd54 6fbe 062a 4bbe 2c4c 873d 686f b13e
00000020: a7a4 d9bc 50bd 6abe 35fb 883e 8366 1c3a
00000030: 5c5c 76bd d96d 86be fb0f 8f3d f641 bebd
00000040: 534a 24bd 254e 133e d792 0e3e 0d00 b7be
00000050: f9ba 73bd d82b c93d 1f08 703e a9ee 803e
00000060: 4676 333e da2d 343e 755d 7fbd f3b6 80be
00000070: a922 8d3d 68cb 743e a2fb 25be 9dd4 243d
00000080: 97f2 9c3e a097 d33d 4935 9f3e 8d3b 853e
00000090: 295d abbe 346c acbc 21c3 cd3d 3b00 303d
0.028504591 -0.0018673942 0.25846183 0.032445922 -0.23372217 -0.1984025 0.066063255 0.3465531
-0.02656777 -0.2292378 0.26754156 0.0005966203 -0.060146675 -0.26255682 0.0698547 -0.09289925
-0.040109944 0.14385279 0.13923202 -0.35742226 -0.059504483 0.09822816 0.23440598 0.25182083
0.17525586 0.17595616 -0.062344987 -0.2513958 0.068913765 0.23905718 -0.16209272 0.040241826
0.3065383 0.103316545 0.3109534 0.26021996 -0.33469513 -0.021047689 0.100469835 0.04296897

lstm.weight_ih_l2 f4 [40, 10]
00000000: f1a3 823e 912b a3be bd1b f4be 1605 84be
00000010: e65f 93be f1a8 47be bb35 a23d 9133 963e
00000020: dc74 c53c e091 dc3d 3189 613e 7e8d 62be
00000030: 1367 1dbe 0339 70be 5e14 4fbe 5567 1c3d
00000040: 5b31 613e 8955 2d3e 7746 9c3d 6d3c 70be
00000050: af19 05be ecd8 8abd 844f 84be fd89 a4be
00000060: 8efc 7c3d c2ad dc3d 3c22 f03d 2d8a 373e
00000070: d6bb 7eba 9eb4 cb3d a958 893d 57ea 09be
00000080: b55d 87be 2ada aabd e54a 9abe 74e4 90bd
00000090: aa82 5bbe c497 9b3e ed35 873e da14 d6bd
000000a0: 2dd7 c8bd 2777 79be 2a77 a83e 609f c13d
000000b0: 7086 2d3d 52b2 03bb c408 99bd a9f4 c43e
000000c0: 5151 b23d 9fb7 b73d 0cca a3bc 976e 093d
000000d0: aedc 8dbb e23f 27be c5f6 02be 8133 1abe
000000e0: b44b 423e dcfa aabe e33a efbd 6b47 98be
000000f0: 9cfa 34bd 725b a23e e52f 033c 9379 9fbe
00000100: 51d9 91be 7009 883e ef82 7a3d 3569 34bd
00000110: 5696 193c 5fb5 07be e034 783e 9658 5a3e
00000120: 7dcb 173e 1cde 5dbd 80c1 953e 73df e2bc
00000130: d8e7 81be 5421 29be f352 243d 7c39 5fbe
00000140: 8f20 5b3d d261 973d 4045 963d 1a95 8e3e
00000150: e254 a3bb 66fd 7e3e bf9c 9c3c b69c 17be
00000160: ade2 db3c 4fd2 cb3e e2d6 92be 5345 f7bd
00000170: 4a85 32be fdaa 10bd 3246 d83d 78aa c0be
00000180: 2038 48be 223b 683e b6da 97be fb16 cfbd
00000190: e190 c03e e820 6bbe db4f 8abd 3bbc 32be
000001a0: 5b57 4bbe 189f 04bd 00e4 e73b ae92 31bd
000001b0: 85d2 eabd fb4a 2bbe ba5a d3bd a469 9dbe
000001c0: b9fc cc3e d874 f4bd 2168 34bd ede0 6d3c
000001d0: 1db4 4cbe 3ecc febd a1c2 7dbe adca d23d
000001e0: ef66 b3be d2d2 72bc 20d1 ac3d bd7a 45be
000001f0: 1cbd 9a3e a933 7f3e f2b5 363e 47d5 453e
00000200: 3fed a4be 94e8 433e 149c 8c3d c81c a4be
00000210: 94f7 ec3d beeb 6a3e 9ca1 51be 3bf2 2cbd
00000220: 5b7a 32bc a023 a8bc 4d54 24bd 4d7d c43d
00000230: 3df3 10be b23e 7e3e 4bc5 8d3a 2833 7d3e
00000240: 347d a03e c8bc a23e b6d0 fa3d b3d9 983c
00000250: 66e6 10be afa1 ee3d c1c9 6c3e 3296 3e3e
00000260: 7645 abbe 705d 2ebe f101 06be 4ba3 9e3e
00000270: b232 803e ac29 8e3d 0c46 a13c 5d7b 213d
00000280: deec abbe f747 ce3e 4519 7c3e 980c 213e
00000290: af33 d93e e63b 39be 41c7 3e3e 19ab 6dbe
000002a0: bf3b aabc d8f5 bc3d d2ed ccbe 6ab1 0b3e
000002b0: 00db 32be 0fa8 75bc c000 513e 9a81 973e
000002c0: cab8 3b3e 016f 11bc ad69 873d 964d f1bd
000002d0: e404 863d 08db 83be 283c 2a3e 1945 ab3d
000002e0: c190 1cbe 17e0 9f3e 1c18 a5be 45ed 3fbc
000002f0: 2880 113e 089b 0bbe da88 3fbe 0ad9 c1bd
00000300: db44 073e 0fc0 c83d f278 363e d84a 4fbd
00000310: 246f 57bd b614 063e 3b3a b33d 06f0 fabd
00000320: f7ff 7c3e a64e d33d 95ac d43e 8f4f 003e
00000330: 7b95 5f3e 5000 07be c217 953d 4ce8 953d
00000340: 2733 82be 6d5b 66be e871 89bd f586 403e
00000350: ed87 f0bd 6814 433e 8990 1e3e 44ef 66be
00000360: e62b 42be b642 06be 9d86 30be 2e47 55bd
00000370: bdd1 12be a7a0 4eba 838a 873d 9f42 8c3e
00000380: cd4c 153e ae2e 763e 782d 1d3d bd10 ecbd
00000390: 92d4 4fbe 9673 8a3d 039b 72be 1379 263e
000003a0: beb7 b33d e378 853d 0723 463d 6b2d 453d
000003b0: cbbe 69bd 6d1f 883e 0e80 0d3e e0d4 093e
000003c0: 16b9 e2bd dc71 59bc 8572 07ba d15c 89be
000003d0: 47a9 3c3e 5676 853d 8546 593e 96ca ea3d
000003e0: 41d7 9cbe 30c8 17be 91dd 6d3e db6c 56bd
000003f0: 6eaf 3abc 22a6 ccbc b698 62be 17bc afbd
0.25515702 -0.31869176 -0.47677413 -0.2578513 -0.28784102 -0.1949804 0.079204045 0.29336217
0.024103574 0.10770011 0.2202499 -0.22124287 -0.15371351 -0.23459248 -0.20222613 0.038184483
0.21991484 0.1692716 0.076306276 -0.2346055 -0.12998079 -0.06779656 -0.25841916 -0.32136527
0.061764292 0.10775329 0.1172528 0.17923804 -0.0009717321 0.09946559 0.06706364 -0.134683
-0.2643868 -0.08342393 -0.30135265 -0.07074824 -0.21436563 0.30389225 0.2640833 -0.10453196
-0.098066665 -0.2436186 0.32903415 0.094542265 0.042364538 -0.00200953 -0.07472375 0.3846791
0.08706916 0.0897057 -0.019993804 0.033552732 -0.0043292856 -0.16332963 -0.12789448 -0.1505871
0.18974191 -0.33394516 -0.116811536 -0.29741988 -0.044184312 0.31710392 0.008007024 -0.3114744
-0.28486112 0.265697 0.061160024 -0.044045646 0.009374222 -0.13252781 0.2423892 0.21322855
0.14823718 -0.054166898 0.2924919 -0.02769444 -0.25372195 -0.1651662 0.04011817 -0.21799272
0.053497847 0.073917046 0.07337427 0.2784813 -0.004984484 0.24901351 0.019117711 -0.14805874
0.026841486 0.3980889 -0.28679568 -0.120737694 -0.17433658 -0.035319317 0.10560264 -0.37630057
-0.1955266 0.22678807 -0.2965905 -0.10111805 0.37610534 -0.22961771 -0.067535125 -0.17454617
-0.19857542 -0.032378286 0.0070767403 -0.043352775 -0.11465935 -0.16727822 -0.10320039 -0.3074466
0.40036562 -0.11936349 -0.044044618 0.0145189585 -0.19990583 -0.124413 -0.24781276 0.102925636
-0.3503947 -0.014820771 0.08438325 -0.19285102 0.30222404 0.2492205 0.17842844 0.1931964
-0.32212254 0.1913169 0.06865707 -0.32053208 0.11570659 0.22941491 -0.20471805 -0.042223196
-0.01089343 -0.0205248 -0.040119458 0.09594212 -0.14155288 0.24828604 0.0010816244 0.24726546
0.31345522 0.31784654 0.1224684 0.018658495 -0.1415039 0.116519324 0.23123838 0.18611982
-0.33451432 -0.17027831 -0.13086678 0.30983958 0.25038677 0.06941542 0.019686721 0.03942429
-0.33579153 0.4028928 0.24619015 0.1572746 0.42422244 -0.18089256 0.18630697 -0.232098
-0.020780442 0.092265785 -0.40025192 0.13641897 -0.17466354 -0.014993682 0.20410442 0.29591066
0.1833221 -0.008876563 0.06611953 -0.117823765 0.065439016 -0.25753045 0.1662451 0.08362789
-0.15289594 0.31225654 -0.32244956 -0.011714284 0.14209044 -0.13633358 -0.18704548 -0.09465225
0.1320986 0.09802257 0.17819574 -0.050608486 -0.052596226 0.13093838 0.08751341 -0.12252812
0.24707018 0.103177354 0.4153792 0.12530349 0.21834366 -0.13183713 0.07279922 0.07319698
-0.2542965 -0.22495814 -0.06711179 0.18801482 -0.11744676 0.19050753 0.15484823 -0.2255221
-0.18962058 -0.13111386 -0.17238851 -0.052069835 -0.14337821 -0.00078822154 0.06618216 0.27394578
0.14580078 0.24041244 0.03837344 -0.1152663 -0.20295933 0.067603275 -0.23691945 0.16257124
0.087752804 0.06517198 0.04837325 0.048139017 -0.05706672 0.26586476 0.1381838 0.13460112
-0.110704586 -0.013271775 -0.0005166906 -0.26828626 0.18423949 0.065167114 0.21218307 0.114644215
-0.30632976 -0.14822459 0.23229052 -0.052349906 -0.011394365 -0.024981562 -0.22128567 -0.08580797

lstm.weight_hh_l2 f4 [40, 10]
00000000: 2752 673e 7290 083e 2828 6e3e 0f80 adbd
00000010: b872 a43e b2b3 ea3d b0a7 0e3e c3d7 8fbd
00000020: e765 26be d411 99be ad63 94be 43fd 97bd
00000030: 3655 3c3d c348 713d 6fb8 83bc eb4f 44bd
00000040: 0b3d 3f3e af16 d83e 6386 943d 4fea 823e
00000050: 25b7 c23d cad7 cebd adc4 733e afac 89be
00000060: b919 85bd 02e0 4e3e e87d 0ebe 6e7f d83d
00000070: ec6f f7bd d73b 6abe 8954 1ebe 317d 05be
00000080: 34b3 d2bd 8fc1 42bd 1d2c 5cbe 5e10 94be
00000090: ff0a 8e3e 8bea cf3d 87ed fe3d 1293 18be
000000a0: ae2c 453e c6dc 3c3d 29c3 703e d235 a2be
000000b0: 13ff b7bd 520a 5c3e 1481 14be b625 5dbd
000000c0: a125 40bd 4c5c 9dbe 6737 ee3d ba1e 613e
000000d0: d2c6 f93e ce0a 6e3e 1469 d3bd 2048 583e
000000e0: 8bad 7ebe c14d 103e 378e 5b3c dd81 c23e
000000f0: 5d13 0dbe 07a7 a2be ed60 433e 0675 f2bb
00000100: 674d 34bd c31b 67bc bd1d 303e 3d0a 9cbd
00000110: 8f78 34be 00e1 38be e595 693d 9438 013e
00000120: 01c8 b3bc 78d9 80bd 9c90 c9bd 26c2 553e
00000130: 0fd7 d6bc 9f48 5dbe 74e3 e63d 86aa 22be
00000140: 643e dfbe eb10 183e b9af 173e 260c 7dbe
00000150: d489 6ebe 2a04 423e 1a82 2cbe a4dc f83d
00000160: 02b6 7f3d 8bfc c5be 2e11 9fbe 56d2 e4bc
00000170: cb67 adbe 31f1 7dbd d653 b73e 5144 c13c
00000180: 2eb4 633d 662c 403e de18 3cbb a36a 5bbe
00000190: ff52 b1be e9f5 783d be73 52be ea99 8abe
000001a0: 61bf 153e 84ff ab3e c799 cb3e 36a5 c9be
000001b0: 54d6 19be 6588 acbd dc46 963e 1c40 88bd
000001c0: e296 8f3e 4a6f c4bc a139 9bbd c070 6abe
000001d0: f434 f3bd 66c6 be3e 6752 9ebe 563a 163e
000001e0: 7e5c 64be 7597 0b3e 70f9 3c3e e7f0 adbe
000001f0: 9d2e 29be 8575 81be a649 2b3d 7c35 0b3d
00000200: c218 f4bd 27e4 b5be b5da 92bc 59f6 54be
00000210: 812c 8ebe 0b6a 6dbd 28ce 4f3d 73b4 2ebe
00000220: f952 ec3d 34d2 eb3d 1580 b73d ed29 f43d
00000230: 45bd 89bd e812 143e f7ef 8b3e 33c6 95bd
00000240: dfda ce3d fa3f 233d c538 90bd 691a a43e
00000250: 5c7d f2bc cb36 cabe c4e5 00be 5595 683b
00000260: 6b57 a3bd 272b 96be ff0e 66bd 762a b43e
00000270: ae1e 4e3e a78e 7bbd f3ba 7d3e 20aa ee3c
00000280: 4395 f2bd f40c 99bd 4379 22be dcde 24be
00000290: cbef 113e e173 8bbe 7370 ad3e 7fdb 833d
000002a0: d20e 9fbe a446 c1be 989a 263c f458 7abc
000002b0: 4544 da3d 4d4f d4be 0253 453e 2dbc fabc
000002c0: 00a9 70be 58eb 6e3e d575 993d 2466 b7be
000002d0: bc4e 5fbd 9506 d23d fcb2 1fbe dcb3 b0be
000002e0: 75ab c03d 78f5 b53c c553 3abe beb9 e73d
000002f0: f0fc a63e 4c46 923d 660b 743e 83e3 9f3e
00000300: c52a 62be f184 173e 8302 013e 6536 68be
00000310: b6bb 9a3e b1ee 94be 7dfc d73d 5850 553e
00000320: db15 bf3d 3a0b a3bd 172a 973e 2b5c 87be
00000330: 48d3 93be 32cb 37be f871 1bbe ae81 283b
00000340: 4881 153c c75b 9d3e b404 323e 6873 d1bd
00000350: 0ff3 1bbe 8b80 8f3e 9392 a1be 390f 84bd
00000360: 96d3 8d3e f606 803e 1be8 0a3e f708 94bc
00000370: 9892 98bc 1d3a 963e d1c3 813e 762e 903e
00000380: a212 04be f5ee efbd 6aac 02bf 2732 e9bd
00000390: ce38 72be fd9f a53e ae9f 3f3d 9a35 a5bc
000003a0: 61da 95be 5287 1a3e b6b0 5a3e 9a63 913d
000003b0: 5a9d a5be 82ca 8e3e 2076 5a3e d1be 2abe
000003c0: 35de 81be 169a 083e 92e0 b0bc cb6c 09bd
000003d0: 47e9 16be 3285 8b3e 28a4 873e cbf6 df3d
000003e0: 4fb2 b73e 2093 97be 84fd dd3d 6ba2 5f3e
000003f0: b28f 5ebe ffa7 db3d 54e1 1f3d 16b1 6ebe
0.22589932 0.13336352 0.23257506 -0.08471691 0.32118773 0.114600554 0.13931155 -0.07023575
-0.1624981 -0.29896414 -0.28982297 -0.07421353 0.0459797 0.05890728 -0.016079156 -0.04792778
0.1867563 0.42204806 0.07252195 0.25569388 0.09507588 -0.10099752 0.23805495 -0.2688956
-0.06499047 0.2020264 -0.13915217 0.1057118 -0.12081894 -0.2287439 -0.15461935 -0.13036038
-0.102880865 -0.047547873 -0.21501203 -0.28918737 0.27742764 0.101521574 0.124476485 -0.14899853
0.19255325 0.046108983 0.23511948 -0.31681687 -0.089841984 0.21488312 -0.14502364 -0.053991042
-0.046910886 -0.3073448 0.11631661 0.21984378 0.487845 0.23246309 -0.103227764 0.21121264
-0.24870889 0.14092161 0.013400606 0.37989703 -0.13776918 -0.31768057 0.19079943 -0.007399204
-0.04401913 -0.01410574 0.17198844 -0.0761914 -0.17624114 -0.1805458 0.057027716 0.12619239
-0.021945955 -0.06291479 -0.09842035 0.20874843 -0.026225595 -0.21609734 0.11273852 -0.15885362
-0.43602288 0.14850204 0.14813127 -0.24711666 -0.23294765 0.18946901 -0.16846505 0.12151459
0.062429436 -0.38669237 -0.31067795 -0.027932327 -0.3386825 -0.061997596 0.3580615 0.023592146
0.055591755 0.18766937 -0.0028701345 -0.21427397 -0.34633633 0.060781393 -0.20551965 -0.27070552
0.14623787 0.3359338 0.3976576 -0.39383858 -0.15023166 -0.08424453 0.29350936 -0.06652853
0.28044802 -0.023978848 -0.07579351 -0.22894573 -0.118753344 0.3726074 -0.30922243 0.14670691
-0.22300908 0.13631995 0.18454528 -0.33972856 -0.16521688 -0.25284973 0.041818283 0.033986554
-0.11918785 -0.3552563 -0.017926553 -0.20797099 -0.2776833 -0.05796246 0.050733715 -0.17061023
0.11539263 0.115147024 0.089599766 0.11922059 -0.067255534 0.14460337 0.27331516 -0.07313194
0.1010034 0.039855935 -0.07042078 0.320514 -0.029600792 -0.3949493 -0.12587649 0.00354894
-0.07975658 -0.29329798 -0.056166645 0.35188645 0.20128891 -0.06141534 0.24778347 0.029133856
-0.11844876 -0.07473174 -0.1586657 -0.16100639 0.1425163 -0.27236846 0.33874854 0.0643835
-0.31065995 -0.37749207 0.010168694 -0.015279997 0.10657553 -0.41466752 0.19269946 -0.030607307
-0.23501968 0.23331964 0.07493178 -0.35820115 -0.054518446 0.10255162 -0.15595621 -0.34512222
0.09407703 0.022211775 -0.18196018 0.113147244 0.3261485 0.07142314 0.23832473 0.31228265
-0.22086628 0.14796807 0.12598614 -0.22677 0.30221337 -0.29088357 0.10546205 0.2083143
0.093303405 -0.07961126 0.295243 -0.26437506 -0.28872132 -0.17948607 -0.15180194 0.002571206
0.009125061 0.30734083 0.17384607 -0.1022709 -0.15229438 0.28027758 -0.3155714 -0.06448216
0.2770049 0.2500531 0.13565104 -0.018070681 -0.018624589 0.29341212 0.2534471 0.28160447
-0.12897733 -0.11715499 -0.51044333 -0.11386519 -0.23654482 0.32348624 0.04678314 -0.02016716
-0.29268172 0.15090683 0.21356472 0.070990756 -0.32346612 0.27888876 0.21334124 -0.16674353
-0.25364843 0.13340029 -0.021591458 -0.03355102 -0.14737426 0.27250057 0.2649243 0.10935744
0.35878226 -0.29604435 0.1083937 0.21839301 -0.21734503 0.10725402 0.03903325 -0.2330974

lstm.bias_ih_l2 f4 [40]
00000000: a53c 9ebe 743d 243e 574c 8c3b 2cb1 e23c
00000010: 1967 c83c 1d45 9abe 73c4 5c3d 36e8 48be
00000020: 567e 1bbe df84 bf3d 3101 8fbe a278 a03c
00000030: 9b24 d43e 3d7a 893d f025 d83d b6e6 7c3e
00000040: 3f00 ae3e f554 ac3e e7ed 393e 8195 11bd
00000050: 89a0 85be a18b c03d 4335 5ebe 026c 3fbe
00000060: 9506 f7bd 7553 d6bd 1538 babd 17f6 633e
00000070: b116 643d bf18 63be f5b8 93be 1a63 623e
00000080: 6234 c53e bcf0 8dbe ca37 d1bd b6c4 093d
00000090: aad0 a83e f070 dbbd 857c 68be c253 b7bd
-0.30905643 0.16039068 0.0042815614 0.027672373 0.024463223 -0.30130854 0.053898286 -0.19619831
-0.15184912 0.09351515 -0.27930596 0.019588772 0.41434178 0.06712768 0.10554111 0.24697384
0.33984563 0.33658567 0.18157159 -0.03554297 -0.2609904 0.09401632 -0.21700005 -0.18693545
-0.12061802 -0.10465137 -0.09092728 0.22261845 0.055685703 -0.22177409 -0.2885205 0.22108117
0.38516527 -0.27722728 -0.10215719 0.033634864 0.32971698 -0.107149005 -0.2270375 -0.089515224

lstm.bias_hh_l2 f4 [40]
00000000: 64ad 793e 57f3 4cbe 3114 7abd f629 d8bd
00000010: 5a24 2a3e 3a7a a3be 8bed d83c 94dc 6f3e
00000020: 7524 133d 63d7 13be 5a5b 7fbe 7b81 ef3d
00000030: 3b80 933d 7d65 49be ffd3 c73e 01ba dc3d
00000040: a8f4 d93e 1291 a93e 5404 453c 463d a2bd
00000050: 1489 4abe 1658 6ebc a578 0abe 18d8 40be
00000060: 73eb 7a3c 1183 69ba cf00 323e d122 4b3e
00000070: 8773 94be 7183 aebe 61f0 1c3e d5d1 9fbe
00000080: cc04 c33e 40bd 5f3d 8c2a 89bd 68d2 073e
00000090: 8715 6fbd 4a91 183e f554 663e 4796 fdbd
0.2438255 -0.20014702 -0.061054412 -0.105548784 0.1661543 -0.3192919 0.026480457 0.23423988
0.03592344 -0.14437632 -0.24937192 0.11694618 0.072021924 -0.19667621 0.39028928 0.10777665
0.4256947 0.33118492 0.012024958 -0.07921843 -0.19778854 -0.0145473685 -0.13522585 -0.18832433
0.0153149245 -0.0008907775 0.17383121 0.198375 -0.2899439 -0.34084657 0.15326072 -0.31214777
0.38089597 0.054623842 -0.06697568 0.13263857 -0.05837014 0.14899173 0.22493346 -0.12382179

fc_1.weight f4 [128, 10]
00000000: 40a1 5fbe b051 d53c 3cce 893d f9ed 893e
00000010: 573a 973e bb0f 87be b09c 56be 603d 1abd
00000020: 6048 863d 80a9 8f3b a44e 8abd c8c3 403d
00000030: 1412 68be 4f8f 8b3e c013 86bb 6ed3 083e
00000040: 884a 803d 50cd 05bd 0039 873a a81d 69be
00000050: f54c 38be bb5d 343d 6cff c3bd ee19 f9bd
00000060: 05c4 a2be b765 eebd a0bc 6ebe 57cc 613d
00000070: 97bd 603d db96 74bd c2a5 403e 8737 8dbd
00000080: 64c8 aa3e d0a9 233e 16dc d7bd 70c5 26bd
00000090: a03e 08bd d64c ca3c caf9 1bbf 69e4 74be
000000a0: 0b93 983e f0a6 9b3c caaf 9abe 7ab8 603e
000000b0: 4007 d1bc 087c 3bbe 2676 6b3e 9e1d 623e
000000c0: f125 9fbe 96ff 5f3e ecc8 5ebe d4b7 eebd
000000d0: 910c 81be 4469 80bd 4605 643e 847b ea3d
000000e0: 8259 91be c057 213c 5798 913e 825a 44be
000000f0: 3203 75be 4cf7 acbd f45c 0dbf a64a 4f3e
00000100: 18b5 c63e 3edc 543e 89ec 3fbd acbb 3e3e
00000110: 413f 253e 498b 0c3e 1c46 72be 9022 8dbe
00000120: 31dd 7bbe 4398 453c cec1 513d 3aec 1b3e
00000130: 86ed 19be 2e92 f9bd 678e db3d 2a0d 5e3e
00000140: 9fdf 9dbe a893 79bd 60e8 333d 6a84 b6bd
00000150: 525b 9cbe d2f0 a9bd 66e8 c0bd 98e9 5dbe
00000160: 7c95 2cbe 558f 863e 52ec 85be 30a2 8a3c
00000170: 00cf 993d 008e 103d 920f 483e 00da 683b
00000180: beec 7b3e 4c32 e1bd c829 d13d 026d 88bd
00000190: bdb6 2d3d 99fd a1be dbc3 993e 1f2e 733e
000001a0: 0a7b 3bbe 0577 28be a18a 94be f48a 183d
000001b0: f504 d6bd 99b5 9c3e 61f9 863e 2833 02be
000001c0: 8e6f 433e 80be 52bb f03b 0ebd 0eb5 013e
000001d0: ec96 03be a584 64be a203 583e 40e1 de3d
000001e0: e541 873e e61f 5e3e c5d6 3f3e dc4e 503e
000001f0: 55e7 e3be adcd c63d 4082 62be 7ddb 9e3e
00000200: 620e c83d 53b9 9f3e 7c5f 813d 17f1 3abe
00000210: e34b 86be 6de6 873e 8882 393d 3a1d 92be
00000220: cf4d 00be f088 90be c649 773e c08e 40bc
00000230: 97af 3d3d b5c5 c33d 3765 f0bc 1e27 27be
00000240: e98b de3d 780f f43d b592 56bd 6c96 1cbd
00000250: 2285 23bd 78a9 61be eac5 323e e1a4 2fbe
00000260: c2d1 513e bb1d 8e3e 84ac 3cbc 5a56 2fbe
00000270: 324b 833e c202 99be a107 873e 20a4 e8bd
00000280: f7e9 5e3d 36c1 74be 2ad7 33be fa50 c53d
00000290: 4070 b63d 14b5 6c3e 6ab9 773e 4c0a 2a3e
000002a0: dcd0 b73e 643c d53d c0df 913c 765a 473e
000002b0: 6294 8cbe 9c5b eb3d 7892 c33d ce3c 7dbe
000002c0: 5e29 81be f009 60bd b8a1 a23d 63a6 78be
000002d0: 908b aabc 2302 823e 40c6 7e3d 4001 38bd
000002e0: 78ae 353d c09a 4bbc 34b8 a7bd aa70 f0bd
000002f0: 6291 79be 640a d73d e838 253d 154d 023e
00000300: 66ba 0cbc 5d69 c83c 5f54 37bc 3b82 933e
00000310: 092e 5cbe 4813 6ebd 9d0c 143d c8a2 9abe
00000320: 714c 0abd d593 ff3d 5d11 4e3e 2e7e 1fbc
00000330: eb5a c1bd e195 983d d5d5 06bd 6577 cb3c
00000340: a66d 30be d742 5abd 7ce1 0a3e 00c7 80ba
00000350: 1c33 2a3e efdf 923e 9616 eabd dec2 563e
00000360: 18b5 86be ca46 67be f2ea 723e 4046 fcbc
00000370: ece5 b63d 0dba a0be f00f eb3d 1b33 3fbe
00000380: e064 30bc ddf9 2bbe 03dd 51be 7886 a3bd
00000390: 0bad 69be b96d 9ebe 28ed ea3d 2421 233c
000003a0: 8699 d6bc d2c6 213d 7773 453e ff53 43be
000003b0: 891f 5cbe d5af 7fbe ede1 17bc 7bda 78be
000003c0: 820b 423e e288 02be 40be 223d e03d 163e
000003d0: a0f4 bebc 264d 433e 50e6 85bd 60a7 0b3e
000003e0: c0f0 13be ecb8 2f3e c873 64be 16b5 cfbd
000003f0: 26d6 733e 56d9 47be 367f 69be 15f8 03be
-0.21838856 0.026039928 0.06728789 0.2693937 0.29536697 -0.2637919 -0.20958209 -0.037656188
0.06556773 0.0043842196 -0.06753281 0.04706171 -0.22663146 0.27257773 -0.00409171 0.13361904
0.06264216 -0.032666504 0.001031667 -0.22765219 -0.17998107 0.0440347 -0.09570202 -0.12163149
-0.31790176 -0.11640494 -0.23314142 0.055126514 0.054868307 -0.05971418 0.18813232 -0.068953566
0.3335601 0.15982747 -0.10540025 -0.040715635 -0.03326285 0.024694841 -0.6092802 -0.23915257
0.29799685 0.0190005 -0.3021224 0.21945372 -0.025516152 -0.18309033 0.22994289 0.2208161
-0.31083634 0.21874842 -0.21756333 -0.11656156 -0.252049 -0.06270078 0.22267637 0.1144934
-0.28388602 0.009847581 0.2843654 -0.19175151 -0.23927 -0.08445606 -0.5521996 0.2024332
0.3881004 0.2078714 -0.046856437 0.18626279 0.1613741 0.13725008 -0.23659557 -0.27565432
-0.24596097 0.012060228 0.051210217 0.15226832 -0.15032014 -0.12186085 0.107205205 0.21684709
-0.30834672 -0.06093183 0.043922782 -0.08911975 -0.30538422 -0.08297886 -0.094193265 -0.2167114
-0.16853899 0.2628123 -0.2615686 0.01692304 0.07510185 0.03529167 0.1953719 0.0035530329
0.24602029 -0.109959215 0.10213047 -0.066614166 0.0424106 -0.31638792 0.30032238 0.23748063
-0.18308654 -0.16451652 -0.29012015 0.03724189 -0.10450164 0.30607298 0.26362136 -0.12714827
0.19085523 -0.0032157004 -0.03472513 0.12666723 -0.12850541 -0.22316225 0.21095136 0.10882807
0.2641746 0.21691856 0.18734272 0.20342582 -0.4451243 0.09707198 -0.22119999 0.3102683
0.09768368 0.3119608 0.0631704 -0.18256031 -0.26229772 0.26542988 0.0452905 -0.28537923
-0.12529682 -0.28229475 0.24149236 -0.011752784 0.046310034 0.09559194 -0.029345138 -0.16323516
0.108665295 0.11917013 -0.052386004 -0.03822939 -0.039921887 -0.22037303 0.1745831 -0.1715274
0.20490173 0.27757058 -0.01151574 -0.17122784 0.25643307 -0.29884917 0.26373008 -0.11359429
0.054422345 -0.23901829 -0.17562547 0.09634586 0.08908129 0.23115951 0.24191824 0.1660549
0.35901535 0.10411909 0.017806888 0.19468102 -0.27456957 0.114920825 0.09549421 -0.24730226
-0.25226873 -0.054696977 0.07941002 -0.24282221 -0.020818502 0.25392255 0.062200785 -0.044923067
0.04435584 -0.012427032 -0.08189431 -0.11740239 -0.24371865 0.10500029 0.040337473 0.12724717
-0.008589363 0.024464304 -0.011189549 0.28810295 -0.21501936 -0.058123857 0.03614484 -0.30202317
-0.033764306 0.124793686 0.20123811 -0.009734673 -0.09441169 0.07450462 -0.03291877 0.024837205
-0.17229328 -0.0532864 0.13562578 -0.0009824932 0.16621059 0.28686473 -0.11430089 0.20972773
-0.2631004 -0.22585598 0.23722437 -0.030795217 0.08930573 -0.31391945 0.11477649 -0.18671839
-0.010766238 -0.16794534 -0.20494466 -0.07984632 -0.22819917 -0.30943087 0.11471015 0.009956632
-0.026196253 0.03949625 0.19282328 -0.1907501 -0.21496405 -0.24969418 -0.0092701735 -0.24302094
0.18949702 -0.12747529 0.039732218 0.14672041 -0.023310006 0.19072399 -0.06538069 0.13638067
-0.14447308 0.17160386 -0.22309792 -0.10141961 0.2381216 -0.19516501 -0.22802433 -0.12887605
