model.pth (torch, 45694 bytes, 16 tensors)

lstm.weight_ih_l0 f4 [40, 5]
00000000: 83a3 9a3e 700a 1ebe 9caf b0bd b93c 723c
00000010: 7c60 db3d 39a9 893e 00f1 5fbe a274 493e
00000020: aebe 6f3e 9b5c 2fbd 4e35 1e3c ecd1 a53d
00000030: f92a 563e d6dd e03d 635c 60be 97c7 c4bd
00000040: a997 733d dd76 f5bc ac3b 9abd 6063 fa3d
00000050: 95d1 69be 6065 a73e 753e e0bd 1866 3abe
00000060: 877d 70bd 821b dbbd 51ce a53d cde5 0ebe
00000070: 7f4d f9bd e9a9 153c eceb 163d 54c5 e23d
00000080: 03ee 1e3d 4e02 53be ef95 48bd c44b ae3d
00000090: 76f9 97be 0892 8dbe 1c05 f6bd 6812 9c3e
000000a0: ec29 e33d bff6 c53d ac63 603d bf80 e1bd
000000b0: 4292 e2bd 6b1a ddbd b4ce 05be 26bb 43be
000000c0: 5711 cdbd cacf 4d3e dd65 0d3e d047 abbd
000000d0: dff9 d93d ac3f 7f3e 2140 403e 1f9d 283e
000000e0: c2b9 7dbc 8a87 e13c d0c9 8f3e 5976 0a3e
000000f0: 3eb7 14be c2ff a53d 0591 09be 8dcd 2b3e
00000100: efac 723e 9fa6 a3be 3aa9 933d 759b 883d
00000110: 00e8 3bbd f5db 0a3e 354e 653e a619 283d
00000120: f1d7 4e3e e101 10be 07dd 1dbe f4e8 973c
00000130: e3df 1ebe d801 80be e15f 8f3e 715c 71be
00000140: 2318 883e 1a5f 993d ff3f dabd 5e61 18bd
00000150: 17c2 423e 2f48 c73c fa87 faba 285b 41be
00000160: 4b1f a53c 641d f5bc a0b7 88be 108b 20be
00000170: f0ed 093e eab3 82be f7e1 a5be 67ee 893d
00000180: fbb1 4abe 1fb9 52bd d314 c7bc ebce 9d3d
00000190: 3dae 0b3e baa9 6a3e e038 923e c097 8ebd
000001a0: 0aac 923e 70a7 6b3e 8963 7b3d c3e2 64be
000001b0: d594 3cbe e10f 8a3e dc33 62be 2b16 4bbd
000001c0: 0624 f7bd 4e8c 853d 74a8 cebd a55a 303e
000001d0: e03e 6cbe 26a2 42bd ef6f 4abe 5421 833e
000001e0: 7783 e7bc 8900 a1bd b6d0 90bd d82f 343d
000001f0: dcb2 e4bc 662b 2e3e 051b 5b3d b0b3 74be
00000200: 9dc7 8d3e 9377 8bbe 6a00 6d3e 9387 b3bb
00000210: 7cfa 8ebe 26bc 863c a683 a63e 30c8 bebd
00000220: 813b b6bc c70b fc3d c74a 92be c0ec 763e
00000230: 8bf3 233d c14a 86be 72ab 94be 90ba 903e
00000240: 0cfa 02be 2328 e6bd e52d 913e edda c0bd
00000250: 17a9 72be dfbc 1d3d b73e d03d 478e f73c
00000260: a23d d33d 0fa6 efbb f156 93bd 0d49 91be
00000270: 3c49 8dbe f7ab 213e ee2c 72bd a487 15be
00000280: 062b 81be 778f 2ebe 24ab 23be b31f 0b3e
00000290: b2aa 14be 771f ffbd 2f3c 8bbe 7089 883c
000002a0: bb80 79be d4e9 b83d 2175 c5bd 01f9 95be
000002b0: 88d1 463e 0e28 a53d d1f5 843e c246 a03e
000002c0: b332 7dbe 5ed1 a13e 6b6c 8c3e 73df 77be
000002d0: 0d13 903e 541d 83bd 3994 1fbd 4882 e8bd
000002e0: e6e6 223e 6199 d13d a4d7 f53d c457 b33d
000002f0: 7ba3 a13e c298 a13d 082f 09bd bed3 763c
00000300: 554b 3bbe 200d b6bd a541 c63d 3f17 4c3e
00000310: 6c7f f7bb 1c09 3bbe f492 613e 069b 743e
0.30202875 -0.15433669 -0.08627245 0.014784985 0.10711762 0.2688692 -0.21869278 0.19673398
0.23412582 -0.042812925 0.0096562635 0.0809668 0.2091483 0.10979812 -0.21910243 -0.09608381
0.059470806 -0.029963905 -0.07530913 0.122259855 -0.22833855 0.3269453 -0.10949413 -0.18203008
-0.058713462 -0.10698606 0.08095992 -0.1395485 -0.12172984 0.009134748 0.036846086 0.110727936
0.038801204 -0.20606348 -0.048971113 0.08510545 -0.2968251 -0.27650476 -0.12012693 0.30482793
0.1109198 0.09666204 0.054782555 -0.110108845 -0.11063053 -0.107960545 -0.13067132 -0.1911436
-0.10013073 0.20098796 0.13808389 -0.083633065 0.10643362 0.24926633 0.18774463 0.16466187
-0.015486183 0.02753045 0.28083658 0.13521709 -0.14523026 0.081054226 -0.13434227 0.1677763
0.23698781 -0.3196306 0.07210012 0.06670276 -0.04587555 0.1356047 0.22393115 0.041040085
0.20199563 -0.14063217 -0.15416346 0.018543698 -0.15515094 -0.25001407 0.28002837 -0.2357042
0.26580915 0.07488842 -0.106567375 -0.03720223 0.19019352 0.024326412 -0.001911401 -0.1888243
0.020156523 -0.029921241 -0.26702595 -0.15678048 0.13469672 -0.2552789 -0.3239896 0.06734925
-0.19794457 -0.051446076 -0.024301922 0.07705482 0.13640685 0.22916308 0.28559017 -0.06962538
0.2864688 0.23013091 0.06137422 -0.22352128 -0.1841615 0.2696524 -0.22090095 -0.049581688
-0.12067418 0.065209016 -0.10090724 0.17222078 -0.2307086 -0.047517918 -0.19769262 0.25611365
-0.02826093 -0.0786143 -0.070710585 0.04399094 -0.027917318 0.17008743 0.053492565 -0.2389667
0.27691355 -0.27239665 0.23144689 -0.005478808 -0.2792548 0.016447138 0.32522315 -0.093155265
-0.02224517 0.12306934 -0.28572676 0.2411375 0.040027183 -0.26228908 -0.29037052 0.28267336
-0.12790698 -0.11238124 0.28355327 -0.09416757 -0.23697315 0.0385102 0.10168212 0.03021921
0.1031449 -0.007313497 -0.07194317 -0.28376046 -0.27594936 0.15788256 -0.05912488 -0.14602524
-0.25228137 -0.17046915 -0.15983254 0.13586311 -0.1451824 -0.12457173 -0.27194354 0.016667098
-0.24365513 0.09028974 -0.09641481 -0.29291537 0.19415867 0.080642805 0.25968793 0.31303984
-0.24726371 0.31605047 0.27426466 -0.24206333 0.28139535 -0.06402078 -0.038959716 -0.11352974
0.15908393 0.10234333 0.12004021 0.08756974 0.31570038 0.07890464 -0.033492118 0.015065132
-0.18290456 -0.08889222 0.096804895 0.19930743 -0.0075530317 -0.18265194 0.22028714 0.23887262

lstm.weight_hh_l0 f4 [40, 10]
00000000: 3638 93bd 21f3 153e d66b 8dbe ea6f 2abe
00000010: 921d 8e3e cd5f 68be f099 153e a164 ecbd
00000020: dd65 eabd 2127 73be fd49 36bd 8ee6 4fbe
00000030: fbad 9fbe 9abd fe3b 83cb bc3d 1291 453e
00000040: 9860 073e 3247 313e 7022 5cbe 7b96 3fba
00000050: 47b0 903e d1e0 48bc a67c 6c3e f4a3 9a3e
00000060: cbf1 16bc 08e5 a13e ca78 19be 8988 41be
00000070: 9f93 4f3e 979d e5bd 6860 2e3e 1ed7 873c
00000080: 7b95 17be 7319 203d 9ed3 8f3e 2105 b53a
00000090: 123a 003e 60ed ccbc b243 0b3e 7c3d edbd
000000a0: 044a 963e a22f 7fbe 15f8 81bd 0113 43bd
000000b0: 7eea cebd f43a b93d 1674 cc3d 9ec5 273e
000000c0: 5eed 9bbe c46c 603e 4f87 91be 0c21 22bc
000000d0: 97d3 8f3e dc71 a03e d721 38be 3ba4 243e
000000e0: 3c21 e5bd 8042 3dbe b34c 00be abc2 923e
000000f0: caef 1dbe 7a85 7a3e e212 6ebe 4a9e c6bd
00000100: 8a9d 993d 5ccb 98be b64d 9b3d 1516 d1bc
00000110: a160 a7be a5e5 94be 2065 573d afde 0c3e
00000120: ccad 643e 5182 80bd 0711 343e d71f 5d3e
00000130: 41d4 893d bfde 2a3e 11ba 09be d044 493d
00000140: 4ab1 d13d d922 333e 2a46 8e3e 93c0 8c3d
00000150: bec6 963e 8727 443e ca6c 803c a59c 393e
00000160: 126c 093e 5218 e83c 45dc 84bc e22b 90be
00000170: 1c5f 9ebe e302 933e 4bb7 373e 3a68 9a3e
00000180: 9059 9fbb e9ab 8c3d a764 963e 28ee 0d3e
00000190: d874 76be ffc2 9f3e 5e4e e83d 9db3 1a3e
000001a0: 7252 30bd 5ccb 583e 56e0 9dbc bfdd 60be
000001b0: 2386 053d 4754 723e 01ed a43e 8e6a d53d
000001c0: 5eb1 8d3e b3c5 323e 546e 54be a270 51be
000001d0: 9a5b 8f3d e83b f9bc c6ed 0a3e 068a 95be
000001e0: aa10 713e 7024 0bbe 4cf8 f33d 14eb 8c3e
000001f0: ca3c 653e e204 8f3d 6248 d1bd f3fc cb3d
00000200: 1a7b 6c3e 4c55 373e c857 933e cae7 51be
00000210: 02b5 5abe 0cb6 c73d ea4f 9c3e b2eb 993e
00000220: 0f40 5e3e bbf6 153d 3bfd 0f3e d655 323e
00000230: dcf2 36be 38ba 6bbe 9f35 59bc 19cf f33d
00000240: a74e 193c a895 26be 410e 863e 6857 913c
00000250: 5078 1dbe 7859 e03d 217e 40be fd62 093e
00000260: e77a dc3d e1bb 7b3e 7aa7 523e 9535 efbd
00000270: af10 34be 30ab 903e 7720 963d 0473 253e
00000280: 6835 013e 0564 74be 8021 893e a2df 59be
00000290: a429 c33d 38cf ce3c 44f2 5ebe 3a23 653e
000002a0: 29aa 9bbe b831 073e 86fc 7abd 5a27 883e
000002b0: f468 87be c4d2 843e dc94 c43d 0aca 79be
000002c0: 8fe2 913e 4ef1 8ebe 385f 683e 463e 843e
000002d0: e5b9 5f3e 7740 bebd 5b84 e9bd f76e 043e
000002e0: 6820 913e 3b7b a33e b155 67bd 5da6 39be
000002f0: 265d 9bbe cf94 a3be bb62 06be 71a2 0ebd
00000300: 65ef 3fbe b50a 91bd b768 55be b652 d43d
00000310: feee d13d 5199 bebb 15b7 b13d a374 653d
00000320: c753 7cbe 59e6 823e 5777 3b3e ac91 253e
00000330: b4ed 08be a311 17be f39f 74be 580c 8bbe
00000340: fd2d 593e 87bd 58be c509 93be aefe 25be
00000350: 29bd 8abe 7e9b a73b ea4c 703e e056 cfbd
00000360: db14 92be 48d2 633e 8ff3 9e3e 4efb 88bd
00000370: a310 80be d082 e63c 4db2 4ebe 9d90 e33d
00000380: 3d64 553d b1d7 853e 5ae7 bcbd 6864 0c3d
00000390: 2a0f bb3d 2012 713b f3a5 b2bc 94ce d7bd
000003a0: 6842 753e 2ecf fa3d cb53 8c3e 6a93 0d3e
000003b0: 6d8e adbd 6ae7 78be dd32 4b3e 9aff 183d
000003c0: 094b 64be d88f 99be 284a ef3d 4fac 3bbe
000003d0: b54e 823e dc3c 763e e9b7 493d db95 2b3e
000003e0: d338 39be 59f1 bdbc fd3d 083e 067f 20be
000003f0: 0ecb 793e 06d1 9d3e 7745 183e 0259 52be
-0.07188456 0.14643528 -0.27621335 -0.16644254 0.27756935 -0.22692795 0.14609504 -0.11542631
-0.1144521 -0.23745395 -0.044504154 -0.20302793 -0.31187424 0.007774067 0.09218504 0.19293621
0.13220441 0.17312315 -0.21497512 -0.0007308495 0.2825949 -0.012260632 0.23094425 0.3020321
-0.009212921 0.3162005 -0.14987484 -0.1889974 0.20271157 -0.112116985 0.17028964 0.016582068
-0.14803116 0.03908677 0.2809114 0.0013810733 0.12522152 -0.025015533 0.13600042 -0.11583993
0.29353344 -0.24920514 -0.06346146 -0.047625545 -0.101033196 0.090444475 0.09983079 0.16383979
-0.30454534 0.21916491 -0.28423545 -0.009895574 0.28091118 0.31336868 -0.17981659 0.16078274
-0.111879796 -0.18482399 -0.12529258 0.28664145 -0.15423504 0.2446498 -0.2324939 -0.0969816
0.07500751 -0.2984265 0.075831816 -0.025523225 -0.3269091 -0.29081455 0.052586675 0.13756822
0.22331923 -0.06274856 0.1758462 0.21594177 0.06729937 0.16686533 -0.13449885 0.04913789
0.10238893 0.17493762 0.27787906 0.06872668 0.29448503 0.19155703 0.015676875 0.18126161
0.13420132 0.02833191 -0.016218314 -0.2815848 -0.30931938 0.2871314 0.17941014 0.30157644
-0.0048629716 0.06868727 0.29373667 0.1386038 -0.2406801 0.31203458 0.11343072 0.1510758
-0.043047376 0.21171325 -0.01927201 -0.2195959 0.032598626 0.23664962 0.3221207 0.10420714
0.27674383 0.17458229 -0.20745212 -0.20453122 0.069998935 -0.030424073 0.13567266 -0.29206866
0.23541513 -0.13588119 0.11912593 0.275231 0.2238647 0.06983353 -0.10218884 0.099603556
0.23093835 0.17903632 0.2877791 -0.20498577 -0.21358112 0.097515196 0.3052972 0.30062634
0.21704124 0.036612254 0.14061444 0.17415556 -0.17866081 -0.23020256 -0.013257413 0.11904735
0.009357131 -0.16268027 0.2618275 0.017741874 -0.15377927 0.10954565 -0.18798114 0.13416667
0.10765629 0.24583389 0.205717 -0.11680142 -0.1758449 0.28255606 0.07330411 0.16157156
0.12618029 -0.2386628 0.2678337 -0.21276715 0.09529427 0.025245294 -0.21772105 0.22376719
-0.3040326 0.1320256 -0.06127598 0.26592523 -0.2644726 0.2594205 0.09598705 -0.24393478
0.28493163 -0.27918476 0.22692573 0.2582876 0.21848257 -0.092896394 -0.11402198 0.12932955
0.28345037 0.31929955 -0.056478206 -0.18129869 -0.30344504 -0.3194947 -0.131236 -0.034822885
-0.18743666 -0.0708212 -0.20840727 0.10367338 0.10250662 -0.0058166166 0.08677498 0.056019437
-0.24641334 0.25566366 0.18307243 0.1616885 -0.13371927 -0.14752822 -0.23889141 -0.27157855
0.2120895 -0.21166049 -0.2871839 -0.16210434 -0.27097443 0.0051149717 0.2346684 -0.10123992
-0.28531536 0.22248185 0.31045195 -0.066885576 -0.25012693 0.028138548 -0.20185204 0.11111567
0.052097548 0.26141122 -0.09223814 0.034275442 0.09133752 0.0036784485 -0.021807646 -0.105374485
0.23951113 0.12246548 0.2740768 0.13825765 -0.08474431 -0.24307027 0.19843622 0.037353136
-0.22294249 -0.29992557 0.11684066 -0.1832745 0.25450674 0.24046654 0.049247656 0.16756384
-0.18088083 -0.023186373 0.13304897 -0.15673456 0.24393865 0.30823535 0.14870249 -0.20541766

lstm.bias_ih_l0 f4 [40]
00000000: fd88 38be c1da 3fbd 865c 00be 458b 9a3e
00000010: 1403 a5bd f51c 8abd d7f3 fe3d 1d9c 19be
00000020: e131 15be 2040 8fbd f765 0abe 49dc 6fbe
00000030: 943c 233e cc2d 6abd e8f2 9ebe 61df 9dbe
00000040: da67 9fbc a0f2 b23d 9c1e 2d3e fa34 76be
00000050: 8cc4 a63d d756 4f3e 3772 e93d 19a2 8d3d
00000060: 5d24 2fbe 7879 643e 058d 803e 07df 85be
00000070: 1469 4ebe eccd 8dbe a5f4 3f3e 95de 66be
00000080: c981 933e c289 5bbe 94ad 5fbe 1e5c be3d
00000090: 7bb2 84be 2a37 8ebd 3f3a 9bbe b505 c1bd
-0.18021007 -0.04683948 -0.12535295 0.3018438 -0.08057228 -0.06743804 0.124488525 -0.15000959
-0.14569809 -0.06994653 -0.13515459 -0.23423876 0.15941077 -0.05717258 -0.31044698 -0.30834487
-0.0194587 0.08737683 0.16906208 -0.24043646 0.08142957 0.2024797 0.11398738 0.06915683
-0.17103715 0.22311962 0.2510759 -0.2614672 -0.20157272 -0.27696168 0.18745668 -0.22545846
0.28809956 -0.21439269 -0.21843559 0.09294914 -0.2591742 -0.069441155 -0.30317876 -0.09424917

lstm.bias_hh_l0 f4 [40]
00000000: 0825 1bbe 53a0 743e 649a 523e 2716 00be
00000010: 7050 4abd 5452 4fbe eea6 3b3e 1ba9 9bbe
00000020: 5527 38be 4c3e 71bd dc54 483e 5ca2 233e
00000030: 8b21 25be e269 25be e9df 2ebd fe2b 95be
00000040: 7c5d 71be 72cc 393e 8c3c 8ebe 8ccc 913e
00000050: 1239 93be 9dfe 94be ed25 92be 9cc9 803e
00000060: 2eaa 013e f52f 65bd 1dab 8b3e 154f 75be
00000070: ec35 9a3e 042e 463e 555f c8bd e99e 8d3d
00000080: 914e ab3d 3225 6c3e e960 8e3d dc91 043d
00000090: 95fe d93b 6053 a2be d869 14be bf5a d4bd
-0.15150845 0.23889284 0.20566708 -0.1250845 -0.049393117 -0.2024625 0.18325397 -0.30402455
-0.17983754 -0.0588973 0.19563621 0.15979904 -0.16126077 -0.16153672 -0.042694006 -0.29135126
-0.23570818 0.18144396 -0.2778057 0.2847637 -0.2875448 -0.29100505 -0.2854456 0.25153816
0.12662575 -0.05595394 0.27278987 -0.23955949 0.30119264 0.19353491 -0.09783808 0.06915075
0.08364595 0.23061064 0.06952078 0.032365665 0.006652663 -0.31704235 -0.14493501 -0.10368871

lstm.weight_ih_l1 f4 [40, 10]
00000000: 95f5 1e3e 1156 55be 8693 693e a35b 20be
00000010: 9ebe 93be adbd 2a3e a2e5 b03d 6b8b 9abe
00000020: 1f30 9c3e 69cd 17be 3357 d33d 32ce 943e
00000030: e654 93be e4c9 983e 8078 90be a5f7 273e
00000040: 56bf 2dbe f2e3 903e 0ae5 593e 2395 b43d
00000050: 9f3a c8bd b938 3abe 4a37 33bd 50f3 80be
00000060: 664f 1bbe 8efe aabd 7b6b 98bd 98a2 83be
00000070: 0317 d13d 0052 173d 64bb cb3d 9a24 f63c
00000080: 736a 8c3e f297 c53d 77ba 92be a793 153e
00000090: 06d5 7fbe 5312 09be d9dd 41be eaf5 813e
000000a0: 6002 193e 08a3 86be 10b3 2b3e 8034 59be
000000b0: 8533 9d3e eb46 1b3e 6e6c 623e 43f8 73be
000000c0: a55b 99be 20fc 35be 4c10 70be a128 bfbd
000000d0: fdc0 743d 1bdd 4a3e a325 a1bd d00d 313e
000000e0: b12a 933b 707e 09be 500a 8ebe fb67 363d
000000f0: aa58 d0bc 8c22 89bd ae3c f73d 6eb5 693e
00000100: 3489 50be 30e2 933e cd83 f2bd 8343 353e
00000110: 6bba 1f3e 28e1 92be 2907 563e 05c4 8a3e
00000120: 83d0 593d 38f2 31be 770a 2cbe 938e bd3c
00000130: 0a2f c93d e1cb c2bc 2b68 5a3e d835 f8bc
00000140: 745e 2cbe c29e 16be 7be5 7cbe 8056 553d
00000150: fd0e 6a3e 831f 8dbe 15c5 69be 7039 82be
00000160: d7e0 563e 1df1 8b3e 82a9 28be 8012 6a3e
00000170: 41b4 2d3e fa22 8abe a4fe 71be eb23 fabd
00000180: 3f63 933e fb41 8cbe 9459 dcbd 177e 57be
00000190: 3d96 113e 00f5 583e 7b89 a0be b24b 48be
000001a0: d5f7 62be 1c92 70be e672 173e da1d b83d
000001b0: 6ace fbbd 391c 7fbd 2a0d 393e c11a 6bbe
000001c0: 1529 693d 6bf2 b6bc 83cd 283e 2254 563d
000001d0: 5fb1 8ebe 6f8a a4be 01f3 103e 3f99 563e
000001e0: eccd 8bbe 4238 85be 69b3 893e ed98 6e3c
000001f0: fba5 adbd 8e39 75be 2b9f 5fbe 1697 a2ba
00000200: 1a96 033d 3ab0 9abe 4aea 283e b741 56be
00000210: 99ed 42bd af4b 44be 7bc0 983d 2226 763e
00000220: 9503 1dbe 042c 88be f1fd e2bd f875 073d
00000230: 6643 8abc 86a8 76be fc8d 52be 7a00 20be
00000240: f815 873e 939c 76bd 2d6a dcbd 7885 863e
00000250: 2907 f23c d043 2c3e 04e2 a43d f2e0 4abd
00000260: 69b6 a6be 965e 33bd 9266 1e3d 059f b23b
00000270: 21fa 15be d88a 2f3d 7101 6bbe 68a0 9abe
00000280: 1403 6e3e d742 a53d ec75 91be 0fc9 043e
00000290: bd4c 78be e5b2 1bbe 2107 363e 96e3 123e
000002a0: 7b76 563d dbd8 683e f95b 5cbe 9f1f 68be
000002b0: 72f6 023e 8d1f 92be 29a9 933d e1b8 873d
000002c0: e34a 54be e990 23bd 6fa2 ef3d 7166 07be
000002d0: ca51 a7be 32fe 4d3e dd1d 3dbe 1a89 68be
000002e0: 0f25 0d3e 251f d73d f4f8 98be 9edf 0fbe
000002f0: 8ee1 82be 3d51 e23b 38a9 363e ced5 1c3e
00000300: 2826 cebd e3ae 7bbe aa81 3c3e 0ed5 64be
00000310: 16e5 953c 8433 41be 374f 84be 522e 1dbe
00000320: cb15 94be 3809 963e 7ae8 77bc 9204 793e
00000330: 1e31 9abe ff37 4ebe d238 e73d dfde 99be
00000340: 562e 94be 20bd ffbd dfcf 3abe 2eea 753e
00000350: aaea 9fbe 2bc8 a7be d6d1 35bd e512 313e
00000360: 6849 61be 121f 41be d41b 103e 500e b4bd
00000370: b4ee 873d 5cfa eabd da21 a2be 210c 9cbd
00000380: 6b94 7fbe 4ec0 7f3e 02d6 9d3c cb5b 4abe
00000390: 4e28 803d b389 4a3e 99fd 7b3e b183 853d
000003a0: bca7 363e f0e3 2bbd 51a8 6dbe 5c06 903e
000003b0: 370e a0be 393e eabd b9fe 0abc d109 c2bc
000003c0: fd0a 6d3e 71f0 973e ab55 9dbe e138 843d
000003d0: 11ca 113c f53d 61be 80be 38bd 02b9 1c3e
000003e0: 97d9 5fbe 306e 7d3d 6cef 10be f6a0 4dbe
000003f0: 249d b53c 09cf 6b3d f7e1 33be d5e8 99bd
0.1552337 -0.20833613 0.22810182 -0.15659957 -0.28856367 0.16673918 0.08637549 -0.30184492
0.30505463 -0.14824452 0.10319366 0.29063565 -0.2877571 0.2984153 -0.28216934 0.16403063
-0.1696752 0.28298908 0.21278778 0.08817508 -0.09776806 -0.181857 -0.0437539 -0.25185633
-0.15167007 -0.08349334 -0.07442375 -0.25709987 0.10209467 0.036943436 0.09947851 0.03004675
0.27424964 0.09648122 -0.28657886 0.14607106 -0.24983606 -0.13385896 -0.18932284 0.2538293
0.14942312 -0.26296258 0.16767526 -0.21211433 0.3070337 0.15163772 0.22111675 -0.23825173
-0.29952732 -0.1777196 -0.23443717 -0.09333921 0.05975436 0.19810908 -0.07868507 0.17290425
0.004491173 -0.13427138 -0.27742243 0.044532757 -0.025432903 -0.066960424 0.120721206 0.22823116
-0.20364839 0.28883505 -0.11841545 0.17701535 0.15598457 -0.28687406 0.20901169 0.27102676
0.053177368 -0.17377555 -0.16800867 0.023139274 0.09823425 -0.023778858 0.213288 -0.030299112
-0.16832906 -0.14708999 -0.24696915 0.052084446 0.2285728 -0.27563104 -0.22829087 -0.25434446
0.20984207 0.27332392 -0.16470912 0.2285862 0.16963293 -0.2697981 -0.23632294 -0.12213882
0.28786656 -0.2739409 -0.10759273 -0.21044193 0.14217468 0.2118721 -0.3135489 -0.19560125
-0.22164853 -0.23493236 0.14789924 0.08990069 -0.1229523 -0.062282775 0.18071428 -0.22959425
0.056923945 -0.02233239 0.16484646 0.05232633 -0.27869698 -0.32136866 0.14155199 0.20956896
-0.27305543 -0.26019484 0.26894692 0.014562828 -0.08478924 -0.23947737 -0.21838062 -0.0012404646
0.03212557 -0.30212575 0.16495624 -0.20923506 -0.047589872 -0.19169496 0.07458588 0.24037984
-0.15333398 -0.2659608 -0.11083592 0.03307149 -0.016877841 -0.24087724 -0.20561975 -0.15625182
0.26383948 -0.060207915 -0.10762439 0.26273704 0.02954443 0.16822743 0.080509216 -0.04953093
-0.32561043 -0.043791376 0.038672037 0.0054510855 -0.14646198 0.04285702 -0.22949769 -0.30200505
0.23243362 0.08069389 -0.2841028 0.12967323 -0.24248023 -0.15204962 0.17776157 0.1434463
0.052359086 0.22738974 -0.2151946 -0.22668312 0.12789324 -0.28539696 0.07209999 0.0662706
-0.20731692 -0.03993312 0.117009036 -0.13222672 -0.32679588 0.20116499 -0.18468423 -0.2270855
0.13783668 0.10503987 -0.29877436 -0.14050147 -0.2556271 0.006906657 0.1783799 0.15315935
-0.100658715 -0.24578433 0.18408838 -0.22346899 0.018297713 -0.18867308 -0.25841686 -0.15349701
-0.28922877 0.29303908 -0.01513111 0.2431815 -0.30115598 -0.20138548 0.112901345 -0.3005285
-0.28941602 -0.124872446 -0.18243359 0.24015114 -0.31233722 -0.32769904 -0.04438957 0.17292364
-0.22000659 -0.18859509 0.14073116 -0.087917924 0.06637326 -0.114735335 -0.31666452 -0.07619501
-0.2495896 0.24975702 0.019267086 -0.19761579 0.062576875 0.1977909 0.24608459 0.06519259
0.17837423 -0.041965425 -0.23208739 0.28129852 -0.31260845 -0.11437649 -0.008483582 -0.023686321
0.23148723 0.2967563 -0.30729422 0.06456161 0.008898274 -0.21996291 -0.04510355 0.1530495
-0.21860348 0.06187266 -0.14153832 -0.20080933 0.022169657 0.05757049 -0.17566667 -0.07515112

lstm.weight_hh_l1 f4 [40, 10]
00000000: e0ef 713e 58b3 943c c27f 233e 24a1 1a3e
00000010: 9732 813e b76d 3fbe 9808 f1bc 2cbb 943e
00000020: 41ec 1cbe 8259 9f3e e5b9 1fbe 2ffb 7cbe
00000030: d8b5 42be 47f9 ba3d afee 873e a8ef 943e
00000040: 22ea a8be a119 86be 8b1f a33e 2f7c 90be
00000050: 3749 95be 75e0 063e 37c6 ba3d 55b4 7e3d
00000060: 32be 7abe 9157 a33e 6133 1f3e bac2 7f3d
00000070: beab 79be a207 2cbe e2b2 803e 7e36 10be
00000080: 8e95 393c ef85 853e abbb 1f3e 378b 84be
00000090: 9aed 10be 83bd 103d 344a a1be 1ff3 53be
000000a0: 5072 2bbc 5b41 a6be cdea 133e 00ee 71be
000000b0: 9084 d93d 4436 02be dc52 80b9 194f 81bd
000000c0: 8452 a63e 419b e5bd 6e70 0a3e 107c 32be
000000d0: 9ff8 db3c 7041 dd3c 761f 65bd 7169 14be
000000e0: b387 46be c051 0dbc 3892 e6bd 087d 67be
000000f0: 6cc1 673e 77c2 293e f8d9 89be 989e 883e
00000100: 6c63 46be 8fa9 92be 0ae0 a73d a719 3dbe
00000110: b6ff e0bd b0da 57be 3f47 0c3e 0672 a23e
00000120: 1744 6a3e 0c2a 4d3e 4607 e3bd 7520 ba3d
00000130: 66f3 19be 8d66 a0be 7565 7bbe e336 93bd
00000140: 5b99 d9bd 82ee 28be a6ae 29be 985b febd
00000150: 0397 0f3e 8ca3 113e 5301 2abe 52b7 26be
00000160: bca4 943d 5028 30be 16f7 cfbd 3c98 36be
00000170: b922 8a3d 90c0 0abe e90a 46be ece1 8bbe
00000180: ab95 e43d f230 cfbc 50bb 78bd 7419 883d
00000190: f405 bebd e5ad 98be f30a 27be 58a6 67be
000001a0: 330c 0abd aeab 5abd 7859 953e 5dc0 17be
000001b0: 35d1 bf3b f577 8cbd d912 403d b649 3b3e
000001c0: 98d1 93bc d11f 28bc abe5 2c3e a54c 3b3e
000001d0: 8803 823e 4d04 823e 0b4b 30bd 2ecc 17bd
000001e0: 8505 8bbe a9d5 8bbe 5624 4a3e bbae d7bd
000001f0: e96e 0dbe dc7b 963d 8b41 023e 9eff 2cbe
00000200: a566 9b3e 8661 f0bd bd86 693b 3a3c ccbb
00000210: d536 df3c efec 333e 61fb 28be 2c37 09bd
00000220: b2fa fd3d 2d78 c73d 4733 e7bd 9c5a 7fbc
00000230: df01 dfbd 939b 97be 7e83 ddbd 42dd 873e
00000240: db6a a1be c806 0e3e caf4 a7be a034 2a3d
00000250: 147c 063e 00af 783d 196c d93d ad21 51be
00000260: c9a0 1d3e fde5 983e 7feb e13d 890b cd3d
00000270: 0f9e ef3d 7809 1d3c db4e 15be c6b3 933e
00000280: 6222 9dbd f82b 683e 2672 5abd 81a8 22bd
00000290: dfb3 eebd d5f8 89be 8b61 2dbe a276 3f3e
000002a0: 5974 49be b388 88be e8ac b5bd 70ee 12bd
000002b0: d75f 1e3e 0cf6 923d ba9f 313e a2df 8dbc
000002c0: 554a 1d3b 6014 863c 90a0 873e 2378 8ebe
000002d0: c0a1 7ebe 0b1f 2ebe 9649 c2bd cf45 4dbd
000002e0: 1cb4 04be 69a8 49be 8224 9a3e 0562 3cbd
000002f0: c975 513e 8a97 8f3c fc6a 6b3e 7dc9 913e
00000300: 545e c13d fb22 483c 5772 c7bc eb41 d8bd
00000310: 673a 653e 817c 883e 87be 593d 90cf f13d
00000320: e828 873d 9a4c 1cbe edc1 0bbe 3112 213e
00000330: 0cd3 2e3e e7b3 d43d b01b 8dbe f334 0e3e
00000340: b439 ed3c 4a0c 7d3e d1f3 b73d c222 5d3e
00000350: 47f6 99be 5e43 183e c5e3 763d a7ee 423d
00000360: 6742 8b3e a9f7 16be 8e26 82be a354 29be
00000370: a914 9f3e e6b2 933e ae2d d63d f97b fc3d
00000380: 1390 ca3d 4f02 25be ba33 b4bd 5092 793e
00000390: 1601 6dbd aea5 e1bd 917e 58bc 72bb 51be
000003a0: a573 cc3d 96f4 6f3e b43a 5dbe 33b8 923c
000003b0: 82e8 5e3e 97e7 8e3e 4d63 8e3e ca0f 16be
000003c0: cfc8 a33c afa7 69be a802 2d3e 879f 96bd
000003d0: 8ade 1b3e f5a6 a6be 4a75 9e3e 6bf5 c8bd
000003e0: 76c8 673d 9dfe 5b3e 424f 963d ad8e 8b3e
000003f0: 1930 503d 9aff 33be 8770 983e 7ecc 303e
0.23626661 0.018151924 0.15966704 0.15100533 0.2523391 -0.18694197 -0.029423043 0.2904905
-0.15324499 0.31122977 -0.15598257 -0.24705194 -0.1901468 0.09129577 0.2654929 0.29089093
-0.3299113 -0.26191428 0.31860003 -0.28219745 -0.2915742 0.13171561 0.09119838 0.062183697
-0.24486616 0.31902745 0.15546943 0.062441565 -0.2438192 -0.16799787 0.25136477 -0.14083287
0.0113271605 0.26078746 0.15598933 -0.25887462 -0.14153138 0.035336982 -0.31501925 -0.20698212
-0.010464266 -0.32471737 0.14445038 -0.23625946 0.106209874 -0.12716013 -0.00024475798 -0.06313915
0.3248483 -0.11211253 0.13519451 -0.17430139 0.02685195 0.027008742 -0.055938207 -0.14493348
-0.19387703 -0.008625448 -0.11258358 -0.2260629 0.22632378 0.16578089 -0.2692411 0.26683497
-0.19373864 -0.28644988 0.08197029 -0.18466817 -0.10986273 -0.21079516 0.13699053 0.31727618
0.22877537 0.20035571 -0.11085372 0.09088222 -0.15034255 -0.3132824 -0.24550422 -0.07188203
-0.10624953 -0.16497234 -0.1657053 -0.12419814 0.1402245 0.14222544 -0.16602068 -0.16280869
0.07257983 -0.17202878 -0.1015455 -0.1783151 0.06744904 -0.1355002 -0.193401 -0.27320802
0.111613594 -0.025291894 -0.06072551 0.0664548 -0.09278479 -0.2982017 -0.1631277 -0.22622049
-0.03370304 -0.053386383 0.29169822 -0.14819475 0.005853797 -0.068588175 0.046892975 0.18289837
-0.018044278 -0.010261492 0.16884486 0.18290956 0.2539332 0.25393906 -0.043040317 -0.037059955
-0.2715265 -0.27311447 0.19740424 -0.10531374 -0.1381184 0.07347843 0.12720315 -0.16894385
0.3035175 -0.11737351 0.0035633289 -0.0062327655 0.027247826 0.17570852 -0.16502143 -0.03349988
0.12401332 0.097397186 -0.11289077 -0.015585568 -0.10889029 -0.2961088 -0.10816096 0.26535994
-0.31526837 0.13869774 -0.32803947 0.041554093 0.1313327 0.060713768 0.10616321 -0.20423003
0.15393366 0.29862967 0.110312454 0.10011966 0.11700069 0.009584777 -0.14580862 0.28848094
-0.076725736 0.22673023 -0.053331517 -0.03971148 -0.116554014 -0.26947656 -0.16931741 0.18697599
-0.1967329 -0.26666793 -0.0887087 -0.035871923 0.15466247 0.07175836 0.17346087 -0.01731855
0.0024000604 0.016367137 0.26489687 -0.27826032 -0.2486639 -0.1700403 -0.09486692 -0.050115403
-0.12959331 -0.1969315 0.30105978 -0.045991916 0.20455088 0.017528314 0.2299003 0.28474036
0.0944182 0.012215371 -0.024346514 -0.10559448 0.2238556 0.2665749 0.053160217 0.118071675
0.06599599 -0.15263596 -0.13648196 0.15729596 0.17072695 0.10385876 -0.27560186 0.13887386
0.028958179 0.24711719 0.08982051 0.2159529 -0.30070707 0.14869449 0.06027581 0.047590878
0.27199098 -0.14742912 -0.2542004 -0.16536193 0.3107045 0.28847426 0.104579315 0.123283334
0.09890761 -0.16114162 -0.087989286 0.2437222 -0.057862364 -0.11017929 -0.0132137695 -0.20481661
0.09982995 0.23433146 -0.21604425 0.017910099 0.21768382 0.27911064 0.27810135 -0.1465446
0.019993214 -0.22817872 0.16895545 -0.07354646 0.1522161 -0.32549253 0.3094886 -0.09812435
0.05658766 0.21483846 0.07339336 0.2725729 0.05082712 -0.17577973 0.29773352 0.17265508

lstm.bias_ih_l1 f4 [40]
00000000: 852f 8a3e 552f 813e 4b76 40be 995f 743d
00000010: b08b 833e d506 dd3d 0245 ca3c 37f7 523e
00000020: 50d7 953e 9c32 863e e3a0 893d b6f8 aabd
00000030: b4dc ac3d 1246 353e ac98 38be 271e 4d3e
00000040: f37e 90be 4489 9f3d 525f a73c e414 cbbd
00000050: 3a60 94be 3793 a1be eac6 95be c267 793c
00000060: cc99 31be 3af9 183e f01e 84be 2eef 923e
00000070: b0d1 1f3e 0c56 63bd 2f2f 7a3e cf68 1c3d
00000080: 7173 b73c 1a1f e6bd 678c a23e f2b9 abbd
00000090: 5dcd 783e 79cd 553e b44b cd3d 0e8f 03bd
0.2698938 0.25231424 -0.18795125 0.05966148 0.2569251 0.10792319 0.024691109 0.20602117
0.29265833 0.26210487 0.0672014 -0.08348219 0.08440533 0.17702511 -0.1802699 0.20031033
-0.28221855 0.07789853 0.020431194 -0.09916094 -0.28979665 -0.3155763 -0.29253322 0.015222492
-0.17343825 0.14938822 -0.25804853 0.28698105 0.15607333 -0.055501983 0.24432062 0.03818589
0.022393914 -0.11236401 0.31747743 -0.08385076 0.2429709 0.20879163 0.10024205 -0.03211885

lstm.bias_hh_l1 f4 [40]
00000000: 3656 5cbd 5343 90bd 87d2 9a3e e921 4dbe
00000010: 2546 09be f5fe 7cbe 807b cf3b c593 0c3e
00000020: 8bf0 f43d 74fa 86be be68 6abe dd3c 323e
00000030: dad2 7d3e 8338 62be 5ab3 4a3e 0437 98bc
00000040: 8dc5 8b3e b32f 763d 3b36 3c3e de40 8b3e
00000050: dcea 9fbe fa8f 87be 1b3e 503c df8b 96be
00000060: 3841 8cbe 7705 883e e021 5cbe 5f81 41be
00000070: d916 003e fb4e a43e b402 0b3d 7106 13bd
00000080: 2e17 893e d62f e73d 29d4 8a3e 2025 8d3e
00000090: 649b 30be fb57 4cbd 0d6f 883d 4fa9 d5bc
-0.053793155 -0.07044091 0.30238745 -0.20032467 -0.13405664 -0.24706633 0.006331861 0.13728245
0.119599424 -0.26362956 -0.22891518 0.1740603 0.24787465 -0.2209187 0.1979498 -0.018580921
0.27299157 0.060104083 0.18380062 0.27197927 -0.3123387 -0.26477033 0.01271012 -0.29403588
-0.27393508 0.2656667 -0.21497297 -0.18897007 0.12508716 0.32091507 0.033938125 -0.035894815
0.26775497 0.11288421 0.2711499 0.27567387 -0.17246777 -0.049888592 0.06661806 -0.02608171

lstm.weight_ih_l2 f4 [40, 10]
00000000: d73e b73d 961a 86be bef7 253a 7dec 05be
00000010: 78f3 413e 9de2 f7bc aee7 4cbe a9af debd
00000020: 7813 813c cb99 a23d 3063 463e b7f8 7cbe
00000030: c1bf 043d 6b6b 90be ebf6 1d3e dfaa 2b3e
00000040: 4a20 85bd 8dbb c23d 4e24 87be dd5f 213e
00000050: 8437 453e fc15 92be d025 ac3d 040b 8b3e
00000060: f3b6 053e 950f 49be 19f5 623e 44e0 5bbe
00000070: 3633 9e3e 79f1 543e dd23 6abe 699e 493d
00000080: 3505 553e cfec 4f3c 8a7c 9e3d 42de ba3d
00000090: 6cd9 84bd 23bf cabd 1312 683e de0a d93c
000000a0: 2f7b 16bd 99e3 913d 628a c33d dcc3 b4bd
000000b0: c83f 093e a24c 85be 4bf9 d43c 35ee 46be
000000c0: 6284 dd3d 32e9 973e dfb8 973e 0eda ccbb
000000d0: 72e8 943e 2bfa 973e 710a 33bd 6d82 61be
000000e0: 5925 78be ce3c 07bd cd49 553e dba9 86be
000000f0: ed62 823d fae5 44be a637 40bd e928 5e3d
00000100: 45d5 8dbe 3732 5c3e 1434 cf3d bcb4 e9bc
00000110: 2969 eebd d7a8 98be 0026 8e3e 25b6 6bbe
00000120: 4acb a63e 0e0b 863e ee0d 57be caee 733c
00000130: ff1f a8bd 4e84 343d 6b91 63be 67c4 4e3d
00000140: c3e6 f63d 0ab1 b83d 2ce7 6b3e 8c73 37be
00000150: e276 073d fbad a53e d017 8a3e 2e26 413e
00000160: 577a 1e3e b9fa 823b 3d23 a23d 9fbb 8cbd
00000170: c28d a2be 16d7 96bd b695 9dbe a6cf 043c
00000180: b9bd a0be 0e2e 06be 7d49 1e3e 9a50 79be
00000190: 45c0 97be 1192 a23e 26b5 503e 36c4 78be
000001a0: aab1 23bd 6a09 eabd ae1c b33d a492 953e
000001b0: 9e3c 45be ff5d 8ebe 658b 4b3e 9605 82be
000001c0: dfd0 d73d 3923 28bd 7e85 5d3e 5cf0 05ba
000001d0: 12f3 723e ce47 9f3e 1af6 ce3d 3026 553e
000001e0: d334 7dbe ba32 933e 0dc8 743e 0d90 c0bd
000001f0: 23f2 29be 36e2 95be 23cc 33be f489 9f3e
00000200: e1ac 623e a557 673b 9b57 403b 3c97 033d
00000210: ec06 e6bd b39c e33d 71be 50be b408 253e
00000220: 75cb a03e 75d5 95be c20d 103e ffc3 76bd
00000230: 7f37 3abe a67b 373e 195f 373e 474f 203c
00000240: 016c 3ebc f9df 1cbc 7c62 05be 1831 0ebe
00000250: 210d 82be 9319 a2be f22f 8abe 806f 4ebd
00000260: a421 85bd 1880 9abe 37c4 493d e759 88bd
00000270: 9d13 13be c5ab 15be 76e7 a63d 5285 88bd
00000280: 7b2b 0c3e 2810 833e 2697 c6bd 49d4 cd3d
00000290: 6e88 49bc b373 933d 342f 8e3e 45b5 1b3d
000002a0: 32e3 363e a2e5 95be a2f9 6e3e acfa 9b3d
000002b0: f08d 093b cfe7 9d3d 45c6 393e 318f 413e
000002c0: 16ed 133c 3822 203e 8c13 2f3e 40a6 0d3e
000002d0: 2c59 223e 706e f8bd 5bb2 6fbe 7419 e2bc
000002e0: e479 873d 7dc7 82be 51ee 81be e5c6 71be
000002f0: 697d 62be f03c 92bd 8e48 91be 5d62 94be
00000300: ee6e 84bd 3703 2b3e 7f0f 203e 3eb2 753e
00000310: fa8b 4c3e 2789 603e 5daf 5e3e 95a4 383e
00000320: ed4c 23bd ad21 9ebd 238a 883d f380 823d
00000330: c5c1 6cbe 63bd 203e 6d60 2f3e abf9 8e3e
00000340: 0a3b 113e bc3b 7f3e 0427 64be 9e91 943d
00000350: 8272 9cbd b43c 5b3e 6fc9 2ebe 279d db3c
00000360: 96de 863e 0df3 30bc d421 5ebe f09d a03c
00000370: 6f8e 71bd 9d21 34be 8d06 53bd a219 883e
00000380: e5a4 003d 8c5d 033d 2c7b 943e 8b30 a6be
00000390: d238 f0b9 c9e9 a1be 4897 ba3d 2e74 83bd
000003a0: c218 68be 326e 60be 3048 963e 5692 fdbd
000003b0: ee8c 0c3c 54ef f43d 81ab a3bd 76f0 383e
000003c0: d12b 943e 5408 663d a34b 63be 3f0a 8e3c
000003d0: 094c 78bd 575b 7a3e 2c9e f43d 1007 8dbe
000003e0: 491c 303e 0a88 97be 19ee 8fbe cf93 803e
000003f0: e3a3 433e 3d12 3cbd e826 213e e62c 403e
0.089475326 -0.26192158 0.0006331167 -0.13078494 0.18940532 -0.030259425 -0.20010254 -0.10873348
0.015756354 0.0793949 0.19373775 -0.24704252 0.032409433 -0.28206953 0.15426223 0.16764401
-0.06500299 0.09508429 -0.26394886 0.15759225 0.19259459 -0.28532398 0.0840565 0.27156842
0.13058071 -0.1963485 0.2216381 -0.2147227 0.30898446 0.2079524 -0.22865243 0.049223337
0.20802768 0.012690737 0.07738598 0.091244236 -0.064867824 -0.09899738 0.22663145 0.02649444
-0.03673857 0.07123489 0.09547879 -0.0882642 0.13403237 -0.2603503 0.025997778 -0.19426806
0.10816266 0.296701 0.29633233 -0.00625158 0.29083592 0.2968305 -0.04371113 -0.2202241
-0.24232997 -0.033016972 0.20828934 -0.26301464 0.06366525 -0.19228354 -0.04692807 0.054238234
-0.27701774 0.2150353 0.10117355 -0.028528564 -0.116411515 -0.29816315 0.27763367 -0.23018701
0.32576972 0.2618031 -0.21001408 0.014888475 -0.08209228 0.044071488 -0.22223441 0.050480273
0.12055733 0.090181425 0.23037404 -0.17915171 0.03307236 0.323593 0.26971292 0.1886222
0.15476356 0.0039971736 0.079168774 -0.068717234 -0.31748778 -0.07365243 -0.30778283 0.008106148
-0.31394747 -0.13103506 0.15457721 -0.24347153 -0.29638878 0.31752065 0.20381603 -0.24293599
-0.039964356 -0.11427577 0.087457046 0.2921344 -0.19261405 -0.27806088 0.19877394 -0.25394887
0.10537886 -0.041049216 0.21632954 -0.00051093637 0.23725536 0.3110947 0.10105534 0.20815349
-0.24727182 0.2874964 0.23904438 -0.094024755 -0.16596274 -0.29274148 -0.1755834 0.31159937
0.2213626 0.0035300043 0.0029349092 0.03212665 -0.11231789 0.111138724 -0.20385148 0.16116601
0.31405225 -0.29264417 0.14067748 -0.06024551 -0.18185233 0.17918262 0.1790737 0.009784526
-0.01162243 -0.009574884 -0.1302585 -0.13885915 -0.25400642 -0.31660137 -0.26989704 -0.050399303
-0.06500557 -0.30175853 0.04925939 -0.066577725 -0.1436295 -0.14616306 0.081496164 -0.06666054
0.13688461 0.25598264 -0.09696798 0.10050256 -0.012300594 0.07199802 0.27770388 0.03801467
0.17860106 -0.29276758 0.23337415 0.07616171 0.0020989142 0.077102296 0.1814204 0.1890228
0.009028694 0.15638053 0.170973 0.1383295 0.15854329 -0.12130439 -0.23407881 -0.027600028
0.06615046 -0.25542822 -0.25377133 -0.23611028 -0.22118153 -0.07140529 -0.28375667 -0.28981295
-0.06466471 0.16700445 0.15630911 0.23993775 0.19975272 0.2192732 0.21746583 0.18031533
-0.039868284 -0.07721267 0.066669725 0.06372251 -0.23120792 0.15697245 0.17126627 0.27924857
0.14182678 0.2492513 -0.22280508 0.07254337 -0.07639028 0.21409875 -0.17069028 0.026808335
0.26341695 -0.010800135 -0.21692592 0.01960656 -0.058973726 -0.17590947 -0.05151992 0.26582056
0.031407256 0.032071635 0.29000223 -0.3245891 -0.00045818702 -0.31623676 0.09110886 -0.06418644
-0.22665694 -0.21917036 0.2935195 -0.12381427 0.008578522 0.11959711 -0.07991696 0.18060479
0.2893968 0.056160286 -0.22196822 0.01733887 -0.060619388 0.24448906 0.119442314 -0.2754445
0.1719829 -0.29595977 -0.28111342 0.2511277 0.19105487 -0.04591583 0.15737498 0.18767127

lstm.weight_hh_l2 f4 [40, 10]
00000000: 9980 86be f1f5 343e 2f0c 8abe 0233 3dbe
00000010: bbb5 59be 3b7b 833e 7916 59be ee6c 643e
00000020: d5fe 883e e887 fabd d17d 44be 4ff2 f4bd
00000030: c480 a0be b57e 3dbb baaa 8a3e 59e1 72bd
00000040: e086 cebd 307d 53be c23c 973e 153d 96be
00000050: a136 e8bc bf3f 453e 3d4e 51be 7cd3 323d
00000060: 4718 9dbe f2e5 a23e 8b64 8a3e 7e43 e43d
00000070: 16e4 68be f60a b23d 50e1 683d f34f 803e
00000080: 16e6 15be 9bbf 7b3e 9f61 83bd 08a1 0dbe
00000090: 110d 48be 24e7 713d f5a0 123e a5b2 5abe
000000a0: 4dbd 943e 32d6 f1bd 4018 173e 5104 833d
000000b0: 6fdd 87be f1b3 57be 70dc 4abd 093e f1bd
000000c0: 9b17 753e 6a7d 143e a6d1 8ebd 92ad 36be
000000d0: 0ecf 953e 4689 18be 8676 e1bd 66b5 4abe
000000e0: 1b58 303e 95e4 87bc a936 59bc 9423 b6bd
000000f0: 3669 723e 6cd7 c0bd 26c1 c8bd e759 9bbe
00000100: f68e 7abc 47e3 983d ce77 a3be 8eca b5bd
00000110: 8617 493e d8d6 ae3c bbad 95be 64c5 9cbd
00000120: 6310 863e d4ba f2bd d06c a33e 3dc0 913c
00000130: 2494 90be f0f0 093e ece1 a63d 9198 0c3e
00000140: b8d6 1e3c e698 37be 5daf a03d 53b0 9b3d
00000150: ad25 563e c616 d13c d356 403e c23a 8abe
00000160: 817f 2d3e 0a70 653d f93b b8bd 72d6 903d
00000170: e371 d53c a36d 94be 8845 82bd 9d77 a3bd
00000180: 4dee 5dbc 8c10 f83d a115 cd3d b180 13be
00000190: c27f b13d b796 b03d 4623 f13d 04e0 49be
000001a0: bb41 0b3e 59d0 91be a0eb 39be 9d86 1abe
000001b0: 4c95 7fbe 4640 1dbe 6424 ecbc 1421 1d3e
000001c0: 8f4f 6b3c 8eb0 493d 384c 17be de23 8fbe
000001d0: 4096 843e 0561 e4bd e9e7 b53d 8e44 163e
000001e0: 4df5 a6bd 1fee 4a3c 9f0b 213e 3d53 8a3e
000001f0: 232d a3be a624 1f3e 07f6 c23d a51d 4d3e
00000200: e8bb a73d 3f79 1d3e 5cc3 9a3e 8359 80be
00000210: a88a 91be 63f1 813d a7b4 133d b17d 07bc
00000220: 4ba1 223e f8e1 4a3e 1d10 82be 777e 863e
00000230: 1d2a b23d dc37 973e ff46 4dbe 48f5 ab3c
00000240: d67c 853e 62b5 a6be 36fb 883d d667 e83c
00000250: 2b12 02be f721 5abe 17bc 923e ee70 3f3d
00000260: 2b2c 453e bc5a 62be 5848 0bbc dac6 e23d
00000270: 6804 253e bf0b 0fbe 50a6 b93c 05af 60bd
00000280: 6ea1 11bc 7d9a a1bc cde8 0f3e b805 573d
00000290: 9695 69be aab3 e3bd 1a1c 823e 74bd 673e
000002a0: ccf5 52be 9719 193e 3b16 123e 5683 d7bd
000002b0: ac01 9cbe daa2 e5bc 070e 3fbe 8eae 443e
000002c0: 4579 05be b756 843e b487 91be 260d 9b3e
000002d0: 1121 db3d 979b a7be e9db 4f3e bcd7 103e
000002e0: ecdb 98be 7cdc f6bd f9fd 0dbe efea 943e
000002f0: 196c 99be 253a 023e fdf4 95be 243f b73d
00000300: e328 c7bc 2434 26be 1011 15bd 0ea8 063d
00000310: 5a8c 8d3d 0d05 de3d bd78 34be 8a7b d8bc
00000320: 0526 7f3e b96b 9a3e 9d93 e1bc 140d cb3c
00000330: dcf0 24be e9a0 993e ccae 863e f675 36be
00000340: cfca 933e 2710 8b3e 13ae 9ebe 9c74 d5bd
00000350: 0457 5d3e b0b4 04be f31f 723d d8ed 65bc
00000360: 02e6 8bbe 1f81 043e 23d0 b4bd 7c4d 6d3e
00000370: b6ef 43be cbeb 523e e1bf 63be ef94 3fbc
00000380: 7ef9 33be f959 0a3e 19ac 4a3e f5b4 923e
00000390: a5b0 50bd 61eb 6fbe 9334 903e e7b9 b13d
000003a0: 9c61 f83d d5b8 64be 15c8 973d 1f49 82be
000003b0: 77c6 f6bd ebbc 4d3e 4ddc 493e cd91 a3be
000003c0: 5384 94be e052 e83d b21a ac3d d2a3 013e
000003d0: d569 05be 31be a63d c0fb 22be 0ff9 343e
000003e0: e878 493c e4e2 8b3d fe8f 403e 7b83 54be
000003f0: 2806 c73d 8be6 0abd da20 463e 3c7b eb3d
-0.26269987 0.17671944 -0.2696242 -0.18476489 -0.21260731 0.25679955 -0.21199979 0.22307178
0.2675692 -0.12232953 -0.1918862 -0.11960279 -0.3134824 -0.0028914635 0.2708338 -0.05929694
-0.10084319 -0.20653224 0.29538542 -0.29343477 -0.028346362 0.19262598 -0.20440002 0.04365872
-0.30682585 0.3181606 0.27029833 0.111456856 -0.22743258 0.08693497 0.0568555 0.25060996
-0.14638552 0.2458481 -0.06415104 -0.1383096 -0.19536234 0.059058324 0.14319213 -0.2135721
0.29050675 -0.11808433 0.14755344 0.06397308 -0.26536128 -0.21064736 -0.04952663 -0.117794104
0.23934786 0.14500967 -0.06973581 -0.1783965 0.29259533 -0.14896116 -0.11008935 -0.1979576
0.1722111 -0.016588489 -0.013257661 -0.08893505 0.23672947 -0.094160885 -0.09802465 -0.30342028
-0.015292874 0.07465225 -0.3192734 -0.08876525 0.1963788 0.02134268 -0.29234108 -0.07654837
0.26184377 -0.11852041 0.31918955 0.017791862 -0.28238022 0.13470817 0.0814856 0.13730074
0.009694748 -0.1792942 0.07845948 0.076019906 0.2091281 0.025523555 0.18783121 -0.26997954
0.1694317 0.056015052 -0.08995814 0.07072152 0.026055282 -0.28989896 -0.06360918 -0.07981799
-0.013545585 0.12112531 0.10013891 -0.1440456 0.08666946 0.086224966 0.11774306 -0.19714361
0.13599293 -0.2847927 -0.1815629 -0.15090413 -0.24959296 -0.1535655 -0.028825946 0.1534465
0.01436223 0.04924064 -0.14775169 -0.27957052 0.25895882 -0.111513175 0.08882124 0.14674589
-0.08152256 0.012385874 0.1572709 0.2701663 -0.31870374 0.15541324 0.09519582 0.2003084
0.08190137 0.15378283 0.30227172 -0.25068292 -0.284261 0.06344869 0.036060955 -0.008269713
0.15881841 0.19812763 -0.25402918 0.2626836 0.08699439 0.29534805 -0.20046614 0.020990983
0.26071805 -0.3256026 0.0668854 0.028369825 -0.12702243 -0.21302019 0.28659126 0.046738558
0.1925513 -0.22104925 -0.008501135 0.11073084 0.16114962 -0.13969325 0.022662312 -0.05485441
-0.0088885855 -0.019726986 0.1405365 0.05249569 -0.22810969 -0.111182526 0.25412065 0.22630864
-0.20601577 0.14951168 0.14266293 -0.10523097 -0.30470026 -0.028031755 -0.18657695 0.19207212
-0.13034542 0.25847408 -0.28423846 0.3028347 0.10699666 -0.32735893 0.20298733 0.14144796
-0.29855287 -0.12053773 -0.13866414 0.2908549 -0.29965284 0.12717493 -0.29288474 0.0894759
-0.024311488 -0.16230828 -0.036393225 0.032875113 0.069115356 0.10840807 -0.17624183 -0.026426096
0.24916847 0.3016031 -0.027536208 0.02478651 -0.16107506 0.30005577 0.26305234 -0.17818436
0.28865668 0.2716076 -0.30992183 -0.10422632 0.21615225 -0.12959552 0.0591125 -0.014033757
-0.2732392 0.12939881 -0.088287614 0.23174089 -0.19134411 0.2059776 -0.22241165 -0.011693223
-0.17575642 0.13510884 0.19792213 0.28653684 -0.05094971 -0.23429634 0.2816511 0.08678036
0.121279925 -0.22336133 0.074112095 -0.25446412 -0.12049573 0.20091598 0.19712944 -0.31947175
-0.29007205 0.11343932 0.08403529 0.12660149 -0.13028653 0.08141745 -0.15916348 0.17673133
0.012296893 0.06830385 0.18804929 -0.20753281 0.09717971 -0.03391127 0.1934847 0.114981145

lstm.bias_ih_l2 f4 [40]
00000000: d274 2cbe 7a67 323d 0a0d 2b3e e06f 803e
00000010: 0efd 153e 7c42 163e f44f 0b3d 24cc 9ebe
00000020: ab0c 2d3e 55a5 8c3e c1b2 5cbe 89f0 263e
00000030: 88e2 34bd 64ba d63c c8f0 2abe 1762 2d3e
00000040: 2309 983e 47a3 57be b4cd 99bd 8c9f a03e
00000050: f183 1bbd 4002 053d 6875 a7be 077e 1abe
00000060: f625 b13d b8d8 2f3e 1c45 863e 0adc 6cbe
00000070: 61fc 7e3e aff0 e33d 24ec 8e3e 4dbb 69be
00000080: 0883 4abe 9edb a43d 0308 443e 9fe5 24be
00000090: 8a64 813c 4955 57bc 223c 393e 0351 8d3d
-0.16841438 0.043555714 0.16704193 0.25085354 0.14647314 0.146738 0.034011796 -0.31015122
0.16899364 0.27469888 -0.21552564 0.16302694 -0.04416135 0.026211925 -0.16693413 0.1693195
0.2969447 -0.21058379 -0.07509938 0.31371725 -0.037967626 0.03247285 -0.3270676 -0.15087138
0.086498186 0.17172515 0.262246 -0.23130813 0.24900962 0.11129891 0.27914536 -0.22825356
-0.19776547 0.08049701 0.19143681 -0.16103218 0.015795011 -0.013142892 0.18089345 0.069002174

lstm.bias_hh_l2 f4 [40]
00000000: 0bef 17be 7fdf fa3d aa12 8b3d a1b0 b4bd
00000010: 3063 ab3d 5af4 643e c90e a63d d8b7 2abd
00000020: 670c af3d db11 233e 2ca2 d7bd 8bde 90bd
00000030: 1f6d bfbc 8e9e 8a3e d1a7 053c 99af 67be
00000040: f77c d1bd c63f 993e c0ce f23d f333 6f3e
00000050: ac90 bc3d 0c72 f1bd 5553 0a3e 93a2 55bc
00000060: 3402 b6bd 1c53 333e 4c1b 903e bbcf 8bbe
00000070: 29cf 2ebe 688f 3bbe 5a0a f63d d211 253d
00000080: e1c1 83be 6986 f43d 5f8c 04bd 1d79 6f3e
00000090: a9a6 9a3d 8dda f33c 076e 0cbe 6898 113e
-0.14837281 0.1224966 0.06790669 -0.08822752 0.08368528 0.22358838 0.08108289 -0.041679233
0.085472874 0.1592478 -0.10528979 -0.07073697 -0.023367463 0.27074093 0.008157686 -0.22625579
-0.10228913 0.29931468 0.11855841 0.23359661 0.092072815 -0.11789331 0.13508351 -0.013039249
-0.08887139 0.17512172 0.28145826 -0.27306923 -0.17071213 -0.18316424 0.12013693 0.040300198
-0.25733855 0.11939699 -0.03236043 0.23386045 0.07551319 0.0297673 -0.13713847 0.14218295

fc_1.weight f4 [128, 10]
00000000: 7c44 313e a045 dd3c 32e9 74be 1836 f83d
00000010: a038 01bd 0010 dfba 95c1 9dbe 5149 40be
00000020: ba2b 3a3e fa0a 0d3e 00ac 323d a00a 50bc
00000030: 429d 70be 6891 3abd bb05 64bc 6655 773e
00000040: d410 593d fad1 b1bd 5a89 9a3e d4a4 91be
00000050: 74be bf3d 3823 34be 0e48 95be a094 663d
00000060: 2f6f 87be 60f1 eb3c 88d5 0f3d dc13 b73d
00000070: 947a 5dbe a45d 1fbe 236f 76be b0f9 44be
00000080: 4ad7 283e 9815 70be 21d2 d83b 25ad 90bd
00000090: 39ad 5ebe aa33 58be a374 303e 32b9 00be
000000a0: d9aa 4d3d baa2 f9bd e15c 993e 58a9 953d
000000b0: d6c9 e03b 7d9a 523d 1387 653e b4d7 57be
000000c0: a51f 83be a59a 8a3e 29f3 3e3e 263a 093e
000000d0: 9803 f73d 7869 113d 8f67 8c3e 82da ebbd
000000e0: c960 f5bd 1643 553e 8951 9a3d a39d a0be
000000f0: 8a42 773e 4cd4 c83d c314 2ebe a303 8e3e
00000100: 1131 75be dee7 6abd 9695 52bd 1c8e 13be
00000110: 426f e9bd d568 48be 82f8 8b3e 0699 37be
00000120: b30c 1cbe 8555 63be 2ba4 7abe 9e64 8cbc
00000130: 499c 283e 40d4 97bb bf59 bf3d 1073 083e
00000140: 1cf1 ecbd 30fe 6dbe 5258 06be 787f 2e3e
00000150: de21 19be 9461 d5bd d0e2 323e e22e 3b3e
00000160: 4d1c 8f3e 885b 8ebd 275d 33be d2af 14be
00000170: 3642 58be 1b13 9b3e 18b9 0e3e 9020 543d
00000180: 168a 403e 2e96 6b3e f405 93be 7d71 26be
00000190: 3792 973e 3f45 893e 57a8 9cbe 0423 2d3e
000001a0: 7829 06be f8a1 35be ddee 28be 1109 2dbe
000001b0: ffdb 98be 2e1c 453e 1463 263e 7241 403e
000001c0: 90cd 333e d976 0bbe 5939 32be 67ab bbbd
000001d0: 3e36 fabd a02e 22bd a11d 43be 0070 d2bc
000001e0: 065f 6bbe 8f8d 85be 038e 96be 3263 c1bd
000001f0: 5e1d 4b3e bfdc 863e 9cf5 9dbe f29d b9bd
00000200: aac5 4ebe 7c4a 193e 3c1f 93be a856 0cbe
00000210: 1881 cc3d aa19 573e 23bb 403e b563 b9bd
00000220: 7b55 523e 6617 5cbe 830f 2a3e 9ae2 333e
00000230: aac7 dcbd 6727 40be 0072 41be ca67 313e
00000240: de99 8abe 326e 0abd d301 f23d c00d f03c
00000250: 1cdf 593e 4885 4c3d 2c78 3e3e 4b20 943e
00000260: 567d 90be 990e 873e 59d7 c13c b80b 62bd
00000270: 196f 54be 3897 a0be 9564 a4be 52ca 4f3e
00000280: aa67 983e 68be 2fbd 9855 ce3d 3834 393d
00000290: 37e9 a0bb a457 a3be 6e8d 26be 4f06 3abe
000002a0: ef3e 1ebe c8e9 93bd 4205 e43c 0c78 803d
000002b0: f238 123e a0d0 a3bd 876b 9bbe 89a2 15be
000002c0: 44af c1bc 42d5 91be a094 c33d 1c20 8c3d
000002d0: 3a5e 24be b523 8b3e 1821 a03d 9085 cdbd
000002e0: fc96 053e 06d9 b3bd 30b7 ba3c 62c8 bdbd
000002f0: 4058 ff3c 6fb3 9a3e 62ae 483e edb8 8c3e
00000300: ce97 d7bd 10a9 9b3c c36f 1abe 70b7 e63c
00000310: fcd5 5abe a454 d63d 8c01 76be 109c 173e
00000320: edc2 0ebe 18ce 86bd fcad 4ebe 0892 7fbe
00000330: c26a 3bbe 669a 58be 04db fd3d db8e 88be
00000340: 9c78 73be e70f 50be e880 3abd a5e6 7cbe
00000350: 341a d1bd 7a3b 4f3e 6c0f 7cbe 387a f43d
00000360: 701f a33c aa05 04be ca63 39be 2af9 753e
00000370: 8621 d5bd 008a 1d3d 409d 993d b4bc da3d
00000380: 70b9 0abd 3a68 24be d298 703e af26 81be
00000390: a6f5 7d3e 2cff 4dbe 645c d03d bc64 88be
000003a0: 713e 15be 3cb4 ec3d cf31 9d3e ec7e 5abe
000003b0: e994 80be fca5 62be 2cca 98bd 6ab6 6a3e
000003c0: dabd 9dbd baa4 083e 2420 0e3e ea93 373e
000003d0: b8f3 47be e6ec 003e 00b1 1e3e 09a2 853e
000003e0: d070 d23c f6cb 87be a3be 333b 667c 4ebe
000003f0: fab2 2c3e 2c89 393e 64ac 703e 941b 583e
0.17311281 0.027010739 -0.23917082 0.121196926 -0.031548142 -0.0017018318 -0.30811754 -0.18777968
0.18180743 0.13773718 0.043621063 -0.012697846 -0.23497489 -0.045548826 -0.013917382 0.2415367
0.052994564 -0.08682628 0.30182916 -0.28446066 0.09362498 -0.1759156 -0.29156536 0.056294084
-0.26452014 0.02880162 0.03511575 0.08939335 -0.21628791 -0.15563065 -0.24065833 -0.19235873
0.16488376 -0.23445737 0.006616846 -0.07064275 -0.21745767 -0.21113458 0.17231993 -0.12570646
0.05021176 -0.12189241 0.29953673 0.073076904 0.006859998 0.051416863 0.22414808 -0.21078378
-0.2561008 0.2707111 0.18647446 0.13401088 0.12061232 0.035500973 0.2742276 -0.115162864
-0.11981351 0.20826373 0.07535083 -0.31370267 0.24146476 0.098061174 -0.17000107 0.2773715
-0.23944499 -0.057350032 -0.051412188 -0.14409679 -0.11398174 -0.1957124 0.27338034 -0.17929468
-0.1523922 -0.22200592 -0.24476688 -0.017137822 0.16465868 -0.0046334565 0.093432896 0.13325143
-0.115694255 -0.23241496 -0.13119629 0.17040813 -0.14954326 -0.10419002 0.17469335 0.18279603
0.2795128 -0.06951052 -0.17516004 -0.14520195 -0.21119007 0.30288014 0.13937795 0.051788867
0.18802676 0.23006508 -0.2871548 -0.1625423 0.2960374 0.26810643 -0.30597183 0.16907889
-0.13101757 -0.17737567 -0.16497369 -0.1689799 -0.29855344 0.19249031 0.16248733 0.18774965
0.17558885 -0.13619556 -0.17404689 -0.09163552 -0.12217377 -0.039595246 -0.19054271 -0.025688171
-0.22985467 -0.26084563 -0.2940522 -0.09442748 0.19835421 0.2634029 -0.30851448 -0.09063329
-0.2019259 0.1496982 -0.28734767 -0.13704932 0.0998556 0.21005884 0.18821387 -0.09052221
0.2054042 -0.21493301 0.1660748 0.1756691 -0.107802704 -0.18765031 -0.18891144 0.17324749
-0.27070516 -0.033796497 0.11816754 0.029303432 0.21276516 0.049931794 0.1860053 0.28930888
-0.28220624 0.26378325 0.023662256 -0.055186957 -0.20745505 -0.3136537 -0.32107988 0.20292023
0.2976659 -0.042906195 0.100749195 0.045215815 -0.004910614 -0.31902802 -0.16264889 -0.18166469
-0.15453695 -0.072223246 0.027834538 0.06272897 0.14279535 -0.079987764 -0.30355474 -0.14612783
-0.023643143 -0.28483015 0.09549832 0.06842062 -0.1605157 0.2717568 0.07818812 -0.10035241
0.13045877 -0.08781628 0.022792429 -0.092667356 0.03117001 0.30215022 0.19597772 0.27484837
-0.10527001 0.019001514 -0.15081696 0.028163642 -0.21370691 0.10465363 -0.24024028 0.14805627
-0.13941546 -0.06582278 -0.20183557 -0.2495805 -0.18302444 -0.21152648 0.123952895 -0.2667149
-0.23776478 -0.20318566 -0.04553309 -0.24697359 -0.10210076 0.20237532 -0.24615258 0.11937374
0.019912452 -0.12892786 -0.18104473 0.2402083 -0.10406785 0.038461685 0.07500696 0.106805235
-0.033868253 -0.16055384 0.23495796 -0.25224826 0.24800739 -0.20116872 0.10173872 -0.26639354
-0.14574601 0.115578145 0.30702063 -0.2133748 -0.2511361 -0.2213363 -0.07460436 0.22921148
-0.07702227 0.13344088 0.13879448 0.17927518 -0.19526565 0.1259037 0.15497208 0.26100186
0.025688559 -0.26522797 0.002742686 -0.20164642 0.16865149 0.18118733 0.23503262 0.2110427
