model.pth (torch, 45694 bytes, 16 tensors)

lstm.weight_ih_l0 f4 [40, 5]
000000 de 75 1e 3e 5d 64 19 be b4 15 ee 3a 37 80 10 be
       0.1547465 -0.14979692 0.0018164427 -0.1411141
000010 76 17 3a be 8f 98 a7 bd 92 be 83 be e2 45 9d be
       -0.18173012 -0.08183395 -0.2573133 -0.3071738
000020 17 24 db be 1e 9f 22 be 13 db b1 3e 55 fa 59 3e
       -0.42800972 -0.15881011 0.34737453 0.212869
000030 dd 42 e5 3e ca 34 44 bd 0c 74 c7 bd 1d 1e 5c 3e
       0.44777575 -0.047901906 -0.09738931 0.21495862
000040 f8 b8 87 3d 8f b7 7f bd 70 1d 69 be 6d ec de bd
       0.06627077 -0.062430914 -0.22765136 -0.108849384
000050 2c e5 87 3e 40 cd 84 be c7 1a b5 be 60 41 c8 3e
       0.26542032 -0.25937843 -0.35371992 0.39112377
000060 a8 55 44 3e e3 ae ce be 6a 1d 3a 3e f2 37 18 be
       0.191733 -0.40367803 0.18175283 -0.14865091
000070 21 01 af 3d db 99 92 bd 1c 3f 2c bd bb 7e 5a bd
       0.08545137 -0.07158252 -0.042052373 -0.053343516
000080 72 9a be be ed bf 3b 3e 74 a1 37 3d 48 9f 67 be
       -0.37227207 0.18334933 0.044831708 -0.22619355
000090 1f 3c ba bc ac 7d a4 3b d3 91 40 3d 84 93 b9 3c
       -0.022733746 0.005019864 0.04701407 0.022653349
0000a0 b5 85 9f be 54 d2 0b 3d 71 6c 09 be 54 86 d2 3d
       -0.31156698 0.03413613 -0.13420273 0.10279527
0000b0 d1 8d 48 be 48 21 72 be 47 cb b9 3d c3 09 8f be
       -0.19585349 -0.23645508 0.09071975 -0.27937135
0000c0 1c 42 54 bd 8c be bc bd f2 ba 76 be 31 b9 d6 be
       -0.05182086 -0.092160314 -0.24094751 -0.41938165
0000d0 91 7d 88 3d 40 f8 ec bd 05 d6 c9 be a1 40 15 bd
       0.06664575 -0.115707874 -0.39421096 -0.036438588
0000e0 7e 61 1d be 1b df bc be e0 3d e8 bd 6c 16 4b be
       -0.15369222 -0.36888966 -0.11339927 -0.19832772
0000f0 4d 14 74 be cb 3a fc 3d 77 69 43 3d 3b 7d 6f 3e
       -0.23835869 0.12315901 0.047708 0.23387615
000100 af f0 2f 3e db 93 35 be 1b b7 a9 3d c9 98 97 be
       0.17181657 -0.17732184 0.08286878 -0.29608753
000110 f1 6e 12 be 91 db 11 bc 8f 70 b3 be 0e 8a b4 3d
       -0.14300133 -0.008902446 -0.35046813 0.08815394
000120 26 1c 6e be c4 d4 6a bd 8f d4 ce bd d9 6e 6a be
       -0.23252925 -0.057331815 -0.10099136 -0.22893848
000130 ec ad 51 be 0e 71 59 be 2e d4 66 3e b1 0a 6f 3e
       -0.20476502 -0.21234533 0.22541878 0.23343922
000140 22 87 e1 3d 78 f7 0c 3d 54 10 d9 3d d2 d1 7a 3e
       0.11012103 0.034415692 0.105988175 0.24494103
000150 10 7e bd be b4 fd 13 bc 00 e1 8b bd 96 4f 29 bd
       -0.3701024 -0.0090326555 -0.06830025 -0.041335665
000160 9d a2 7d bb a6 71 18 3d 2e 91 62 be f0 4b d5 3d
       -0.0038701661 0.03721776 -0.22125694 0.104148746
000170 a8 12 30 bd d1 ff 18 3e ee 36 2f be 09 0d aa be
       -0.042986542 0.14941336 -0.17110798 -0.3321307
000180 f3 d0 17 be ad f7 54 bd b3 67 6a be 2b 5b 13 3d
       -0.14825802 -0.051994015 -0.2289112 0.035975616
000190 cb 96 a9 bc c6 9a 1a be 08 b3 c6 be cf fc 40 be
       -0.020701787 -0.15098104 -0.38808465 -0.18846439
0001a0 79 f6 86 be 63 27 3f 3e 00 92 93 3e a7 5e 09 3e
       -0.2635992 0.18667369 0.28822327 0.13415013
0001b0 eb 4a 67 3d 0c 66 87 be 46 41 d7 3e 5d d4 dc bd
       0.05646793 -0.26445043 0.42041987 -0.107826926
0001c0 7d a9 27 be 39 65 2c 3b 51 dd 7b 3e da 85 90 be
       -0.16373248 0.002630545 0.24596144 -0.2822712
0001d0 fc ea c6 38 44 18 a3 be f3 e3 06 bd 23 06 72 be
       9.485145e-05 -0.3185445 -0.032932233 -0.23635153
0001e0 14 3f 6e bd dd 87 61 be 34 ae f5 bc b5 21 22 3e
       -0.058165625 -0.22024484 -0.029990293 0.1583317
0001f0 f9 fd 94 3e 1f 24 7e bc 91 1d bb be 92 3b ad be
       0.29100016 -0.015511542 -0.36545995 -0.3383451
000200 c0 e0 2c be 9b 02 bd 3d 58 7d 18 3e 22 e9 4e 3e
       -0.1688261 0.092290126 0.14891565 0.2020612
000210 a4 30 a6 3e 52 39 77 be 50 de 9c be 28 d6 52 be
       0.32458985 -0.2414296 -0.3063836 -0.20589507
000220 e1 fd a9 3e 60 ef 5c 3e 2c b5 1b be bd f9 36 3e
       0.33201507 0.2157569 -0.1520583 0.17868705
000230 7e c0 15 3e 07 b3 ba be 42 6c 98 be 4f d2 19 3c
       0.14624211 -0.36464712 -0.29770094 0.00938852
000240 ab e5 7c 3e 42 08 11 be 10 eb f1 bc 36 f9 97 be
       0.24696986 -0.14163306 -0.029531032 -0.2968232
000250 4d c0 84 be 8b 73 3d 3e df 65 a0 3d e7 58 b6 be
       -0.25927964 0.18501107 0.0783193 -0.35614702
000260 fc 06 0e 3b d7 0f 9d 3e 07 b5 90 be 8a d6 c3 be
       0.0021671643 0.30676147 -0.28263113 -0.38249618
000270 b7 b4 05 bd be 0b b3 be 07 e8 10 bf 99 a7 94 be
       -0.032643046 -0.34969896 -0.56604046 -0.29034117
000280 17 d4 a8 3e de 7e 38 3e 8e 0a 8b 3e e3 03 9f 3c
       0.32974312 0.18017146 0.2715649 0.019411033
000290 6a b9 9a be a2 31 25 bd fb e3 92 be 2c 3a 1a 3e
       -0.30219585 -0.040330537 -0.2868956 0.15061253
0002a0 fb de 9e 3e 17 53 44 3e df a1 a0 3d a6 48 ba be
       0.31029496 0.19172321 0.078433745 -0.3638355
0002b0 40 29 07 bd 1d f2 43 be 08 44 45 be 10 8a 55 bc
       -0.032998323 -0.19135328 -0.19264233 -0.013033405
0002c0 9e f2 df bc 8e 15 a6 3e b0 30 bc be fc 3c 08 be
       -0.027337369 0.3243832 -0.36755896 -0.13304514
0002d0 3f 38 bd bd 46 47 6b 3d 9c 72 bc be 6f a6 9c 3d
       -0.09239244 0.05744102 -0.3680619 0.07648932
0002e0 a4 d6 d8 3c 53 15 15 be ff 04 81 3d 6e c0 c5 3c
       0.026469536 -0.14558916 0.06299781 0.02413961
0002f0 bd a1 86 3e dc 54 5d be 81 a1 7f 3e 06 18 52 3e
       0.26295272 -0.21614403 0.24963953 0.20516977
000300 94 37 22 3e 21 1b 54 3e 51 85 be 3d 69 a8 8f bc
       0.15841514 0.20713474 0.09302772 -0.017536359
000310 21 40 91 be 08 e5 c9 bd d0 dd 24 bc f5 d1 1f be
       -0.2836924 -0.09858137 -0.01006265 -0.15607436

lstm.weight_hh_l0 f4 [40, 10]
000000 57 bc ed be a8 fb e9 3d dd 3b c6 3d d6 a4 44 be
       -0.46432754 0.11424953 0.09679387 -0.19203505
000010 4f 1e d7 3d 15 46 8e bd 67 e3 a6 bd 79 b0 c8 bd
       0.10503828 -0.06946961 -0.08148842 -0.097992845
000020 4f 2e 8d 3d cc 2e 66 3e 35 06 0c 3e bf d5 b1 3d
       0.06893598 0.22478789 0.13674243 0.08683347
000030 40 46 68 3e 20 c9 46 bd b2 d0 c3 3e 5d f0 26 be
       0.22683048 -0.04853165 0.3824516 -0.16302629
000040 18 38 17 3c d1 d4 39 3e 8f 39 89 3c 5d 03 c5 3d
       0.009229682 0.1814759 0.016751079 0.09619782
000050 d7 69 03 bf 1d d7 a5 3e ad fd 96 3e d9 bb ca be
       -0.51333374 0.3239068 0.29490414 -0.3959644
000060 b2 d0 b8 be 4c fc d8 bd 84 da 5b 3d de eb 63 3e
       -0.36096722 -0.10594997 0.05367519 0.22257945
000070 9e 58 1b bf dc c0 89 bd be 11 a1 3e 06 4d 4c 3e
       -0.60682094 -0.06726238 0.3145885 0.19951257
000080 34 cc cf 3e 18 1f ef 3d 6d 57 0d 3e f7 09 75 be
       0.40585482 0.116758525 0.13802882 -0.23929583
000090 d4 21 91 be dd ca bd bd 47 32 f9 3d c0 3f b3 3d
       -0.2834612 -0.09267209 0.12167793 0.08752394
0000a0 be 98 70 bd 48 af 3e bd e1 06 1f 3e 2e 9f 84 3e
       -0.058739416 -0.04655388 0.15529968 0.25902694
0000b0 a5 69 6d 3e 72 1a 4c bd 50 a8 37 3e 10 49 ba 3d
       0.23184831 -0.049829908 0.179353 0.09095967
0000c0 74 7b a0 3d ad 21 6b 3e b8 89 72 3c 8b 6f 60 be
       0.07836047 0.22962065 0.0148033425 -0.2191755
0000d0 5a 8f d4 bd 72 7b 0a be 6a 61 4c 3e a6 c3 98 be
       -0.10378905 -0.13523653 0.19959036 -0.29836768
0000e0 42 4f 07 3e 31 ad 69 3c 0e 53 7b be 30 43 c5 3e
       0.13213828 0.014262483 -0.24543402 0.38527822
0000f0 18 b5 52 be 79 91 11 3e 5c 57 80 3e 5f 4d 8c be
       -0.20576894 0.1421565 0.2506665 -0.2740278
000100 08 1c a2 3e c2 34 cd 3c cb 0e e1 3d cc e5 05 be
       0.3166201 0.025049571 0.1098915 -0.13075942
000110 fa 8c cf bc b7 2d 77 3e 49 52 75 3c fb 09 b7 be
       -0.025335778 0.24138533 0.014973232 -0.35749802
000120 3c 84 f3 3e c3 54 2a be bc dd 5e 3d 5f fa 3f be
       0.47561824 -0.16633897 0.05441068 -0.18747853
000130 24 89 58 be f1 d8 0a be e4 81 a6 3e c5 15 bb bd
       -0.21146065 -0.13559319 0.32520974 -0.091350116
000140 e5 0e 85 3e bc db 8f 3e b3 dd e9 3c 7d 4d 1c 3e
       0.25987926 0.28097332 0.028548097 0.15263934
000150 37 b0 db 3c 06 22 d5 3d 2f db 57 bd d6 0f 8f be
       0.026817424 0.1040688 -0.052699264 -0.2794177
000160 91 31 50 bd b7 22 7b be 2d d1 2a be 4f e6 d4 bd
       -0.05082852 -0.24524961 -0.16681357 -0.103954904
000170 e5 88 11 bd c9 76 30 be 4c ba 94 3d 6c 15 fd 3c
       -0.035530943 -0.17232813 0.07262096 0.030894004
000180 bd 47 c6 3b 57 e2 47 3e e5 ac b2 be ca d5 36 3e
       0.0060510323 0.19519936 -0.34897533 0.17854992
000190 43 91 08 3e 83 92 a3 3e f6 33 b0 3e 72 4d cd bd
       0.13336663 0.31947717 0.34414643 -0.10024537
0001a0 73 3b a7 bd 82 98 b5 be b7 fb 9d 3e ac 7c 9a 3d
       -0.08165636 -0.35467917 0.30856106 0.075433105
0001b0 c5 f9 e4 3d d8 73 0c be ff b3 98 bd 15 63 9d be
       0.11180452 -0.13716066 -0.074562065 -0.30739656
0001c0 bb 1b 73 3e f3 e2 e6 3e 3a ea ad bd 2b 08 aa bb
       0.23741047 0.45095024 -0.08491941 -0.005188962
0001d0 7b ac 5d be ae f4 c4 3d 9f 3a c0 bd 7a 5c 84 3e
       -0.21647827 0.096169814 -0.09386181 0.25851804
0001e0 2c e6 0a bf 57 fb 84 3e f6 55 0e 3f 9c 80 22 3e
       -0.54257464 0.25973007 0.55599916 0.15869373
0001f0 2d 64 55 be 60 83 e9 be 93 26 84 3c ae d4 b4 be
       -0.20838995 -0.45608044 0.016131675 -0.35318512
000200 3a 14 05 bf 64 65 55 3e 73 3a 50 3d d7 59 3f be
       -0.5198399 0.20839459 0.05083699 -0.18686615
000210 44 bc 2c be 45 3e ec 3d b2 89 29 3d 28 a8 16 3e
       -0.16868693 0.115353145 0.041391082 0.14712584
000220 57 7f 42 3e 86 da 68 be a3 e4 8b 3e 59 25 96 bd
       0.18993889 -0.2273961 0.27322873 -0.07331342
000230 5a e3 07 bd 15 c0 b0 be f1 83 43 3e cd 57 d1 3e
       -0.033175804 -0.34521547 0.190933 0.408873
000240 0d d2 f9 bc 1f e8 b9 3e 33 d4 16 3d 89 5c 08 3c
       -0.030495668 0.36309907 0.036823463 0.008322843
000250 9b 3b c4 3e b3 4b 67 3e 71 2c dc 3c 4f a9 43 bb
       0.38326725 0.2258747 0.02687666 -0.0029855554
000260 d1 d2 4a 3e a9 91 d0 bd 7b a6 d4 3e 00 ef c1 bd
       0.19806983 -0.101840325 0.41533265 -0.09469414
000270 33 9b 6e be 33 07 34 3e e3 21 6a 3e d8 a2 20 be
       -0.23301391 0.17580871 0.2286449 -0.1568712
000280 fc db 04 3e 51 44 41 be 0b 43 21 3f 25 ab 9b 3e
       0.12974542 -0.18873717 0.62992924 0.3040401
000290 8b 6f 93 3d 8f f0 20 3e 52 31 99 be 85 4e 06 be
       0.071990095 0.15716766 -0.2992044 -0.1311589
0002a0 ed 1d 0e be 40 01 37 be b9 e9 44 bd 09 3d 2b bd
       -0.13878603 -0.1787157 -0.048074458 -0.041806255
0002b0 71 6b fc 3e 7b f0 28 3e 8c 61 bb 3e 1e 9e c1 3b
       0.4930072 0.16497986 0.3659786 0.0059087416
0002c0 d9 e8 19 bd 29 3b 99 be 5f 7f b2 bd 18 86 4f 3e
       -0.037575576 -0.29927948 -0.087157 0.20265996
0002d0 48 da 86 be 8b 85 98 3d 32 40 f5 bd 6c 7c 30 3c
       -0.2633841 0.07447346 -0.11975135 0.010771852
0002e0 9c af 8f 3d ec bd 52 3e 5c c3 96 be b9 99 ae be
       0.07015917 0.20580262 -0.29445922 -0.34101656
0002f0 94 b3 ee 3d 8b 8c 8e 3e b5 69 59 3e 00 84 36 be
       0.116553456 0.278416 0.2123173 -0.17823792
000300 13 ed 9b 3d a3 19 b3 bc e9 e1 6d bd 5b 34 ab bd
       0.07613578 -0.02186281 -0.058076773 -0.083595954
000310 30 59 3b be 45 db da bc 6e 13 84 3e 58 31 fe bd
       -0.18295741 -0.026715884 0.25796074 -0.12411755
000320 4e db 17 3e eb 31 5e 3e 7a c1 e4 be 6b ed a5 3e
       0.14829752 0.2169873 -0.4467886 0.32407698
000330 a3 82 ce 3e c3 32 24 3e 9b b5 8b be 6e 23 b1 3d
       0.40334043 0.16034989 -0.2728699 0.08649336
000340 bb 41 b2 3c 15 6c a5 bd 25 08 80 be 21 f5 d7 3e
       0.021759858 -0.08077256 -0.25006214 0.42179206
000350 3e 53 8c be c8 ad 24 bd eb 2d f5 3d 91 7b 9c bc
       -0.2740726 -0.040204793 0.11971649 -0.01910189
000360 8e ba 19 be 30 45 43 3e f4 cc 28 bd 6f b1 47 be
       -0.15012571 0.19069362 -0.041211084 -0.1950128
000370 74 22 ca be 37 61 c9 3e 22 8a 85 3e 93 6a 1f 3e
       -0.3947941 0.39331982 0.2608195 0.15567999
000380 bf b2 a6 bd be 06 99 bd 2d 48 19 3e e5 28 e9 bd
       -0.08139562 -0.07471989 0.14968939 -0.11384753
000390 0e a3 ea bd 57 41 64 be b1 fa c8 3e 66 a3 29 3e
       -0.114568815 -0.2229055 0.39253762 0.16566238
0003a0 7a 88 4a bd 8d cb 5b be 0c 5b 51 be 62 03 bd 3e
       -0.04944656 -0.21464367 -0.20444888 0.36916643
0003b0 51 28 8f be 36 ba b5 3d 69 c9 22 be 69 73 76 bd
       -0.27960446 0.088734075 -0.15897144 -0.060168657
0003c0 ee 57 f7 3c fc 99 60 bc 6d 49 c0 be 2d a6 12 3d
       0.030193295 -0.013708588 -0.3755602 0.03580301
0003d0 5f 06 32 3d 79 a1 99 3e 3b 0f ad 3d b6 e1 ac bc
       0.043463107 0.30006006 0.084501706 -0.021103721
0003e0 82 3a b7 3d 60 11 39 3d 37 ef 07 3d 77 df 50 3e
       0.08946706 0.045182586 0.033187117 0.20397745
0003f0 f6 1b f7 bc f9 26 e2 3d e3 47 9c 3e 16 bb 9d 3e
       -0.0301647 0.1104259 0.30523595 0.30806798

lstm.bias_ih_l0 f4 [40]
000000 4f 52 4f be 60 d1 b4 3e be e2 ab 3c be ba 97 bc
       -0.20246242 0.3531599 0.020982143 -0.018521663
000010 4d 34 56 3e f5 04 9b bc 10 73 96 3e 8a 88 94 bd
       0.20918389 -0.018923262 0.2938466 -0.07252605
000020 3b 11 00 bd 39 08 0d 3c 01 87 e0 3e 9e 40 a6 3d
       -0.031266432 0.008607917 0.43853 0.081177935
000030 96 8a 81 3e a0 61 97 3e 1f 02 4f 3e 68 8a 70 bb
       0.25301045 0.2956667 0.20215653 -0.003670359
000040 d0 71 dd bb 6b 35 09 3e e5 73 72 3d e2 57 0e bd
       -0.0067579523 0.13399284 0.059192557 -0.03475178
000050 00 f3 a0 be 45 82 69 3e 1a c1 4b 3e 91 6e 56 3e
       -0.31435394 0.228036 0.19897881 0.20940615
000060 3c fd d9 3d 69 95 86 be bf e0 2e bd 82 59 f9 3d
       0.10644004 -0.26285866 -0.042694803 0.121752754
000070 ce 3b 3e be d7 58 27 3e 15 8c 82 3e b0 65 89 3e
       -0.18577501 0.16342483 0.254975 0.26835394
000080 34 79 30 bd ff 07 90 bd e1 44 45 be 8f 7a 6b 3e
       -0.04308434 -0.07032775 -0.19264556 0.22995971
000090 09 1c ac 3e 73 c7 af 3d 88 92 2c 3d 59 43 88 be
       0.3361514 0.08582964 0.04213193 -0.26613882

lstm.bias_hh_l0 f4 [40]
000000 af a6 91 3d 4c 29 e4 bd e9 fb 36 3e e5 73 81 bd
       0.071118705 -0.11140689 0.17869534 -0.06320933
000010 b0 1c 98 be a4 fc 26 3e 02 e0 69 3e e3 c3 88 3e
       -0.29709387 0.16307312 0.22839358 0.2671195
000020 ba e5 58 3e 6d 11 19 3e 4e 5f 0a 3e ac ed b8 bd
       0.21181384 0.14948054 0.13512918 -0.09029707
000030 35 5b 13 3e e3 85 9a bd 3c a4 8f 3e 58 ee 64 bd
       0.14390261 -0.07545068 0.28054988 -0.055891365
000040 1b f7 fa 3b 57 b8 2f be 08 85 86 3e 94 03 c4 3d
       0.007658852 -0.17160164 0.2627337 0.09570995
000050 db 5f bc bc e7 0b 1b 3e d0 82 0b 3e ff 31 6d be
       -0.022994926 0.15141259 0.1362412 -0.23163603
000060 06 6e 11 bd 50 4e 57 be da ae dd 3d e9 d9 de bd
       -0.035505317 -0.21025968 0.10824366 -0.10881407
000070 ba 82 29 3e cd d2 23 3d bf 01 45 3e 8e 5a 76 3e
       0.16553774 0.039995957 0.19238947 0.24057981
000080 a8 9b 8c 3e 7a 6b 0b be 1c c8 dc bc 3f 4b db 3c
       0.27462506 -0.13615218 -0.026950888 0.026769279
000090 40 0e c8 3d 22 bb 35 be 23 71 72 be a7 61 32 be
       0.09768343 -0.17747167 -0.2367597 -0.17420064

lstm.weight_ih_l1 f4 [40, 10]
000000 82 33 8b be e0 d7 1e 3e 59 fc 96 3e 7a 17 97 be
       -0.27187735 0.15512037 0.294894 -0.295101
000010 4a 94 87 be c2 6b 73 3e c0 68 c2 bd 7f 90 99 bd
       -0.26480323 0.23771575 -0.09492636 -0.074982636
000020 19 fa 58 be 92 a2 84 be 26 72 35 3e da 9d a1 3e
       -0.21189155 -0.2590528 0.17719325 0.31565744
000030 6c 63 69 3e 62 1f 11 3d 9a 6c a8 3e 14 4e 99 bb
       0.22791833 0.03543032 0.32895356 -0.004678497
000040 93 30 62 3e 1c 85 69 bc 58 95 18 bd 32 f1 37 3d
       0.22088842 -0.014252927 -0.0372518 0.044907756
000050 dc 5b 97 bd c2 59 a3 be 72 e9 5e 3c 42 d5 45 3e
       -0.07390568 -0.31904417 0.013605462 0.19319633
000060 52 bb 30 be cf 0b 87 bd 19 c4 21 be c0 c6 b5 be
       -0.17258957 -0.06594049 -0.15797462 -0.35503197
000070 1c 90 81 3e 03 e7 86 3e 7f fb 86 3c ba 1b b3 be
       0.2530526 0.26348123 0.016477345 -0.3498209
000080 3c 43 a6 bd d7 fd 2f 3e 2d 9a 5a bd 23 a0 0a 3f
       -0.08118293 0.17186676 -0.05336969 0.541506
000090 8e a6 7b be 3a 78 8b 3e 3d d0 76 3e b5 15 e5 bd
       -0.24575254 0.27240163 0.24102874 -0.11185781
0000a0 f0 98 5c be e0 93 ee 3d f5 d8 a5 be c2 33 f1 bd
       -0.21542716 0.11649299 -0.32392088 -0.1177745
0000b0 ec 05 be be 1f 27 c4 bc d5 ed 5b 3e 7b 1d 9f 3d
       -0.37113893 -0.023944436 0.21477444 0.07769295
0000c0 6e 33 0b be 05 43 1f 3e a9 40 63 be df 79 88 be
       -0.13593838 0.1555291 -0.22192635 -0.2665548
0000d0 6c 69 0f 3d a6 e2 c2 3d 22 5b 49 3e 3d f2 07 3e
       0.035012648 0.09515886 0.1966367 0.13276
0000e0 c0 36 8d bc a2 77 61 be 0d ce aa 3c b1 6a 6f 3e
       -0.01723802 -0.22018293 0.020850206 0.23380543
0000f0 22 ec ae bd 2d c6 95 be 61 03 42 be 17 76 8c be
       -0.085411325 -0.2925276 -0.18946601 -0.27433845
000100 ce 61 28 3d 8a aa d4 bd d4 3b 0a be 49 b6 88 be
       0.0411089 -0.1038409 -0.13499385 -0.26701573
000110 92 30 c3 3d 62 a0 43 3e 30 7a ad 3c 7b b2 22 bd
       0.095307484 0.1910415 0.021176428 -0.039720993
000120 e5 2a b0 be 67 47 77 be e8 e2 d6 be 1c ca 2f be
       -0.34407726 -0.24148332 -0.4196999 -0.17166942
000130 b8 b6 03 3f f8 a6 ce 3e 1b d1 6d be 54 77 72 be
       0.5145068 0.40361762 -0.23224299 -0.23678333
000140 9a 4b 92 3e e9 50 a0 3d ec b0 6d be d7 36 b0 3e
       0.28573304 0.078279324 -0.23212022 0.3441684
000150 81 0d 23 3e b2 08 42 be c2 6e 9a be f6 8f b2 3d
       0.1592312 -0.1894863 -0.30162627 0.087188646
000160 35 ad a0 bc 4b 46 05 be fc b5 32 3e 68 1c 91 3e
       -0.019613842 -0.13015096 0.17452234 0.28341985
000170 00 bb 07 3e 39 fa 91 be 70 33 30 3d 74 52 a6 be
       0.13254929 -0.28511217 0.043017805 -0.32484782
000180 f5 0f d0 bb 97 bb 09 3e 17 66 72 be a8 c6 49 3e
       -0.0063495585 0.13450466 -0.23671757 0.19704688
000190 da 63 42 be fc 2e 99 bd 70 2e 18 3e 0c a1 33 be
       -0.18983403 -0.07479665 0.14861465 -0.17541903
0001a0 af 1f 0c 3e e8 b4 12 3e f7 6f 75 3e a6 b2 a8 be
       0.13683961 0.14326823 0.23968492 -0.32948798
0001b0 1c b8 a6 3d 48 71 9a bc 7b 2a b9 be af 4c c5 bd
       0.08140585 -0.018852845 -0.36165223 -0.09633767
0001c0 13 ed 54 3d 42 fb e9 3d 46 41 9d 3d 16 82 6b be
       0.051983904 0.11424877 0.076784655 -0.22998843
0001d0 a0 9c 31 be d6 db 88 3e f3 86 ae be ab 54 1a 3e
       -0.17344904 0.26730222 -0.34087333 0.15071361
0001e0 6f 38 0f 3c df 67 b1 3e 54 81 07 be d6 0b 40 bd
       0.008741482 0.3464956 -0.13232929 -0.046886288
0001f0 9e 07 0f be a2 15 2d 3e 2d dd 81 bd 4c 2f 31 be
       -0.1396775 0.16902784 -0.06341014 -0.17303199
000200 73 7a 98 3e b3 ff 39 be 76 cb b6 3e 48 91 8a be
       0.2978092 -0.18163948 0.35702103 -0.27063966
000210 c3 13 a9 be b0 16 38 be df 58 5b 3e 04 85 63 3e
       -0.3302289 -0.17977405 0.2142062 0.2221871
000220 20 2e 03 3e 6b 82 15 bd f1 be 81 3d 28 54 8b 3e
       0.12810564 -0.03650133 0.06335247 0.27212644
000230 05 3f 7b bd 58 96 b7 bc e0 20 ab 3e fc b8 97 be
       -0.061339397 -0.022410557 0.3342352 -0.2963332
000240 0c 5c 44 be 50 d9 1e 3e d5 2c b9 3e 96 ad d2 3e
       -0.19175738 0.15512586 0.36167017 0.4114806
000250 cd 7d 57 be a9 b5 1f 3e b3 e0 79 3e 99 bf d5 be
       -0.21044083 0.15596642 0.24402122 -0.4174774
000260 7a ff 81 3e d7 53 6a be 95 e7 43 be e9 93 3f 3e
       0.25390226 -0.22883545 -0.1913131 0.18708767
000270 6b f5 82 bd 80 7e cf 3d 4c 4a 00 3e 19 01 e2 bc
       -0.06394466 0.1013155 0.12528342 -0.027588414
000280 2a 09 c4 3e 57 9e 2b 3e 9a df 98 be 75 0a 43 be
       0.38288242 0.1675962 -0.29858094 -0.19046958
000290 93 64 34 be 24 70 12 be f3 de b0 be 82 1c b5 be
       -0.17616491 -0.14300591 -0.34545097 -0.35373312
0002a0 f5 bd a7 bd 49 ec 9f 3e 53 29 ac be 30 a8 16 3e
       -0.08190528 0.3123496 -0.33625278 0.14712596
0002b0 dc 6e 0f 3d f4 85 61 3d 53 b0 ae be d7 f2 59 be
       0.035017833 0.05505939 -0.341189 -0.21284042
0002c0 d5 47 22 3f 49 99 1d 3d 1c 02 b9 be e6 08 3b 3e
       0.63390857 0.038476262 -0.36134422 0.18265113
0002d0 f6 54 48 3e a3 f5 99 3e 5c 78 73 3e 32 aa bc 3b
       0.1956366 0.30070218 0.23776382 0.0057575935
0002e0 c8 1f 90 3e 21 40 09 bd 79 a4 01 be 67 9f 61 be
       0.28149247 -0.033508424 -0.12660398 -0.22033463
0002f0 80 2a 9b 3e 2a 54 54 3e f8 f3 23 3d ea 21 8b be
       0.30305862 0.20735231 0.04002759 -0.27174312
000300 2f c0 93 3d db 36 8c 3d 62 1d 75 3d da 07 e5 bd
       0.072143905 0.068464 0.059842475 -0.11183138
000310 43 ca 3b be d1 e1 01 be e1 52 55 bd 97 a2 3f bd
       -0.18338875 -0.12683798 -0.052080993 -0.046785917
000320 2f 11 91 be 1e ee a3 3d 90 25 80 3c 37 59 0e be
       -0.28333423 0.080044016 0.015642911 -0.1390122
000330 53 44 68 3e a5 9d 85 3e 4e 9a 43 3e a1 16 c2 3d
       0.22682314 0.26096836 0.19101831 0.09476972
000340 56 11 89 3e bf d0 4e 3c 82 e8 e5 3d 97 ac 01 be
       0.2677104 0.012623011 0.11225988 -0.12663494
000350 eb 13 35 be af cb 0e 3e 7d bd 4f 3e 54 ee 97 3e
       -0.1768338 0.13944887 0.20287128 0.29674017
000360 f5 06 f0 bd bb c7 01 3e ec fa ba bd 66 7d 7f 3e
       -0.11720077 0.12673847 -0.09129891 0.2495018
000370 b3 2a 14 3d 42 70 b0 be ae 8b 4a be a9 9c 8b 3e
       0.036173534 -0.34460646 -0.19779846 0.2726796
000380 0d 85 97 3d eb de ba 3e 47 a8 42 3d 98 85 3e be
       0.07398424 0.36498198 0.047523763 -0.1860565
000390 b1 4f 72 3e 6c 06 11 be f4 9f 8f bd 53 fe 2c be
       0.23663212 -0.14162606 -0.070129305 -0.16893892
0003a0 08 d1 00 3e 5c b6 03 be 08 98 fb 3c 5f 4c 6e 3e
       0.12579739 -0.12862533 0.030712143 0.23271321
0003b0 87 e9 0d be 63 23 22 be 90 47 18 be 41 9e 8b 3d
       -0.13858615 -0.15833811 -0.14871049 0.06817294
0003c0 42 e2 65 bd 62 0a bb 3e 2b e9 2d 3d 53 30 c8 3e
       -0.05612398 0.3653136 0.042458694 0.39099368
0003d0 6d 03 1e bb 14 c1 1a be ae 65 bc 3e 87 b4 0f 3c
       -0.0024110929 -0.15112716 0.36796325 0.008771068
0003e0 ee fd 9a 3e 5b 9b b6 3e 18 83 e5 bd 45 02 4a 3e
       0.30271858 0.35665402 -0.11206645 0.19727428
0003f0 15 38 05 3d 9e 0a f6 3c 58 40 1f be c0 25 34 be
       0.032524187 0.03003436 -0.15551889 -0.17592525

lstm.weight_hh_l1 f4 [40, 10]
000000 15 ff 6d 3e 5b d9 5c 3d 31 8a 0b 3d 1f de cf bd
       0.23241837 0.053918224 0.034067336 -0.10149788
000010 c4 89 41 3e 62 c0 5f 3e 52 c4 97 be d1 f5 92 bc
       0.1890021 0.21850732 -0.29641968 -0.01793948
000020 0d f1 dc bd 66 93 ec bd c4 36 1a be 18 0d 24 bd
       -0.10788164 -0.115515515 -0.15059954 -0.04005155
000030 53 61 92 be 07 51 f5 bd 3e 94 48 bd a7 3c 46 3e
       -0.28589877 -0.11978345 -0.0489695 0.19359075
000040 0c fc 91 3e e8 08 f1 3e 95 f6 14 3e 01 86 2f 3e
       0.2851261 0.47077107 0.14547189 0.17140962
000050 69 85 5c 3e f1 32 81 3e ff a8 17 be e5 32 e3 bc
       0.21535267 0.25234178 -0.1481056 -0.02773423
000060 66 ce 20 be 6a d2 47 be a4 c9 9a 3e 55 26 2d 3e
       -0.15703735 -0.1951386 0.30231965 0.16909154
000070 ea 2f 96 3e 29 6a 93 3e 77 04 bd 3d d5 0c 55 3e
       0.2933343 0.2879193 0.09229367 0.20805676
000080 ab d2 0f bd d2 2e 8c 3e 32 3e 74 3d 43 ed 69 bd
       -0.035113018 0.2737947 0.059629627 -0.057111036
000090 e7 49 bb be a1 99 06 3e ea 26 ee be 98 e5 45 3e
       -0.3657982 0.13144542 -0.46514064 0.19325864
0000a0 dd e8 d6 3b 79 6b 7c bc 92 ee e5 3d 18 18 7f be
       0.006558521 -0.015406483 0.11227144 -0.24911535
0000b0 52 55 e0 3d 44 16 7e 3e 14 cf 80 3e 36 68 08 3f
       0.109537736 0.24813181 0.25157988 0.53284013
0000c0 df 6a bf 3e 8e 0c 8a bc 36 2b 2d be bc ce 6b 3e
       0.37386224 -0.01685169 -0.16911015 0.23028082
0000d0 4f a3 95 3e ce a1 75 be 8f 47 97 bd 82 9c 28 3e
       0.29226157 -0.23987505 -0.073866956 0.16465953
0000e0 16 42 e8 bc 28 21 85 bc f5 01 c2 be 3c c9 2d be
       -0.028351825 -0.016251162 -0.37892118 -0.16971296
0000f0 d3 c2 84 3e c5 7a 35 be 8d 96 06 3e 35 07 d0 3d
       0.2592989 -0.17722614 0.13143368 0.10157625
000100 ca 2f b1 be 43 88 df bd 3c 80 a2 be 63 63 8a 3e
       -0.34606773 -0.10914662 -0.3173846 0.2702895
000110 68 14 1a 3e 36 4f 68 be b4 9e dd 3d 63 19 61 3d
       0.15046847 -0.22686467 0.10821286 0.05495585
000120 77 a5 bd be a8 2e 5c 3d fa 6c 1e 3e cf d1 8e be
       -0.37040302 0.053755432 0.15471259 -0.27894446
000130 c9 4e cc 3e 46 c6 fa 3e f8 4a d9 bc 29 ec b8 bc
       0.39903858 0.48979396 -0.026525006 -0.022573547
000140 1f c3 99 3d f9 16 05 3e 75 31 5f 3e f1 91 cf bc
       0.075079195 0.12997045 0.2179621 -0.025338145
000150 7a 9a b5 bd f7 1f 81 3d 73 2f 3f be f8 66 d0 3e
       -0.08867355 0.06304925 -0.18670444 0.4070356
000160 db f4 9f 3e 56 02 6c 3e 56 6e 2d 3e d0 e5 88 3e
       0.31241497 0.23047766 0.16936621 0.26737833
000170 9c 94 77 be f9 64 46 be f0 b5 4f 3e 70 ab 5a be
       -0.24177784 -0.19374456 0.20284247 -0.2135446
000180 e5 f9 b0 bd 61 0c bb bd ef 7c 96 3e 22 69 2a 3e
       -0.086414136 -0.091332205 0.29392192 0.16641667
000190 10 f4 cb 3d e5 44 f4 bd 22 04 83 3e f9 5c 11 3e
       0.099586606 -0.11927203 0.2558909 0.14195623
0001a0 a7 8d c6 3b 69 32 34 be 9c 0f cb 3b cb 85 23 3e
       0.0060593667 -0.17597355 0.006196929 0.15969007
0001b0 e8 69 2b be 13 20 81 be c7 26 ce 3d 84 66 da 3c
       -0.16739619 -0.25219783 0.1006599 0.026660211
0001c0 fa 66 90 be a0 1b e1 3e a1 76 95 bd be 10 71 be
       -0.28203565 0.4396639 -0.07298017 -0.23541543
0001d0 ad 39 0e be 98 89 35 3e 40 28 d4 bd af 31 71 3d
       -0.13889189 0.17728269 -0.103592396 0.058885273
0001e0 28 24 29 3e 2f dd 61 bb 42 42 38 be f0 1f 1f 3b
       0.16517699 -0.003446411 -0.17994025 0.002428051
0001f0 0c e5 b5 3e 84 9f d6 bd 43 0a 9f bd f2 15 58 3e
       0.3552631 -0.10479644 -0.07765629 0.21102121
000200 00 3a b6 3e 26 a3 80 be 9d b6 5d be 56 3c b9 bd
       0.35591125 -0.25124472 -0.21651693 -0.09044711
000210 00 ba 18 bd b8 9b 0f 3e 8d 34 c3 3b 26 45 dc be
       -0.03728676 0.14024246 0.0059571923 -0.43021506
000220 c2 97 05 3e ae fa 9b be 00 47 5e 3b 56 e6 b3 3d
       0.13046172 -0.3046469 0.003391683 0.087841675
000230 db dd 25 bc 9a f7 a7 be b6 f1 8a be 84 33 96 be
       -0.010123695 -0.32806093 -0.27137536 -0.29336178
000240 83 d9 3f 3e 1a 49 2c be c4 45 62 3e ef 00 10 3f
       0.18735318 -0.16824761 0.22096926 0.56251425
000250 5e 2c 5a 3e dc cd 93 bd 50 1c 0d 3e 42 a4 0e be
       0.21305987 -0.07216999 0.13780332 -0.13929847
000260 69 cf 11 3d 03 a6 96 bd ba 98 d8 bd 24 70 89 be
       0.035598192 -0.07355883 -0.10576005 -0.2684337
000270 1e c8 03 3c bf 47 89 bd 8a 18 9a be 68 6a 03 be
       0.008043317 -0.067031376 -0.30096847 -0.1283356
000280 1b 7b 99 be 26 d4 9b bd eb 06 a3 be fe 1b 96 3e
       -0.29976735 -0.076088235 -0.31841215 0.2931823
000290 6c 97 91 be f0 4a 03 be 0f c9 d8 be 29 3b 07 3f
       -0.28435838 -0.12821555 -0.42340896 0.52824646
0002a0 25 f6 91 3d 2e 13 97 bd c9 5a 9b be eb 1d 1b bf
       0.071270265 -0.07376705 -0.303427 -0.60592526
0002b0 66 07 13 bf c1 23 7b 3d 8f d8 0c 3f 83 bb e0 3c
       -0.57433164 0.061313394 0.5501794 0.027433163
0002c0 80 a9 b4 3e 45 6b f4 3e 2e a5 d4 3e 2a 8a 83 bd
       0.35285568 0.4773809 0.41532272 -0.06422837
0002d0 53 75 54 3e 3e 45 12 3d d6 e9 41 3e 37 99 23 3e
       0.2074788 0.035710566 0.18936858 0.15976416
0002e0 c2 6e 73 3e 8b d9 0c be 0a 77 e3 3d de a8 04 3c
       0.2377272 -0.13754861 0.11106689 0.008096902
0002f0 96 ac 48 3e ea 50 31 be a4 3c 5b 3e ff 55 08 be
       0.19597086 -0.17316023 0.21409851 -0.13314055
000300 0b db 0c 3e 89 00 54 3e e8 6f 07 3e 4f d7 88 bd
       0.13755433 0.20703329 0.13226283 -0.06681692
000310 b0 5c 2b 3e 52 e8 8a be 1e f0 ad bd 1f ce 15 be
       0.16734576 -0.2713037 -0.08493064 -0.1462941
000320 0e fd 2c 3e 31 7a 83 3e 2a 58 0c 3e 43 87 7f be
       0.16893408 0.25679162 0.13705507 -0.24953942
000330 7d b8 93 3e 08 da 23 3e 5b 19 6c be 9d 2d 83 3d
       0.2885169 0.16001141 -0.23056547 0.064051844
000340 63 9a b2 3e 8f 64 38 3d 00 09 02 3e 0b 63 fe 3d
       0.34883413 0.045017775 0.12698746 0.12421235
000350 7c 69 06 be fb e9 67 be 8a 87 70 3e 52 97 b4 3d
       -0.13126177 -0.2264785 0.23489204 0.088179246
000360 a4 9a ff 3d e0 75 31 be a6 32 c9 be 91 eb 0f 3d
       0.12480667 -0.17330122 -0.39296454 0.035136763
000370 30 e9 0b be c7 ee d1 bd aa 78 f7 bd 2b 07 c4 3e
       -0.13663173 -0.10250621 -0.12083562 0.3828672
000380 f3 35 67 be dc 69 2d be 5f 28 00 be 4c ee 02 be
       -0.22579174 -0.16934913 -0.125154 -0.12786216
000390 c9 86 d0 bc 1f 94 59 3e 30 23 c5 3e 0f de ae 3e
       -0.025454896 0.2124791 0.38503408 0.34153792
0003a0 6b 29 b7 3e 60 c0 8d 3b 06 f8 57 bd 32 76 38 be
       0.35773787 0.0043259114 -0.052726768 -0.18013838
0003b0 8f 4d 82 be dc 81 b5 bc b1 86 6c 3e bf da 18 be
       -0.25449798 -0.022156648 0.23098256 -0.14927195
0003c0 9f b7 fb 3d b4 c2 17 be 2a 7a a4 be ed c6 3c be
       0.12290882 -0.14820367 -0.32124454 -0.18435259
0003d0 7a 2c cc 3d d2 80 94 be 8a 73 51 3e c1 52 b7 3e
       0.09969421 -0.29004532 0.20454231 0.35805324
0003e0 10 b7 8a bc 90 1b 85 bd 22 d5 4b be 56 df 84 be
       -0.016932994 -0.06499398 -0.19905522 -0.25951642
0003f0 37 6d 1f be b2 32 97 be ef 03 3a 3d 89 9a 5a be
       -0.15569006 -0.29530865 0.045413908 -0.21348013

lstm.bias_ih_l1 f4 [40]
000000 24 9b 04 be 2d 9f 82 3e 49 0e e2 bd 88 c4 f7 bd
       -0.12949806 0.25512066 -0.11037881 -0.12098032
000010 e4 be 02 be 3c 93 1b be 89 19 c4 3d 91 5f 8d be
       -0.12768131 -0.15192884 0.09575183 -0.27611974
000020 10 dc 70 be 6c 75 3b 3e 87 d0 32 3e 8d bd 44 3e
       -0.23521447 0.18306512 0.1746236 0.19212933
000030 6c 41 07 be 39 ea 9f be e8 b0 38 bd 9e 63 42 3e
       -0.1320855 -0.31233385 -0.045090586 0.18983313
000040 40 f1 c0 3e ea d5 d0 3d da a1 d3 bd 49 98 ff bc
       0.3768406 0.10197051 -0.10333605 -0.031200545
000050 b4 8b 0d be e4 11 2a 3e b7 7f 27 bb 88 2d 68 bd
       -0.13822824 0.16608387 -0.0025558302 -0.056684047
000060 18 0a 82 bd 93 2f e0 3d a4 7a 2c be 66 7b 02 3e
       -0.063495815 0.10946574 -0.16843659 0.12742385
000070 51 be 97 bc 69 3e 53 be 5d 8c 53 bd 18 72 4a be
       -0.018523367 -0.20629276 -0.051647533 -0.19770086
000080 f2 74 c2 3d 08 3e 97 bd 1d 98 b7 bd 17 1b 30 3e
       0.09494962 -0.073848784 -0.0896456 0.17197834
000090 7a ea 7d 3e d6 67 67 3e ea f7 ef bd 1c 37 5c be
       0.24796477 0.22598204 -0.11717208 -0.21505398

lstm.bias_hh_l1 f4 [40]
000000 65 82 e6 bc 4d 50 d8 ba 92 ae 93 3d 6e 2d 97 3c
       -0.028138349 -0.0016503424 0.07211031 0.01845428
000010 8b a3 fe bd 0e db 80 3e fd 17 ad 3d 69 43 ab 3d
       -0.12433537 0.25167125 0.08451841 0.08362467
000020 d0 13 9e be 72 99 19 3e 7c d4 8c be ad 5d ed bd
       -0.3087449 0.14999941 -0.27505863 -0.11590133
000030 3e 56 3f 3e 96 2a 7e bd dd ba 11 3e 18 3b 9f be
       0.18685243 -0.062052332 0.14231439 -0.31099772
000040 87 fd 8d 3e a6 20 a1 bd 42 2c e9 bd 72 8e 69 3e
       0.2773249 -0.07867555 -0.11385395 0.22808245
000050 a2 c1 40 bd 7f a5 8f be 8d 1f ec bd 02 a2 d8 3d
       -0.047059663 -0.2805595 -0.11529455 0.105777755
000060 5d 0c 08 be cf 43 00 be 08 f8 57 3e 25 0d b2 bc
       -0.13285966 -0.12525867 0.2109071 -0.021734783
000070 cd d1 d6 bc f5 70 b1 bd 83 24 11 3e 34 4b 2c bd
       -0.026223088 -0.08664123 0.14174084 -0.042063907
000080 92 28 a4 bd 56 ea 5b 3e f3 2d 0a bd 6a ce a9 be
       -0.08015551 0.21476111 -0.033735227 -0.33165294
000090 53 ca 1d be 60 7d 36 be d4 21 8f bd b4 90 20 be
       -0.15409212 -0.17821264 -0.06988874 -0.156802

lstm.weight_ih_l2 f4 [40, 10]
000000 8e a5 02 bc 38 10 82 be d3 63 6d be 53 30 77 bd
       -0.007974042 -0.25403 -0.23182611 -0.06034882
000010 09 08 15 3e 8a 80 2c 3e 11 f7 6f 3e 89 61 0b 3e
       0.14553846 0.16845909 0.23434092 0.13611425
000020 75 3d c1 bd 25 70 8a bc ce fa 14 3e 9c 0b e0 bd
       -0.0943555 -0.016899178 0.145488 -0.10939714
000030 14 d4 80 3e a1 a2 ae be 38 7c d0 bc 9a 42 64 bd
       0.25161803 -0.3410845 -0.025449857 -0.05572758
000040 1f 75 b9 3e 25 e5 91 be 13 85 f8 3d 1a af 52 be
       0.3622217 -0.28495136 0.12134757 -0.20574608
000050 5a cf 6d be b2 f9 59 3e 6e 31 df ba 9e 40 cd bc
       -0.2322363 0.21286657 -0.0017028281 -0.025055226
000060 57 62 14 3e 35 fc a9 3d 09 4a bc 3d eb 84 c1 3d
       0.14490639 0.08300058 0.091938086 0.0944918
000070 c1 87 37 be eb 0c b7 be 5d d0 01 3e 88 f3 b6 3e
       -0.1792288 -0.35752043 0.1267714 0.35732675
000080 26 a0 95 3e 55 c8 28 be f0 d6 12 be 1a d6 d8 3c
       0.29223746 -0.1648267 -0.14339805 0.02646928
000090 66 36 b5 be e0 64 8c 3e 58 c0 99 3e b5 44 79 bc
       -0.35393065 0.27420712 0.3002956 -0.015214135
0000a0 77 6d 80 be 0b d5 26 3e 01 c9 80 3e 85 64 b0 be
       -0.25083515 0.16292207 0.25153354 -0.3445169
0000b0 b4 f1 7a 3e 01 e5 22 3e 5d 5f 83 be 00 09 81 be
       0.24506265 0.1590767 -0.25658694 -0.2520218
0000c0 75 59 1e be c9 f4 a2 be 97 96 9b be b7 5e 72 be
       -0.15463813 -0.3182738 -0.30388328 -0.23668943
0000d0 f6 df aa be 9c f7 0c bd 8a 98 40 be 4d de 62 be
       -0.33373994 -0.034415826 -0.18808189 -0.22155114
0000e0 29 38 12 3c cc fb b0 3d d8 1b 3d 3d 7c 41 96 3e
       0.008924522 0.086417764 0.046169132 0.29346836
0000f0 3b 18 7c be ee 1e 0f bd 7a 67 76 3e b0 1c 7f be
       -0.24618618 -0.034941606 0.2406291 -0.24913287
000100 5d 6f 79 be 15 85 ce bd 80 da 22 bc 68 57 23 3d
       -0.24358888 -0.10083977 -0.00993979 0.03987828
000110 05 40 1e be 56 bf 02 3e 22 82 5b be a8 ed d2 3d
       -0.15454109 0.12768301 -0.2143636 0.102992356
000120 da 30 77 bc d4 20 ad be f3 34 45 3d 1d c9 85 3e
       -0.015087331 -0.33814108 0.0481462 0.2613
000130 84 38 a1 be 6e b3 8d be 9c f8 8f be 22 c3 9a 3e
       -0.3148843 -0.27675956 -0.2811936 0.30227
000140 f3 84 0a 3e eb 1f ce bd 86 f8 b1 3e 26 70 ec 3d
       0.13527279 -0.100646816 0.3475992 0.11544828
000150 07 3b 7d be e4 8d f7 3d 96 96 29 3e 3c f0 90 bd
       -0.24729548 0.1208761 0.1656135 -0.07077071
000160 e0 46 63 be e0 42 cf bd fa 3c 9b 3e 01 b1 9b 3e
       -0.22195005 -0.10120177 0.3031996 0.3040848
000170 fd f3 a1 3e 61 24 b8 3c 47 b4 f7 3c 70 15 2b be
       0.3163146 0.022478284 0.03023733 -0.16707397
000180 b0 29 92 be 30 98 71 3e 56 81 59 3e 7c b0 5f be
       -0.2854743 0.23593211 0.21240744 -0.21844667
000190 60 a3 d1 3d b9 d9 ac be f3 35 13 be 29 ab 33 be
       0.102362394 -0.3375986 -0.14376049 -0.17545761
0001a0 74 f1 ab 3e ec 9b 23 3e ec d4 b7 bd fc f3 77 3d
       0.33582652 0.15977448 -0.089761585 0.060535416
0001b0 22 33 40 bd 2e 49 0f 3e 30 a3 17 be 1f 96 47 be
       -0.046923764 0.1399276 -0.14808345 -0.1949086
0001c0 55 d1 9c 3e 7d f1 91 be e4 36 17 3e 70 53 ff bd
       0.30628458 -0.28504553 0.14767033 -0.12467086
0001d0 f1 3d e4 3d c1 a9 cb bd b5 bb 16 3e 8c a0 ca 3d
       0.11144627 -0.09944487 0.14720042 0.09893903
0001e0 57 92 a6 be a7 d4 08 be d8 06 5d 3d 15 54 d9 bd
       -0.32533523 -0.1336237 0.053961605 -0.106117405
0001f0 48 08 77 3e 14 ec c9 3c 94 9d 1b bd a4 ba b4 3e
       0.24124253 0.024648704 -0.037992075 0.35298645
000200 1a d0 8c 3e 39 b1 4a be be 94 c9 3d 9b 7e 29 bd
       0.2750252 -0.19794168 0.098428234 -0.041380506
000210 24 e2 9b 3e e8 64 86 bd 08 05 f5 3d b7 a3 ca bc
       0.3044597 -0.06562215 0.1196385 -0.024736268
000220 a4 60 fe 3d a6 4f 2d 3e e8 f9 d0 3c fb 16 36 be
       0.124207765 0.16924915 0.02550979 -0.17782204
000230 8c d9 32 3e 14 28 58 3e 7e 78 bd be 2f 72 0f be
       0.174658 0.21109039 -0.3700599 -0.14008401
000240 52 42 7f be 13 94 a8 bd d2 1f 6b 3e c8 f5 ec bd
       -0.24927643 -0.08231368 0.22961357 -0.115703166
000250 9d 16 25 be 5a f1 94 be d9 ef 13 3e 0b 4e d6 3d
       -0.16121908 -0.29090387 0.14446963 0.10464104
000260 40 b7 f4 bc a1 75 27 3d 54 64 4c be 73 44 1f be
       -0.029872537 0.040883664 -0.19960147 -0.15553455
000270 cc 91 40 3e 7c af 34 bc b5 76 6c be f2 0d df 3c
       0.18805617 -0.011028167 -0.23092158 0.02722833
000280 bd 5c 4a be cf d4 2e 3e b1 51 b4 3e 62 cc 80 3e
       -0.1976194 0.17073368 0.35218576 0.25155932
000290 9d 1a 92 3e 3c 2f 71 3e 79 8f d1 bd 30 5c 86 be
       0.2853593 0.23553175 -0.10232443 -0.26242208
0002a0 69 81 87 3e 2c d7 29 3c de ce e5 3d 13 05 50 3e
       0.2646592 0.010366242 0.112210974 0.20314436
0002b0 08 9d 90 bd a6 4f 2d bd d5 5c 1d be a5 92 09 bd
       -0.07061201 -0.042312287 -0.15367444 -0.033587117
0002c0 91 7b 60 3d 2f ec 1f be 79 a3 82 be b0 4e 4e 3c
       0.054805342 -0.1561744 -0.25515345 0.012592003
0002d0 3a 44 0b 3d 33 9f 44 3e 9e 6a 02 3e 8c 54 87 bd
       0.034000613 0.19201355 0.12735984 -0.06607923
0002e0 3e 39 05 3e 73 e5 e0 bd 6a 73 9f 3e aa d9 82 3e
       0.13010117 -0.10981264 0.3114274 0.2555669
0002f0 53 ff 51 3d 6f a4 4d 3e 47 7d 5c be 27 0c a1 be
       0.051268887 0.20082258 -0.21532165 -0.31454584
000300 ae e3 51 be 4c 14 1c bd e2 7f 2e 3e c5 0a be 3d
       -0.20497009 -0.038105294 0.17040971 0.09279398
000310 35 e8 53 3e 91 e5 7f 3e 46 93 d1 3c f8 72 c7 be
       0.20694049 0.24989916 0.02558292 -0.38954902
000320 75 87 24 be 1e 2b 62 be f1 ee ca bd 50 df 98 bc
       -0.16067298 -0.2208676 -0.09908856 -0.018661171
000330 65 5d 47 bc 4b 81 51 3e c5 76 04 3e d8 7a 8a 3e
       -0.012168263 0.20459478 0.12935932 0.27046847
000340 22 f6 59 be c7 88 ca bd 40 ce d1 3d 5a ab 75 3e
       -0.21285298 -0.098893695 0.10244417 0.23991147
000350 c5 02 23 bd 61 1c ea 3c f3 55 a7 3e c5 5e 5d be
       -0.039797563 0.028577985 0.32682762 -0.21618183
000360 de 35 74 be c5 c1 82 3e 2b 3f 3b 3e 95 ce 9d bd
       -0.23848674 0.2553846 0.18285815 -0.07705418
000370 50 2c 0b be a6 71 e1 3d f8 40 5f bd d8 02 ad bc
       -0.13591123 0.11008005 -0.05450532 -0.02111952
000380 ab 70 82 bd e0 7e 39 3e 22 86 6b 3e c4 85 4c 3e
       -0.06369146 0.18114805 0.23000386 0.19972903
000390 5f b7 ee 3d 51 fe 8e 3e 1a 06 8d bc 2f f0 ee 3c
       0.11656069 0.27928403 -0.017214824 0.029167263
0003a0 8e c5 40 be 8d f8 ae 3c 16 44 8e 3e e6 47 bd 3e
       -0.18825361 0.021358753 0.2778632 0.36968917
0003b0 2b 4c cd 3e b8 05 f7 bb d1 f8 9f 3e a1 75 00 be
       0.40097174 -0.0075385235 0.3124452 -0.12544872
0003c0 65 32 c5 3d 03 45 a3 be 38 74 cd be d4 9f 5e be
       0.096287526 -0.3188859 -0.4012773 -0.21740657
0003d0 4e 9d 95 3e 6c 09 76 3e 2f e7 05 3e 63 c7 b1 3e
       0.29221576 0.24027032 0.13076471 0.34722432
0003e0 a8 6f a3 3e 93 d1 5c 3d 92 6d 70 bd d0 1f 7f be
       0.31921124 0.053910803 -0.058698244 -0.2491448
0003f0 53 1b e8 bd 56 ed 27 3e f1 32 43 3e db 7d a4 3d
       -0.11333337 0.1639913 0.19062401 0.080318175

lstm.weight_hh_l2 f4 [40, 10]
000000 e0 a2 2d bd 4d c6 74 3e 7e df b0 3e fb 8d ac 3e
       -0.042391658 0.2390377 0.3454551 0.33702073
000010 f1 c5 a7 3e 86 96 08 3e 9d e1 cb 3d a5 c2 8c be
       0.32768205 0.1333867 0.09955142 -0.27492252
000020 1b 2c 93 3e 61 bf 30 3c 42 ba ac bd 20 de 9e bd
       0.28744587 0.010787816 -0.08433963 -0.07757211
000030 5f 85 75 bc dc 2e 2a 3e 72 08 9c 3e e2 3d 97 be
       -0.014985411 0.16619438 0.30475193 -0.295394
000040 cf 27 25 bd ba e3 21 3e 4a 0f 99 3c d9 38 b9 be
       -0.040321168 0.15809527 0.018684048 -0.36176184
000050 4c b6 30 be a7 26 c5 3e 45 73 bd 3d 93 70 13 be
       -0.1725704 0.38506052 0.092505015 -0.14398412
000060 70 39 49 3e 8a 7d 36 bd a4 53 69 3e 66 00 3b bd
       0.19650817 -0.044553317 0.22785813 -0.045654677
000070 cb cf c2 3e ba 3d 3f be 80 6f 8c be 95 a7 13 3e
       0.38049158 -0.1867589 -0.27428818 0.14419396
000080 fc 9d ff bd 76 84 1a 3e 13 19 e2 bb 4d 59 cb 3b
       -0.12481305 0.15089592 -0.0068999617 0.006205714
000090 0e fd d3 bd 31 3e 5e 3e 51 e2 9b 3e e8 8f 7e 3e
       -0.10351001 0.21703412 0.30446103 0.24859583
0000a0 95 70 8f 3d 6e 84 3b 3e e9 56 bc 3d 72 a1 0f 3e
       0.07003895 0.18312237 0.09196264 0.1402643
0000b0 90 4f 7a 3e 29 9e 1f be ca 85 6c 3c 1e 32 a8 3d
       0.24444413 -0.15587677 0.014436195 0.08212684
0000c0 a9 ab 7e be a6 60 c8 3c 7f 65 bd 3d 76 bb 6f 3e
       -0.2487017 0.024460148 0.092478745 0.23411354
0000d0 ff 9e d8 3d 2c df b1 bc 0f 0e d6 bd f0 0a 9d 3d
       0.10577201 -0.021712862 -0.104519 0.07668102
0000e0 8c 84 94 3e 78 2c 5e be ef e9 f1 3d 4c 1f 3f bc
       0.29007375 -0.21696651 0.118121974 -0.011665177
0000f0 b1 64 68 be 69 1c 3f be aa 23 a3 3a 4d 3f 74 3d
       -0.2269466 -0.18663181 0.0012446542 0.05963068
000100 64 7a 26 be 06 c8 d1 bd 14 9c 3c be a2 76 ce 3d
       -0.16257626 -0.102432296 -0.18418914 0.10081221
000110 4c f7 53 3e 5e e2 eb be 5b af f3 3d ae 67 0b 3d
       0.20699805 -0.46071142 0.11898681 0.034034424
000120 17 b9 76 bd 70 90 86 3e d6 d2 9d bd b0 7b 02 3e
       -0.06023511 0.26282072 -0.077062294 0.12742496
000130 e3 56 f4 bd 38 c8 6f 3e c0 2b 90 3c 8c 11 5f 3d
       -0.11930635 0.23416221 0.017598987 0.054460093
000140 b7 be 8f be d3 24 b2 3d ec 40 6d 3d 7e df fc bc
       -0.2807519 0.0869843 0.057923242 -0.030868288
000150 0f 7f 8a 3e 07 3d a5 3e cf 23 68 be 39 49 9a 3d
       0.27050063 0.32273123 -0.2266991 0.07533497
000160 67 d1 9a 3e d4 94 a5 bd 49 79 6f 3d f0 1f d3 3e
       0.30237886 -0.08085027 0.058465276 0.41235304
000170 01 4b 4c 3e f2 ac 00 bf ee ab 7c bd ac 8a 80 3e
       0.19950487 -0.50263894 -0.061687402 0.25105798
000180 32 cb 82 be c0 13 b3 3c 2c fa fe 3d 9a 01 15 be
       -0.2554565 0.021860003 0.1245006 -0.14551392
000190 7e 42 83 3e 7f 0e 84 be d3 aa 86 3e 58 8b 01 3e
       0.25636667 -0.2579231 0.26302204 0.12650812
0001a0 13 a2 42 be b8 87 51 3d 3b 36 eb bd 59 7f 05 3e
       -0.19007139 0.051154822 -0.11484953 0.1303686
0001b0 c3 f1 90 3e 91 23 aa be c5 9b ef bd 2b 15 74 bd
       0.2830945 -0.3323026 -0.116996326 -0.0595905
0001c0 92 a0 fe 3c 21 4d eb 3d ab 0b 6a be b6 84 77 3e
       0.031082425 0.114893205 -0.22856013 0.24171719
0001d0 22 b0 8c 3d 2f ab 95 be fe 81 14 be 22 00 4e bd
       0.06869532 -0.29232165 -0.14502713 -0.050293095
0001e0 bf 50 02 3f 81 0a 23 3d e2 1f 9d 3e c9 43 da be
       0.5090446 0.03980494 0.30688387 -0.4262984
0001f0 0d c6 4a 3c dc 02 62 3e 88 9d dd bd cc fa e3 bb
       0.012376321 0.22071403 -0.10821062 -0.0069573876
000200 e8 61 87 3e 5a f3 c2 be a9 e7 e6 3c 7f ce 83 3e
       0.26441884 -0.38076288 0.028186636 0.25743482
000210 a3 cb ab bd f3 2d 12 3d 94 8b 97 3e 97 4d f0 3e
       -0.0838845 0.03568835 0.29598677 0.46934196
000220 ae bc fc 3c 5b 52 aa 3c df 56 d6 3e 36 b3 0e 3f
       0.030851688 0.020791223 0.41863152 0.55742204
000230 d2 8b 18 bd c9 96 cd 3e 2c ec 17 3e 06 ce 17 3e
       -0.037242718 0.40154102 0.14836186 0.14824685
000240 b0 61 73 3d 03 af 9d bd ce d1 52 3c 4b ac 26 be
       0.059419334 -0.076993965 0.012867404 -0.16276662
000250 05 38 be 3e d6 58 2a bd 75 86 09 3e a7 52 ae 3e
       0.37152115 -0.041588627 0.13430198 0.34047434
000260 e8 5c 86 3c 3e 2c 85 3e 22 01 1a be 54 bf 99 3c
       0.016401723 0.26010317 -0.15039495 0.01876799
000270 4e 24 1e be af 60 46 be 61 cf 8d 3d 3b b2 e5 be
       -0.15443537 -0.1937282 0.0692432 -0.44862542
000280 dd fc 63 3d 0f b1 32 3e 41 e0 a2 bd 78 30 11 3d
       0.05566107 0.17450355 -0.07952929 0.035446614
000290 e5 9a 76 bd ad a1 00 be 94 dc 8d 3d 0e cb 8b bd
       -0.060206313 -0.12561674 0.069268376 -0.06825839
0002a0 18 1f e6 3d 8f 9b 8a 3c 46 8b 8e be e1 1e fd bd
       0.112363994 0.01691988 -0.27840632 -0.12359405
0002b0 46 2b 9c 3d 3a 12 d9 ba 1c b5 b5 3c 0d 59 b7 3d
       0.07625441 -0.0016561218 0.022181086 0.08952532
0002c0 5b 07 05 3e 1f e1 b6 3c 75 d7 19 3e 70 54 5c 3e
       0.12991087 0.022324143 0.15023597 0.21516585
0002d0 d4 14 38 3b 42 05 5d be 15 b4 be 3e 65 fc 84 be
       0.0028088586 -0.21584037 0.37246767 -0.25973812
0002e0 bc 4b 29 be de 79 a2 3d bb d1 0a 3e 00 91 be 3d
       -0.16532797 0.079334006 0.13556568 0.09305
0002f0 e1 ed 85 3e aa 7d 2a 3e 4a 57 a6 b8 1c 95 ee 3e
       0.2615805 0.166495 -7.931756e-05 0.46598136
000300 c3 db a2 3d 4c 06 f1 be cf 3a 36 be 9c 4d f5 3e
       0.079520725 -0.47075117 -0.17795871 0.47910774
000310 19 51 e5 3c b0 9d cb 3c a0 68 b2 3e 05 2d 04 3f
       0.027992772 0.024855465 0.34845448 0.51631194
000320 8b 6c 7c 3e 18 10 85 3e ab 89 ae 3d b1 da c0 3e
       0.24650781 0.2598884 0.08522352 0.37666848
000330 28 64 b2 3e cb 8b a0 bc bb ef 24 be 9c 9b 8d 3e
       0.34842038 -0.019597908 -0.16107075 0.27657783
000340 31 81 68 3e f5 1f a8 bc 62 7f 41 3e 3d 93 5f 3e
       0.22705533 -0.02052305 0.18896249 0.2183351
000350 98 a9 b5 bd c2 90 f0 3d 45 7c d6 bd ac fd 0d 3e
       -0.08870238 0.1174636 -0.10472921 0.138663
000360 d0 7a e4 bd ea 98 01 3d 53 92 dc bd 24 f5 82 3d
       -0.11156237 0.03163997 -0.10770097 0.06394413
000370 2a 7d 44 3d 52 be 34 be a3 95 3b 3e 0c a1 26 be
       0.04797093 -0.17650726 0.183188 -0.16272372
000380 43 a7 1f 3e 2a 9d 2e bd fb 13 36 bc 2b a5 25 3e
       0.15591149 -0.042630352 -0.011113162 0.16176288
000390 ea 73 14 3e 4d d5 eb be 6f 47 05 bd d7 f0 ac 3e
       0.14497343 -0.46061173 -0.032538828 0.33777496
0003a0 31 a1 7c 3e e4 da b3 3c 4c c1 c1 3e fc 55 3b 3e
       0.24670865 0.021954961 0.37842786 0.18294519
0003b0 c4 5c e7 3e 05 b1 45 be 56 7f 97 3b f0 bf 29 3e
       0.45187962 -0.19305809 0.004623334 0.16577125
0003c0 64 6f a5 3e 1e 6e 05 3e 7e 4c 28 3e d3 39 c1 3e
       0.32311547 0.13030288 0.1643543 0.3773943
0003d0 14 a4 e4 bd 42 43 0d 3d 0c 0d c7 3d ac fb 56 3e
       -0.11164108 0.03448797 0.09719285 0.20994443
0003e0 72 f4 b1 3d 14 46 a1 be 86 c8 38 3e a6 00 2f bd
       0.08689202 -0.31498778 0.18045244 -0.042725228
0003f0 6b 17 d2 3e 78 87 c4 3d 04 40 cc 3e 3b b3 25 be
       0.41033491 0.09596151 0.3989259 -0.16181652

lstm.bias_ih_l2 f4 [40]
000000 ba 88 36 be 0d 1b c4 bd ff 70 3e be 61 81 4a be
       -0.17825595 -0.09575472 -0.18597792 -0.19775917
000010 20 6d 44 be 72 5a 75 be 13 5d c8 bc ad 94 66 3e
       -0.19182253 -0.23960283 -0.024458444 0.22517653
000020 03 a9 d2 3d 62 36 3a 3d 1b 6d 79 3e b8 c7 a0 be
       0.10286143 0.04546202 0.24358027 -0.31402373
000030 85 01 22 3d 9e bb 85 3e da af 3c be 42 8c d8 bd
       0.03955223 0.26119703 -0.18426457 -0.10573627
000040 5f 89 c3 bd 41 34 29 3e cd 32 fd bd 02 3f 81 3e
       -0.09547686 0.1652384 -0.12363205 0.25243384
000050 bd 8a 4e 3e 8c ad 25 3e 5a 86 3e be bd de be bb
       0.20170112 0.16179484 -0.18605939 -0.0058248923
000060 c2 c3 4a 3e ad 7f 11 3e 03 9c 33 bd b2 c6 17 3e
       0.19801238 0.1420886 -0.043849956 0.1482189
000070 e6 65 85 3e 2c 94 21 3c 5e df 78 be 6e 8e a0 be
       0.26054305 0.009861987 -0.24303958 -0.31358665
000080 29 98 00 be a6 ad 79 bc 4d 8c 4c be 1b 0a 8c be
       -0.12558044 -0.015239155 -0.19975396 -0.2735146
000090 c8 c4 72 be 2e d1 3a bd 5b 41 0c 3e 48 82 8d 3d
       -0.23707879 -0.045609646 0.13696806 0.06909615

lstm.bias_hh_l2 f4 [40]
000000 75 8e 69 3e ae b4 46 3e ff 84 e9 bd 9b c3 1d 3e
       0.2280825 0.19404861 -0.1140232 0.15406649
000010 9e 8e c5 bd 98 fd 73 3e 7c 45 54 3e bd 86 50 3e
       -0.09646343 0.23827207 0.20729631 0.20363899
000020 22 02 64 3e 86 a2 2e 3e 55 4d f8 bd 6b 86 1f be
       0.22266439 0.17054185 -0.12124125 -0.1557862
000030 b4 89 15 3f 26 e1 9f bd f3 1e cd 3e 03 58 98 3e
       0.58413243 -0.078066155 0.40062675 0.29754648
000040 51 37 94 bd 15 e0 95 3e 1a c2 ea bd 94 94 ab 3e
       -0.07237113 0.29272524 -0.11462803 0.33511794
000050 b1 f7 84 bd 42 5e 9a 3e b8 0c 92 3e df ad 66 be
       -0.06492556 0.30150038 0.2852533 -0.22527264
000060 a8 64 23 3e 32 25 7a 3e 45 a5 47 3d e3 5f 8c 3e
       0.15956366 0.24428251 0.048741598 0.27416906
000070 1c 9a 92 3e 01 e8 cc 3e 54 9e 03 3d 33 24 8a 3e
       0.286332 0.40020755 0.032133415 0.26980743
000080 10 6a f6 3e 3a 01 39 3e f1 8b bd 3d 31 80 4d be
       0.48127794 0.18066874 0.09255207 -0.20068432
000090 2e 86 88 3d 75 bf 8d 3e 01 ca 9d be fd 84 df 3e
       0.06666218 0.27685133 -0.3081818 0.4365615
