model.pth (torch, 45694 bytes, 16 tensors)

lstm.weight_ih_l0 f4 [40, 5]
0	0x3d15497d	0.036447037
1	0x3ea64749	0.3247626
2	0x3e5a757b	0.21333878
3	0xbdbfd986	-0.09367661
4	0x3e135f0a	0.14391723
5	0x3f08e836	0.53479326
6	0x3ea0963a	0.31364614
7	0x3eb5958f	0.35465667
8	0x3f1e8fe1	0.6193829
9	0xbce7b43f	-0.02828419
10	0xbde93db1	-0.1138872
11	0x3db4fc20	0.088371515
12	0x3ea170a9	0.31531265
13	0x3eb1dd15	0.34738985
14	0xbe3aef29	-0.18255295
15	0x3edbda31	0.42939904
16	0x3d06433b	0.03277896
17	0x3d8a5253	0.06753983
18	0x3e486006	0.1956788
19	0x3d3898f4	0.045067742
20	0xbe36edd3	-0.1786416
21	0x3e973497	0.2953231
22	0x3e869510	0.262856
23	0xbe9c505c	-0.3053006
24	0xbe0c535c	-0.13703674
25	0x3d0ffe7a	0.035154797
26	0xbe8e1153	-0.27747592
27	0xbe112e43	-0.14177804
28	0x3d82a7aa	0.06379636
29	0xbdf4af13	-0.11947455
30	0xbe838db4	-0.25694048
31	0x3e9ca67c	0.30595767
32	0xbd7f164b	-0.06227712
33	0xbe4e695a	-0.20157376
34	0xbb86aab3	-0.0041097044
35	0x3d06778a	0.032828845
36	0x3da0e346	0.07855849
37	0xbe4004b4	-0.18751794
38	0xbeaba508	-0.33524346
39	0xbe11a026	-0.14221248
40	0xbe2dfc41	-0.16990758
41	0x3e370401	0.17872621
42	0x3e45ecf1	0.19328667
43	0xbe8891c0	-0.26673698
44	0x3dc44d1e	0.095850214
45	0x3ccf23c3	0.025285607
46	0xbe94ae7c	-0.2903937
47	0xbe0b3459	-0.13594188
48	0xbe482898	-0.19546735
49	0xbea7e53a	-0.32792073
50	0x3d841d35	0.06450883
51	0x3c6b5389	0.014363178
52	0x3d96dda7	0.073664956
53	0x3edd1ef3	0.43187675
54	0x3e8e6f86	0.2781946
55	0x3e5cc124	0.21558052
56	0x3efbeecf	0.49205634
57	0x3eb7381b	0.35784993
58	0x3c6cec8b	0.014460693
59	0x3e2e3e70	0.17016006
60	0x3d18d75a	0.03731475
61	0xbd9e8597	-0.07740324
62	0x3dcd534e	0.10025655
63	0x3e401a23	0.1875997
64	0xbe050a50	-0.12992215
65	0x3ed5eb32	0.41781002
66	0xbce9c122	-0.028534476
67	0x3dbfe4af	0.0936979
68	0x3e430e41	0.19048406
69	0x3e3d7260	0.18500662
70	0x3d384452	0.04498703
71	0x3ed1a503	0.40946206
72	0x3db2f486	0.087380454
73	0x3e2ea19c	0.17053837
74	0x3d978156	0.07397716
75	0x3dfbdd88	0.12298113
76	0xbee0a030	-0.43872213
77	0x3d88b1c1	0.06674529
78	0x3e02d0d6	0.12774977
79	0x3d0d11c7	0.034440782
80	0x3d45e86a	0.04831735
81	0x3db6bc6a	0.08922656
82	0x3ddb1666	0.106976315
83	0x3d92f128	0.07174903
84	0xbe5e445c	-0.21705765
85	0xbe81b73d	-0.25335112
86	0xbd238bbf	-0.039928194
87	0x3e346b95	0.17619164
88	0xbbf7cb0d	-0.0075620473
89	0xbb0abd66	-0.002117002
90	0x3e8fd806	0.280945
91	0xbdf81414	-0.121132046
92	0x3df1072a	0.117689446
93	0xbd62b262	-0.0553459
94	0x3e98ed1e	0.29868406
95	0xbf1729bb	-0.5904805
96	0xbd54fc84	-0.05199863
97	0xbdcc8e39	-0.09988064
98	0x3ddb9230	0.107212424
99	0xbf01ae71	-0.506568
100	0xbe8c6b23	-0.2742549
101	0x3e3bb500	0.18330765
102	0xbe4ebff0	-0.20190406
103	0xbe359d7a	-0.17735854
104	0x3e9516fe	0.29119104
105	0xbe5db742	-0.21651939
106	0xbdb849e1	-0.08998466
107	0xbcc04b80	-0.023473501
108	0xbd997b80	-0.07494259
109	0xbdb83cc9	-0.08995969
110	0xbe8035a2	-0.2504092
111	0xbe82e4a4	-0.25565064
112	0x3e36b862	0.17843774
113	0x3e478736	0.19485173
114	0xbdafb356	-0.085791275
115	0x3e58baa6	0.2116495
116	0x3e75a159	0.2398733
117	0x3e75e704	0.24013907
118	0xbe122441	-0.14271642
119	0x3e6a1ed1	0.22863318
120	0xbe420c80	-0.18950081
121	0x3dc6a715	0.09699837
122	0xbe75034b	-0.23927037
123	0x3e8d2195	0.27564684
124	0x3df72956	0.12068431
125	0xbe8d27d1	-0.2756944
126	0x3e2e2266	0.1700531
127	0xbe740237	-0.2382897
128	0x3e0c1318	0.13679159
129	0xbe91d6f3	-0.28484306
130	0x3e417df8	0.1889571
131	0x3ebb4a24	0.36580002
132	0xbe227dc3	-0.15868287
133	0x3cc51c79	0.024061428
134	0x3e5c80ba	0.2153348
135	0xbdd33e62	-0.10314633
136	0x3d48bbd9	0.04900727
137	0x3e1d550f	0.15364479
138	0x3eb6532f	0.3561034
139	0x3e00f7a9	0.12594475
140	0xbd8cbd7e	-0.0687208
141	0x3c97b475	0.018518666
142	0x3e83f887	0.2577555
143	0x3de271c3	0.110568546
144	0x3db95613	0.090496205
145	0xbe95c476	-0.2925145
146	0xbe018eba	-0.12652102
147	0xbe5e53a0	-0.21711588
148	0xbc815b28	-0.015790537
149	0x3e8adce4	0.2712165
150	0x3e324c8c	0.17412013
151	0x3d105efb	0.03524683
152	0x3e9eeb56	0.31038922
153	0x3ed96f38	0.42467666
154	0x3eb7e03b	0.35913262
155	0xbe942950	-0.2893777
156	0xbe420991	-0.18948962
157	0x3d90e02e	0.07074009
158	0x3ea2eb15	0.31819978
159	0xbe917c6d	-0.28415242
160	0x3e47c52f	0.19508813
161	0x3eae9169	0.34095314
162	0x3e7a7138	0.24457252
163	0x3e5dcc57	0.2165998
164	0xbe37bc2e	-0.17942879
165	0xbdd058e3	-0.10173204
166	0x3e800cf6	0.25009888
167	0x3ebb20ec	0.36548555
168	0xbda224c4	-0.07917169
169	0x3d4586a6	0.048224114
170	0x3e5d7426	0.21626338
171	0x3e9ee049	0.3103049
172	0xbc5450cb	-0.012958716
173	0x3e52d44c	0.20588797
174	0x3c721165	0.014774655
175	0xbe8836ac	-0.2660421
176	0x3e7191f6	0.23590836
177	0xbe8f95a2	-0.28043848
178	0xbe4b14ef	-0.19832204
179	0x3c4f197f	0.012640356
180	0xbe1dbf1c	-0.15404934
181	0x3d2ea049	0.04263333
182	0x3e55e140	0.20886707
183	0xbe883379	-0.2660177
184	0xbdad32ff	-0.08456992
185	0xbe1ce9cb	-0.1532356
186	0x3c29e3ed	0.010369283
187	0xbc2d0843	-0.010561052
188	0xbd1804ed	-0.037114073
189	0x3e6eaf60	0.23309088
190	0x3dda3210	0.1065408
191	0x3de81111	0.1133138
192	0x3e925e01	0.28587344
193	0xbcacc838	-0.021091565
194	0x3b53c3c3	0.0032312728
195	0xbf040f71	-0.5158606
196	0xbf0112c8	-0.5041928
197	0xbeeab640	-0.4584217
198	0xbe6424b0	-0.2227962
199	0xbe0533d2	-0.13008049

lstm.weight_hh_l0 f4 [40, 10]
0	0xbc552cba	-0.013011152
1	0x3df288b8	0.11842483
2	0xbd524e92	-0.05134446
3	0x3c6a24b2	0.014290975
4	0xbe34a7d8	-0.17642152
5	0x3e4f6e90	0.2025702
6	0x3e776a71	0.24161698
7	0x3eed83f5	0.46389738
8	0x3e39a7b7	0.18130384
9	0x3e9ab62c	0.3021711
10	0x3dc2f848	0.09520012
11	0x3cda6b62	0.026662532
12	0xbe9e61d4	-0.30934012
13	0x3e94aef6	0.29039735
14	0xbbfd217a	-0.007724938
15	0xbe36383f	-0.17794894
16	0xbcf4daec	-0.029889546
17	0xbddad491	-0.10685075
18	0x3efc619c	0.4929322
19	0xbe8a448f	-0.2700543
20	0xbe0277eb	-0.12741058
21	0x3da88efc	0.08230397
22	0xbc749a71	-0.0149294
23	0x3e4f64f2	0.20253351
24	0x3e9a1a91	0.30098394
25	0xbd925091	-0.07144273
26	0xbc8337c8	-0.01601781
27	0x3d82fda9	0.06396038
28	0x3dbe0fb2	0.092803374
29	0xbe370b50	-0.17875409
30	0xbe944839	-0.28961352
31	0x3d9f61bb	0.077823125
32	0x3d8a2365	0.06745032
33	0xbdb15609	-0.08658988
34	0xbd2e2f81	-0.042525772
35	0xbede3682	-0.4340096
36	0x3e99bc9d	0.30026713
37	0x3d1dee4b	0.038557332
38	0x3e6adc42	0.22935584
39	0xbe4b2c76	-0.19841179
40	0xbe98f446	-0.29873866
41	0xbe11213d	-0.14172836
42	0x3e6b3617	0.22969852
43	0xbda1230a	-0.07868011
44	0xbe8fd227	-0.2809002
45	0xbcc6175f	-0.024181066
46	0xbc80acbc	-0.015707366
47	0x3e859aea	0.26094753
48	0xbcfcccff	-0.030859469
49	0xbe1de0e1	-0.15417816
50	0x3f25fdb5	0.6484025
51	0x3df07afd	0.11742208
52	0xbeb8226f	-0.3596377
53	0x3e50faa4	0.20408112
54	0xbe20b8fb	-0.15695564
55	0xbc3638a1	-0.0111219
56	0xbe71c4b5	-0.23610194
57	0xbd446bd2	-0.047954388
58	0xbe37d4da	-0.1795229
59	0x3f0cd524	0.55012727
60	0x3f0fa7d3	0.56115454
61	0x3d836a09	0.06416709
62	0x3d2c433b	0.042056303
63	0x3e35f522	0.17769292
64	0x3ddf0eb9	0.1089148
65	0x3be6e7c2	0.0070466707
66	0x3e441c0e	0.19151327
67	0xbe142211	-0.1446612
68	0x3ec651df	0.38734338
69	0x3ef2c1e2	0.47413546
70	0xbdad2bb2	-0.084556
71	0x3e674ea3	0.22588591
72	0xbe851ac0	-0.2599697
73	0xbd0fdb8f	-0.035121497
74	0x3e987553	0.2977701
75	0xbe1103bd	-0.14161582
76	0xbe94a82c	-0.29034555
77	0xbe8ebcc5	-0.27878395
78	0x3e900b6b	0.2813371
79	0xbdc7a1e3	-0.09747674
80	0x3ebd2683	0.36943445
81	0xbdc6cd5c	-0.09707138
82	0xbe24e97f	-0.16104697
83	0x3e68675b	0.22695677
84	0xbdf9bcd6	-0.12194221
85	0xbe8f1ec4	-0.2795316
86	0xbeb1c864	-0.34723198
87	0x3e1bc649	0.15212359
88	0x3dcb701e	0.09933494
89	0x3ef92289	0.4865916
90	0x3c783bac	0.015150946
91	0xbcc3c3bf	-0.02389705
92	0x3e1895b6	0.1490086
93	0x3d22557a	0.039632298
94	0xbe6e3a72	-0.23264483
95	0x3ee63699	0.4496353
96	0x3e025961	0.12729408
97	0xbe8972a6	-0.26845282
98	0x3e2abaee	0.1667287
99	0x3d79211c	0.06082259
100	0xbdfa0d70	-0.12209594
101	0x3c366014	0.011131305
102	0xbe0431d2	-0.1290963
103	0x3d76244d	0.060093213
104	0xbe5e1d98	-0.21690977
105	0xbdb83914	-0.08995262
106	0x3df37fea	0.11889632
107	0x3f0dbea9	0.5536905
108	0x3e74df67	0.23913346
109	0xbe19fd29	-0.15037979
110	0xbe97c976	-0.2964589
111	0xbee414b4	-0.44547045
112	0xbe8804cb	-0.26566157
113	0x3d652402	0.055942543
114	0xbcee832c	-0.029115282
115	0x3d1f2c7b	0.03886078
116	0x3d3b0c40	0.04566598
117	0xbd56a1f9	-0.052400563
118	0x3e624e38	0.2210015
119	0x3d0cec93	0.034405302
120	0x3dea4f99	0.11440963
121	0x3eb6021a	0.35548478
122	0x3e76a34d	0.24085732
123	0x3e742506	0.23842248
124	0x3e041f1d	0.12902494
125	0xbe4fc54e	-0.2029011
126	0xbd7db2a3	-0.06193794
127	0x3e4f84d7	0.20265518
128	0x3ce0ca3c	0.027440183
129	0x3d1e4b08	0.038645774
130	0x3e07a15b	0.13245146
131	0x3cc3f8f6	0.023922425
132	0xbecfc7e1	-0.40582183
133	0x3eaf8779	0.34283045
134	0x3ea791fb	0.32728562
135	0xbe3f5895	-0.18686135
136	0x3ec51e43	0.3849965
137	0xbd34475a	-0.04401336
138	0x3cfc1536	0.030771833
139	0xbe34e6cb	-0.17666166
140	0xbd67bdc5	-0.056577463
141	0x3e3a8c97	0.18217693
142	0x3dcf4a44	0.10121587
143	0x3ddf0377	0.10889333
144	0xbea4c00a	-0.32177764
145	0xbe3492f9	-0.1763419
146	0xbdb8ffae	-0.09033142
147	0xbc274cd4	-0.010211188
148	0x3e9f3d9c	0.31101692
149	0xbd80be08	-0.062862456
150	0x3ef3c73d	0.47612944
151	0x3d54a115	0.051911432
152	0x3dc54a61	0.09633327
153	0xbdca78dd	-0.09886334
154	0xbdccf588	-0.10007769
155	0x3ed49165	0.41517177
156	0xbe94c91f	-0.29059693
157	0xbe90a690	-0.28252077
158	0xbe7459ae	-0.23862335
159	0x3ebc10e6	0.36731642
160	0x3e1b0389	0.15138067
161	0xbe9b38b9	-0.30316713
162	0xbe91f015	-0.2850348
163	0xbe0c6c5f	-0.13713215
164	0xbb59d575	-0.0033238803
165	0xbde07068	-0.1095894
166	0x3e6e20b1	0.23254658
167	0xbd9551c9	-0.0729099
168	0x3eb0146b	0.34390578
169	0x3e2239fa	0.15842429
170	0xbdc3705e	-0.09542917
171	0xbea534c7	-0.32266828
172	0x3e727c34	0.23680192
173	0xbe19562e	-0.14974281
174	0x3c1a200b	0.009407054
175	0x3e89eede	0.26940054
176	0x3dcb484d	0.099259
177	0x3e1f3c54	0.15550357
178	0x3e563912	0.20920208
179	0xbd8c226a	-0.068425015
180	0x3e9b743b	0.30362114
181	0x3e638c34	0.22221452
182	0xbeb7eb18	-0.3592155
183	0x3ec8bc04	0.39205945
184	0x3b0dc095	0.002162968
185	0x3dcdce0a	0.100490645
186	0xbe13e1f4	-0.14441663
187	0x3d9a6728	0.07539207
188	0xbe79744d	-0.24360771
189	0xbe2568fd	-0.16153331
190	0xbe287180	-0.16449547
191	0xbd593e09	-0.053037677
192	0x3e3b5ce1	0.18297149
193	0x3e02d456	0.12776312
194	0xbe53c7ee	-0.20681736
195	0x3f1b2026	0.6059593
196	0xbedafac4	-0.42769444
197	0xbe8eca97	-0.2788894
198	0xbbdd5315	-0.006754289
199	0x3ec55718	0.3854301
200	0xbc32bd09	-0.010909327
201	0xbef8ae0b	-0.48570284
202	0x3e4314e0	0.19050932
203	0x3d9066e3	0.07050874
204	0x3e7382cb	0.23780362
205	0x3e48e97e	0.1962032
206	0x3eae1fa9	0.3400853
207	0x3e69b7b1	0.22823979
208	0x3d4b0816	0.04956826
209	0x3dab0594	0.08350673
210	0x3e1eb4ce	0.15498659
211	0x3ebe1bdf	0.3713064
212	0x3e24f783	0.16110043
213	0xbe33f769	-0.17574848
214	0xbd7c5381	-0.061603073
215	0xbe17d25b	-0.14826338
216	0xbeafb492	-0.34317452
217	0xbe6e896c	-0.2329461
218	0xbdec8d6a	-0.1155041
219	0xbe87f722	-0.26555735
220	0xbdd21824	-0.10258511
221	0xbe86c9a3	-0.26325712
222	0x3e8314e0	0.25601864
223	0xbe671a24	-0.22568566
224	0x3ebb6464	0.3660003
225	0x3e02fc23	0.12791495
226	0x3da04499	0.07825584
227	0xbde37102	-0.11105539
228	0xbe29768f	-0.16549133
229	0xbe20553f	-0.15657519
230	0x3e2224c5	0.15834339
231	0xbe7fe2e5	-0.24988897
232	0xbeb503d5	-0.35354486
233	0xbc7b1f6b	-0.015327315
234	0xbf040041	-0.5156289
235	0xbe3b2f06	-0.18279657
236	0x3e67a3dd	0.22621103
237	0xbca3ff95	-0.020019332
238	0xbd0fefc0	-0.035140753
239	0xbd4eb8d0	-0.05046922
240	0x3ce5020e	0.027955081
241	0xbdd94200	-0.106082916
242	0xbd5d62d0	-0.054049313
243	0xbe7b941f	-0.24568222
244	0x3e9de1ec	0.30836427
245	0xbe8a5ed1	-0.27025464
246	0x3cf305c3	0.029665833
247	0x3dc83450	0.09775603
248	0xbe75a3ae	-0.2398822
249	0x3ec6193b	0.38691124
250	0xbe7bc884	-0.2458821
251	0x3d3a94b7	0.04555198
252	0x3e028dbf	0.12749384
253	0x3e5a4948	0.21317017
254	0xbd9fddca	-0.07805975
255	0xbc9ee599	-0.01939659

lstm.bias_ih_l0 f4 [40]
0	0xbe7299d6	-0.23691496
1	0xbe4a250e	-0.19740698
2	0xbe24f005	-0.16107185
3	0xbe25b90e	-0.16183874
4	0xbe63e32f	-0.22254632
5	0x3db26c76	0.087120935
6	0x3e0944ef	0.13405202
7	0x3e181e4d	0.14855309
8	0x3e83e764	0.25762475
9	0x3df6d9ce	0.12053262
10	0xbd882d83	-0.06649306
11	0x3e5810d8	0.21100175
12	0x3da17c11	0.07884992
13	0x3d76d3fb	0.060260754
14	0x3e2929f9	0.16519918
15	0x3cad5112	0.021156821
16	0xbe8018ef	-0.25019023
17	0x3e824450	0.25442743
18	0x3de11ede	0.109922156
19	0x3eb03f54	0.34423316
20	0x3d0fe3b9	0.035129283
21	0xbdcbb830	-0.0994724
22	0x3e8315b3	0.25602493
23	0xbe382cdf	-0.17985867
24	0x3e700b94	0.23441917
25	0x3dbde526	0.09272222
26	0xbd6b4f4a	-0.057448663
27	0xbda6cb8a	-0.08144291
28	0x3df93fb8	0.121703565
29	0xbd726b5d	-0.05918442
30	0x3e592ddb	0.21208899
31	0x3dc2e011	0.095153935
32	0xbdb08a96	-0.08620183
33	0xbe859d5f	-0.26096627
34	0x3e1576f0	0.14596152
35	0x3d92f327	0.07175284
36	0x3ea04820	0.31305027
37	0x3e8cfa22	0.27534586
38	0xbd4fd8f2	-0.050744005
39	0x3b17435a	0.0023080916

lstm.bias_hh_l0 f4 [40]
0	0xbc5474be	-0.012967287
1	0x3e86f7df	0.26360986
2	0x3d272b5e	0.040812843
3	0x3c289773	0.010290015
4	0xbe08a4b8	-0.13344085
5	0xbdc9fa8c	-0.09862241
6	0xbdb50e0a	-0.08840568
7	0x3e532a49	0.206216
8	0xbdbd0129	-0.09228737
9	0xbe1924de	-0.1495547
10	0x3f02bd45	0.5107005
11	0xbd8c89ae	-0.06862198
12	0xbde3aeb1	-0.11117304
13	0xbc076c47	-0.008265561
14	0xbdf45c46	-0.11931662
15	0xbe8c8ffd	-0.27453604
16	0x3de8685e	0.113480315
17	0x3ebd91b9	0.3702524
18	0xbe3a5a69	-0.18198551
19	0x3e5368a3	0.20645384
20	0xbde07cea	-0.109613255
21	0x3da75f28	0.081724465
22	0xbd9a691c	-0.07539579
23	0xbe7b21e7	-0.24524651
24	0x3cf3726b	0.029717645
25	0xbe1dcc1f	-0.15409897
26	0xbca82c63	-0.020528978
27	0xbe84d263	-0.25941762
28	0xbe992a62	-0.29915148
29	0x3d952099	0.07281608
30	0xbe041de5	-0.12902029
31	0x3d657983	0.056024086
32	0xbb31adde	-0.002711169
33	0x3e8d66d5	0.27617517
34	0xbd504f1e	-0.050856702
35	0x3de851e3	0.11343744
36	0xbe0c832e	-0.13721916
37	0xbe5b4e1c	-0.21416515
38	0x3c0e21c6	0.008675044
39	0xbe23f4e8	-0.16011393

lstm.weight_ih_l1 f4 [40, 10]
0	0x3e2512d8	0.1612047
1	0x3e326173	0.17419986
2	0xbb25b929	-0.0025287366
3	0x3ebe761c	0.37199485
4	0xbedad8a2	-0.42743403
5	0x3e8d42ed	0.27590123
6	0x3e92787e	0.28607553
7	0xbe806773	-0.25078925
8	0xbe16ceab	-0.14727275
9	0xbd883155	-0.06650034
10	0xbe5cc6cc	-0.2156021
11	0xbe0d6898	-0.1380943
12	0xbe971f07	-0.2951586
13	0x3eb64cd2	0.35605484
14	0x3ddcf548	0.10788971
15	0xbe537897	-0.2065147
16	0xbe3dffa7	-0.18554555
17	0xbcdb21ca	-0.02674951
18	0x3e9ebc2f	0.31002948
19	0x3e8ddd32	0.2770782
20	0x3eaebf56	0.34130353
21	0x3de3eb0a	0.111288145
22	0x3daac241	0.08337832
23	0xbcbfb1f5	-0.023400286
24	0x3d6c5536	0.05769845
25	0xbeaf5d8a	-0.34251052
26	0x3db9c988	0.09071642
27	0x3df2ee8e	0.11861907
28	0xbe5aa5b2	-0.2135227
29	0xbdbb0895	-0.09132496
30	0xbe2266c9	-0.15859522
31	0xbe211994	-0.15732414
32	0x3e05dd76	0.13072762
33	0x3e895847	0.26825163
34	0x3dbcd627	0.09220534
35	0xbcc4e86e	-0.024036612
36	0x3e521aea	0.2051808
37	0xbdaf8497	-0.085702114
38	0xbde2165f	-0.11039423
39	0xbf0a7989	-0.540917
40	0x3e3d802d	0.18505926
41	0x3e045459	0.12922801
42	0x3da5f0d0	0.08102572
43	0x3e1baca3	0.15202574
44	0xbc4dae6c	-0.012553792
45	0x3e928c47	0.28622648
46	0xbe3e05d7	-0.18556915
47	0x3da88d98	0.08230132
48	0x3e862d31	0.26206353
49	0xbccf677f	-0.025317905
50	0xbd1d85c2	-0.03845764
51	0x3ecbc72a	0.39800388
52	0x3e8e8545	0.27836052
53	0xbe8a37d1	-0.2699571
54	0x3f09d7c9	0.53844887
55	0x3e11de72	0.14245012
56	0xbc7e53c5	-0.015522902
57	0x3e2fe798	0.1717819
58	0x3c269bbc	0.010168966
59	0xbe0844bb	-0.13307469
60	0x3e381480	0.1797657
61	0xbdf5cb76	-0.12001698
62	0xbe203fa8	-0.15649283
63	0x3e833dad	0.25632992
64	0x3e6f05ee	0.23342106
65	0x3e26df36	0.16296086
66	0xbe87b21d	-0.26503077
67	0x3e1506d2	0.14553383
68	0xbd927cfc	-0.07152745
69	0x3e85d6cc	0.2614044
70	0x3ee1c09a	0.44092256
71	0x3d5d89ae	0.05408638
72	0xbe8bbac0	-0.27290916
73	0x3e8df586	0.27726382
74	0xbe913276	-0.2835881
75	0x3e679617	0.22615848
76	0xbd1c376a	-0.038138784
77	0x3e64b1c5	0.22333439
78	0x3e1b8f16	0.15191302
79	0xbe109855	-0.1412061
80	0x3b247dab	0.0025099318
81	0xbe39a248	-0.18128312
82	0xbe66d8fe	-0.22543713
83	0x3eaa831c	0.33303154
84	0xbd384c4f	-0.04499465
85	0xbe8f75ac	-0.28019464
86	0xbda57d76	-0.080805704
87	0x3db8ce45	0.09023718
88	0x3e1b50ba	0.15167513
89	0x3e49c786	0.19705018
90	0x3e72b7b4	0.2370289
91	0x3e7db7fa	0.24777213
92	0xbecd3d6c	-0.40085924
93	0xbe13c44d	-0.14430352
94	0xbe9c5d52	-0.30539948
95	0xbe32e2f0	-0.17469382
96	0x3dceb1f8	0.100925386
97	0xbe95c7be	-0.29253954
98	0x3d93740b	0.07199868
99	0xbe4edf99	-0.20202483
100	0xbdf38722	-0.11891009
101	0x3e1a9074	0.15094167
102	0x3df09716	0.11747567
103	0xbd413205	-0.047166843
104	0xbee0fd54	-0.43943274
105	0x3e822c8a	0.25424606
106	0x3dcea494	0.100899845
107	0xbe918593	-0.28422222
108	0x3e3f187f	0.18661688
109	0xbdab6cfb	-0.08370396
110	0x3de8eb2a	0.11372979
111	0xbdf26a7d	-0.11836717
112	0xbe70f216	-0.23529848
113	0x3df0889c	0.11744806
114	0xbe80da6e	-0.2516665
115	0x3db56515	0.088571705
116	0x3e07bc2e	0.13255379
117	0x3e01277f	0.12612723
118	0x3ec2940e	0.38003582
119	0xbe8afdb5	-0.27146688
120	0x3ea5d899	0.32391813
121	0xbe931db0	-0.28733587
122	0xbd28b183	-0.041184913
123	0xbd825587	-0.06363969
124	0x3dd10552	0.10206093
125	0x3e0d3a19	0.13791694
126	0xbe3e785c	-0.18600601
127	0xbe2e4ee9	-0.1702229
128	0xbd89b6aa	-0.067242935
129	0x3db9862f	0.090587966
130	0x3e5526f9	0.20815648
131	0xbf2af59a	-0.6678101
132	0x3d298531	0.041386787
133	0x3eda9c22	0.42697245
134	0xbd213a89	-0.039362464
135	0x3d6356ef	0.05550283
136	0x3e438ce3	0.19096713
137	0xbe12ef2e	-0.14349052
138	0x3e69ddd6	0.2283853
139	0xbee150eb	-0.44007048
140	0x3b822815	0.0039720633
141	0x3e382085	0.17981155
142	0x3ea1df0d	0.31615487
143	0xbdee0f74	-0.11624041
144	0x3d5e2d42	0.05424238
145	0x3d467486	0.04845097
146	0x3e020fa8	0.12701285
147	0xbb2db36b	-0.0026504647
148	0x3d90b651	0.07066024
149	0x3d96f6f7	0.073713236
150	0x3edbd882	0.4293862
151	0xbc272b6a	-0.010203222
152	0x3e6255dd	0.22103067
153	0x3dccd510	0.10001576
154	0x3e8bafc0	0.27282524
155	0x3e67ad88	0.2262479
156	0x3dee3d1f	0.11632752
157	0xbcfd845c	-0.030946903
158	0xbe3f1974	-0.18662053
159	0xbdf8e8bf	-0.12153768
160	0xbcb43503	-0.021997934
161	0x3e19567c	0.14974397
162	0xbdbd69f7	-0.09248727
163	0x3e18ae3c	0.14910215
164	0x3ea2e093	0.31811962
165	0x3e0aab69	0.1354195
166	0x3db0ad96	0.08626859
167	0x3e95da3b	0.2926806
168	0xbe09bc82	-0.13450816
169	0x3ec4ca61	0.38435653
170	0x3e5af51d	0.21382566
171	0x3cf5feb7	0.030028684
172	0xbe8a72cc	-0.27040708
173	0xbc42ebe0	-0.011897057
174	0xbdddcc0d	-0.10829935
175	0xbe0da3b6	-0.13831982
176	0x3c8a7fbe	0.016906615
177	0x3e1c69dc	0.15274757
178	0x3e13042d	0.14357062
179	0x3e6c357c	0.23067278
180	0x3e674dba	0.22588244
181	0xbde74a18	-0.11293429
182	0xbd409b58	-0.047023147
183	0x3e7f9731	0.24960019
184	0xbda59509	-0.08085067
185	0x3d3fc62a	0.046819843
186	0xbe89081b	-0.26763996
187	0x3e21a70a	0.15786377
188	0x3e5f4ac2	0.21805862
189	0xbe18ee1b	-0.1493458
190	0x3dde18b3	0.10844555
191	0x3cde6207	0.027146352
192	0xbd2c0fda	-0.042007305
193	0x3e0cacdd	0.13737817
194	0xbd281004	-0.0410309
195	0xbc254c1e	-0.0100889485
196	0x3ce0870d	0.027408147
197	0xbe1325a9	-0.14369835
198	0x3e08c25f	0.13355397
199	0xbe96ee3f	-0.29478642
200	0x3c3558fe	0.011068581
201	0xbe4cf44e	-0.2001507
202	0xbd072a2f	-0.032999214
203	0xbe1f304a	-0.15545765
204	0x3d2d83fb	0.042362195
205	0x3ea6a7ff	0.32550046
206	0xbe7f1333	-0.24909668
207	0xbdd8a69b	-0.105786525
208	0x3b6b188e	0.003587279
209	0x3e2f9cc9	0.17149653
210	0xbd11e4d6	-0.035618626
211	0xbe8e1dde	-0.27757162
212	0x3d5c74eb	0.05382244
213	0x3cd3d578	0.025858626
214	0xbeab27c6	-0.33428782
215	0xbea429c6	-0.3206312
216	0xbe049b20	-0.129498
217	0xbdcb3196	-0.09921567
218	0x3d4d2d2c	0.050091907
219	0xbe920ca9	-0.28525284
220	0xbda6e724	-0.08149555
221	0xbe0b9e93	-0.1363471
222	0xbe2ebb32	-0.17063597
223	0x3c76e1a6	0.015068447
224	0xbd8929f8	-0.06697458
225	0xbe1a1f5c	-0.15051025
226	0x3e836135	0.256601
227	0x3e82577c	0.2545737
228	0x3ea5b32d	0.32363263
229	0xbea615cd	-0.32438508
230	0x3edd2b6c	0.4319719
231	0xbee00936	-0.43757027
232	0x3d2548f5	0.04035278
233	0x3da63a3d	0.08116577
234	0x3e7dfb5e	0.2480292
235	0xbded5950	-0.11589301
236	0x3d422f5a	0.04740844
237	0xbe0bf23c	-0.13666624
238	0xbe71312a	-0.23553911
239	0xbd6ea08a	-0.05825857
240	0x3e718418	0.23585546
241	0x3d6b3ca8	0.057430893
242	0xbd237e1b	-0.039915185
243	0xbe5f97b5	-0.21835215
244	0x3e343c2b	0.17601077
245	0xbceefdc2	-0.029173736
246	0x3d54dfa2	0.051971085
247	0xbe0add71	-0.13561036
248	0x3e58dad3	0.21177225
249	0xbe9d2c64	-0.3069793
250	0xbd731ba0	-0.059352517
251	0x3e8354d3	0.25650653
252	0x3d33e307	0.043917682
253	0x3e4dc95a	0.20096341
254	0xbebd1feb	-0.36938414
255	0x3e0a592b	0.13510577

lstm.weight_hh_l1 f4 [40, 10]
0	0xbe62dee2	-0.22155336
1	0x3aea955d	0.0017897297
2	0xbd9e0a3a	-0.07716794
3	0xbdbd4dad	-0.09243331
4	0xbd492148	-0.049104005
5	0x3e8015da	0.2501667
6	0x3ce139a3	0.027493304
7	0xbdd17e9e	-0.102292284
8	0xbd47a28f	-0.048739012
9	0xbe570b34	-0.21000367
10	0x3de17f95	0.110106625
11	0x3e85b881	0.26117328
12	0x3d54826d	0.051882196
13	0xbe4d57ac	-0.20052975
14	0x3e63969f	0.22225426
15	0x3e7a36c7	0.24434958
16	0xbd1d0d80	-0.038342953
17	0x3dda0abb	0.10646578
18	0xbde634a3	-0.112405084
19	0x3e66c7d2	0.22537163
20	0xbdf365fd	-0.11884687
21	0x3e156604	0.14589697
22	0xbc959863	-0.01826114
23	0x3ea57f6a	0.32323772
24	0xbd152753	-0.036414456
25	0xbe69a42a	-0.2281653
26	0x3c2071bc	0.009792741
27	0x3e50575d	0.20345826
28	0x3db31784	0.087447196
29	0xbc80faf6	-0.015744668
30	0x3e6cee5f	0.23137806
31	0x3e9da28f	0.30788085
32	0x3e80e282	0.25172812
33	0x3df22e99	0.11825294
34	0x3d472832	0.048622318
35	0x3da668a1	0.08125425
36	0x3e9c9b32	0.30587155
37	0xbe42ac61	-0.1901107
38	0xbcc8d9b1	-0.024517866
39	0xbcdd74c5	-0.02703322
40	0xbe2af5b7	-0.16695295
41	0xbe8e5a65	-0.2780334
42	0xbe6de59f	-0.23232125
43	0x3e963de3	0.2934409
44	0x3e54b5e9	0.20772518
45	0xbe45d228	-0.1931845
46	0x3c3a00e6	0.011352753
47	0x3e30f1ec	0.17279786
48	0xbe3b18ba	-0.18271151
49	0x3dfed290	0.12442505
50	0xbd9389af	-0.072039954
51	0x3e59ea4a	0.2128078
52	0xbde4ae9a	-0.11166115
53	0x3e909dba	0.28245336
54	0x3e0f0627	0.1396719
55	0x3adf8c05	0.0017055279
56	0x3ce5102f	0.027961819
57	0xbe916c48	-0.28402925
58	0x3eaaf94f	0.33393332
59	0x3dd23b26	0.10265188
60	0xbe92609a	-0.28589326
61	0xbe431377	-0.19050394
62	0x3e88079c	0.26568305
63	0xbe20e009	-0.15710463
64	0xbe55bb82	-0.2087231
65	0xbe214b4a	-0.15751377
66	0x3e9007d2	0.28130966
67	0xbe34d9b1	-0.17661168
68	0x3ddc8722	0.10767962
69	0xbe974720	-0.29546452
70	0xbe57b37a	-0.21064559
71	0x3d596811	0.05307776
72	0x3d828d2e	0.06374584
73	0x3e4315ee	0.19051334
74	0xbdb734a1	-0.08945585
75	0x3d7df981	0.062005524
76	0x3e0f1b2b	0.13975208
77	0xbd743c1b	-0.059627634
78	0xbcbd9114	-0.023140468
79	0xbe5b30d9	-0.21405353
80	0xbddf32a4	-0.10898331
81	0xbe4669f9	-0.19376363
82	0x3e8a2bfc	0.26986682
83	0x3edfbadd	0.43697253
84	0x3dedaf94	0.116057545
85	0x3e018ddb	0.1265177
86	0x3e9487c2	0.29009825
87	0x3c7bc091	0.015365736
88	0x3de48888	0.11158854
89	0xbca4ddfa	-0.020125378
90	0x3e7488cf	0.23880313
91	0xbd55afbd	-0.05216955
92	0x3e3df8c4	0.18551928
93	0x3ed62b52	0.41829926
94	0xbe46a846	-0.19400129
95	0xbdabf110	-0.083955884
96	0x3d13077f	0.03589582
97	0xbe7a044b	-0.244157
98	0xbe807e6e	-0.25096458
99	0x3e846285	0.25856414
100	0xbe82a86d	-0.25519124
101	0x3e1db0ba	0.15399447
102	0x3de354d6	0.111001655
103	0xbcc7e7a2	-0.024402443
104	0x3e2d831f	0.1694455
105	0xbe945de9	-0.28977898
106	0xbe39d2a1	-0.18146755
107	0xbe2a8e43	-0.16655831
108	0xbeaecc6e	-0.34140342
109	0x3e8ce541	0.27518657
110	0xbecb20f0	-0.39673567
111	0x3e9c3c4a	0.30514747
112	0xbd70d739	-0.058799002
113	0x3e756aac	0.23966473
114	0xbe8b0152	-0.27149445
115	0x3d81910c	0.063264936
116	0x3e038219	0.12842597
117	0xbec31b34	-0.38106692
118	0xbea4ff80	-0.3222618
119	0x3d842308	0.06451994
120	0x3d03e4cb	0.032200616
121	0xbe7c5d60	-0.24644995
122	0x3d785886	0.060631298
123	0x3edae3bb	0.4275187
124	0x3e905214	0.2818762
125	0xbdd50bc2	-0.10402633
126	0x3c75ba84	0.014998082
127	0x3e727e80	0.23681068
128	0xbd5265de	-0.05136668
129	0x3eb70a60	0.35750103
130	0x3dfa7146	0.122286364
131	0x3ed8efed	0.4237055
132	0x3eaced07	0.33774588
133	0xbe0fb790	-0.14034867
134	0xbe946041	-0.28979686
135	0xbe3fb77d	-0.18722339
136	0xbe252a2f	-0.16129373
137	0xbe7f13d2	-0.24909905
138	0xbeb7e513	-0.35916957
139	0x3edc5f3c	0.43041408
140	0x3e844fbd	0.25842085
141	0xbe25fba0	-0.16209269
142	0xbe651c99	-0.2237419
143	0x3ed4d9cf	0.41572425
144	0xbe880426	-0.26565665
145	0x3e0bae69	0.13640751
146	0x3bbf2370	0.005833082
147	0x3d27ae95	0.04093798
148	0xbdaec128	-0.085329354
149	0xbe55b5a4	-0.20870072
150	0x3d4ac00f	0.049499568
151	0x3dcfecf1	0.10152615
152	0xbe0b5813	-0.13607816
153	0xbdc27a51	-0.09495986
154	0x3ca03b69	0.019559579
155	0xbdc372f0	-0.09543407
156	0xbd644ba8	-0.055736214
157	0xbe8bd200	-0.27308655
158	0x3d449432	0.047992893
159	0xbdd51fd7	-0.104064636
160	0x3dee9f85	0.1165152
161	0x3e40a84b	0.18814199
162	0x3e396085	0.18103226
163	0x3ee59f3f	0.44848058
164	0x3dd940b2	0.10608043
165	0xbe262b13	-0.16227369
166	0x3e3a76ad	0.18209334
167	0xbeb039b7	-0.34419033
168	0xbe0053d2	-0.12531975
169	0xbe0d9816	-0.13827547
170	0x3e89652d	0.26835003
171	0xbd9ac917	-0.07557886
172	0xbe5ba3a7	-0.21449147
173	0xbd6f86ff	-0.05847835
174	0xbe5d10f3	-0.21588497
175	0xbd95a8b9	-0.07307572
176	0xbe4e481b	-0.20144694
177	0xbd817190	-0.063204885
178	0x3e051844	0.12997538
179	0x3e0d3ffa	0.13793936
180	0x3dfe8d61	0.1242931
181	0xbe230026	-0.15918025
182	0x3eaa8b14	0.33309233
183	0x3e90239a	0.28152162
184	0x3e878ea2	0.26476008
185	0xbe3c888d	-0.18411465
186	0x3e63f148	0.2226001
187	0xbeb1cec8	-0.34728074
188	0x3e307ce2	0.17235139
189	0x3dfc422e	0.1231731
190	0x3e638bc1	0.2222128
191	0x3e6994b5	0.22810633
192	0xbe49fd52	-0.1972554
193	0x3e0d29d5	0.13785489
194	0xbdfc9326	-0.12332754
195	0xbe8fc5ff	-0.28080747
196	0xbd5270cb	-0.0513771
197	0x3d39a4b6	0.045323096
198	0xbe7cac53	-0.24675111
199	0x3e968feb	0.29406676
200	0xbde94623	-0.11390331
201	0xbe79c82c	-0.24392766
202	0xbe0b8421	-0.13624622
203	0x3eac9766	0.33709258
204	0x3e2e0c56	0.16996893
205	0xbe8b76df	-0.2723913
206	0xbe88925f	-0.26674172
207	0x3e40f528	0.1884352
208	0x3e062a84	0.13102156
209	0x3df72ee8	0.120694935
210	0xbe459f00	-0.19298935
211	0x3d943155	0.07235972
212	0xbd3b51b8	-0.04573223
213	0x3d455d33	0.048184585
214	0xbbeb9d16	-0.007190357
215	0x3e65ce90	0.22442079
216	0x3e895c2c	0.26828134
217	0xbeb46b09	-0.3523791
218	0xbd85dd38	-0.06536335
219	0x3e8fb6f3	0.28069267
220	0xbe1eb272	-0.15497759
221	0xbd35a4ce	-0.044346623
222	0xbd92793b	-0.07152029
223	0xbdb87eac	-0.09008536
224	0xbde02712	-0.10944952
225	0xbd593515	-0.05302914
226	0xbe23d156	-0.15997824
227	0xbec09a53	-0.3761774
228	0x3de8e2d9	0.11371393
229	0xbc89834c	-0.01678624
230	0x3e316d60	0.1732688
231	0x3e6d245c	0.23158401
232	0x3dde46f7	0.10853379
233	0x3e10a84b	0.14126699
234	0xbe7fc7dd	-0.24978586
235	0x3e1738ce	0.14767763
236	0x3c74d4b9	0.014943295
237	0xbe99b5e8	-0.30021596
238	0xbd28dd88	-0.041226894
239	0x3df01008	0.11721808
240	0xbdc9d048	-0.098541796
241	0x3deed73d	0.11662147
242	0xbe206670	-0.15664077
243	0x3e7bca38	0.24588859
244	0x3cd84ce6	0.026403856
245	0xbe42a53b	-0.19008343
246	0x3d9ae911	0.07563985
247	0x3cdfa51c	0.02730041
248	0x3dd70458	0.104988754
249	0xbd081263	-0.03322066
250	0x3e0a101e	0.1348271
251	0x3dfc769e	0.12327312
252	0xbc0c4bce	-0.008562995
253	0xbe2fb34d	-0.17158242
254	0x3e8b4897	0.2720382
255	0xbd8be8f2	-0.0683154

lstm.bias_ih_l1 f4 [40]
0	0x3e67f8bb	0.22653477
1	0x3d83fe15	0.06444947
2	0xbeab4dcc	-0.33457792
3	0x3eb6b376	0.35683793
4	0x3e561382	0.20905879
5	0x3e24c403	0.16090398
6	0x3e6e02cd	0.23243256
7	0x3cd152c7	0.025552167
8	0x3e7c2305	0.24622734
9	0xbdf22a88	-0.118245184
10	0x3e64ad44	0.2233172
11	0xbdef637c	-0.11688897
12	0xbea3213d	-0.31861296
13	0x3edaf124	0.427621
14	0x3e4bbe04	0.19896704
15	0x3ca7ec15	0.020498315
16	0x3e44cc9e	0.1921868
17	0xbe2cc6f2	-0.16872767
18	0xbe4217d0	-0.18954396
19	0xbdb961c0	-0.090518475
20	0xbc651ec3	-0.013984385
21	0x3e12f16f	0.14349912
22	0x3e2ffcca	0.17186275
23	0xbd4f7f2c	-0.05065839
24	0xbdc6dc41	-0.09709979
25	0xbdd748b6	-0.105119154
26	0xbe04d4b8	-0.12971771
27	0xbbbf9d9d	-0.0058476464
28	0x3eb1aa36	0.34700173
29	0x3c303ee7	0.010757185
30	0x3e96b868	0.29437566
31	0x3e3a3807	0.18185435
32	0xbe87f50b	-0.2655414
33	0x3eb57bcd	0.35446015
34	0xbe19d793	-0.15023641
35	0xbd432cd6	-0.04765018
36	0xbe8e6dd1	-0.27818158
37	0xbe38accb	-0.18034665
38	0xbd879c04	-0.066215545
39	0x3e058e81	0.13042642

lstm.bias_hh_l1 f4 [40]
0	0xbde92179	-0.113833375
1	0xbe836a04	-0.2566682
2	0x3e34fb25	0.17673929
3	0x3e05c794	0.13064414
4	0xbe0b4f96	-0.13604578
5	0xbe50e6cb	-0.2040054
6	0x3c8c0bd1	0.017095478
7	0x3ea741a2	0.3266726
8	0xbe88ddc1	-0.26731685
9	0xbdab1d2e	-0.08355175
10	0x3e4afd6b	0.19823234
11	0xbdb8e11b	-0.090273105
12	0x3e381304	0.17976004
13	0x3eb87ea1	0.3603411
14	0x3e235976	0.15952095
15	0x3e5a95c1	0.21346189
16	0xbe73357c	-0.23750871
17	0x3eb180c7	0.34668562
18	0xbe832b4b	-0.25618967
19	0x3e3fa92d	0.18716879
20	0xbe0d38c4	-0.13791186
21	0x3dd75528	0.10514289
22	0x3e3501f4	0.17676526
23	0x3d65eaac	0.056132004
24	0x3cbbd222	0.022927348
25	0xbe879284	-0.2647897
26	0xbe69ba30	-0.22824931
27	0x3d1479d9	0.036249015
28	0xbe6b225b	-0.22962324
29	0x3e2437c8	0.16036904
30	0x3e9de904	0.3084184
31	0xbe173794	-0.14767295
32	0xbe477eb6	-0.1948193
33	0xbd05cb1c	-0.032664403
34	0x3e30fb31	0.17283322
35	0xbdc9e516	-0.09858148
36	0xbe976071	-0.29565766
37	0xbe90fd47	-0.28318235
38	0x3e3ad234	0.18244249
39	0xbe8d5725	-0.27605549

lstm.weight_ih_l2 f4 [40, 10]
0	0x3ee13bd8	0.4399097
1	0xbe7b72b0	-0.24555469
2	0xbe6011ba	-0.21881762
3	0x3d9dba85	0.077015914
4	0x3e133f8b	0.14379708
5	0x3d7815a7	0.060567524
6	0x3d302b3d	0.043009985
7	0x3eae385c	0.34027374
8	0xbd808c86	-0.06276803
9	0xbd571c45	-0.052517194
10	0xbcc97b62	-0.024594966
11	0x3df8d86c	0.12150654
12	0xbd136938	-0.035989016
13	0x3ecb251d	0.39676753
14	0xbe387041	-0.18011571
15	0xbd8298d1	-0.06376804
16	0xbeb7fb6e	-0.35934013
17	0xbe8d588c	-0.27606618
18	0x3cf97b92	0.03045443
19	0xbdeb67a4	-0.11494377
20	0x3ca7d3fb	0.020486822
21	0xbea29de5	-0.3176109
22	0xbea64acd	-0.32478943
23	0x3e949753	0.290217
24	0xbe51bf94	-0.20483238
25	0x3dbaceea	0.09121497
26	0xbd8da18a	-0.06915577
27	0x3e79419c	0.24341434
28	0x3e196f1f	0.14983796
29	0xbec45685	-0.3834726
30	0xbd8062d2	-0.062688485
31	0x3c54378c	0.0129526965
32	0xbc114cce	-0.008868409
33	0xbe64ca23	-0.22342734
34	0xbe798ee3	-0.24370913
35	0xbe6e3a56	-0.23264441
36	0x3e52e478	0.20594966
37	0xbe0a75e5	-0.13521536
38	0xbe90441c	-0.28176963
39	0x3c441b30	0.011969373
40	0xbdf5d595	-0.12003628
41	0xbe1df962	-0.15427163
42	0x3ea40645	0.32036033
43	0xbd6d0ec9	-0.05787543
44	0xbd37b93e	-0.044854395
45	0xbe2fd58f	-0.1717131
46	0x3e07360a	0.13204208
47	0x3e5c6094	0.21521217
48	0xbe8f941b	-0.28042683
49	0xbe655ae3	-0.22397952
50	0xbe1bba2d	-0.15207739
51	0xbe060a0a	-0.13089767
52	0x3e2eaa2f	0.17057107
53	0xbe8e0530	-0.27738333
54	0xbe20f2e5	-0.15717657
55	0xbe7338a0	-0.2375207
56	0xbc6a6ec5	-0.014308636
57	0x3d8301ad	0.06396804
58	0xbd4b5332	-0.049639888
59	0xbe85357a	-0.26017362
60	0xbe8ebbb6	-0.27877587
61	0xbe613373	-0.21992283
62	0x3e9ec73e	0.31011385
63	0x3ea529e7	0.3225853
64	0xbe8d9218	-0.27650523
65	0x3e2dc6cf	0.1697037
66	0x3d39b1ce	0.045335583
67	0xbe83e153	-0.25757846
68	0xbec2d27c	-0.38051212
69	0xbe08a9ef	-0.13346075
70	0x3e81af27	0.25328943
71	0xbe56a1d7	-0.20960175
72	0x3e03fc69	0.12889256
73	0x3e7cb9bf	0.24680232
74	0x3e84ee2b	0.25962958
75	0x3d79c868	0.060982138
76	0x3e2e8f6a	0.17046896
77	0xbdb2fecf	-0.08740007
78	0xbdf95339	-0.121740766
79	0x3df52e27	0.119716935
80	0xbdce9356	-0.10086696
81	0x3e4167df	0.1888728
82	0xbe8d4804	-0.27594006
83	0x3e385976	0.18002877
84	0x3e02e33b	0.12781994
85	0x3dd8d656	0.10587756
86	0x3e24f3fe	0.161087
87	0x3da2af2f	0.0794357
88	0x3ec6752d	0.38761273
89	0xbe8d2f2d	-0.27575055
90	0xbeb72c5a	-0.35776025
91	0x3e30cea8	0.17266333
92	0x3db011ec	0.08597168
93	0x3b38895b	0.0028158042
94	0x3a992b8a	0.0011685949
95	0xbe46371c	-0.1935696
96	0xbc2d4ce0	-0.01057741
97	0x3dfe7e65	0.124264516
98	0xbe5cdf71	-0.21569611
99	0xbdb46ab3	-0.08809414
100	0x3d3f96c6	0.046774648
101	0x3e12af94	0.1432479
102	0x3cd9c92e	0.026585188
103	0x3ed43e20	0.41453648
104	0x3e793969	0.24338306
105	0xbdf02b95	-0.117270626
106	0xbe5daf61	-0.21648933
107	0xbd323ac9	-0.043513093
108	0xbe8592e1	-0.26088622
109	0x3eabfe6b	0.33592543
110	0x3ec7e913	0.3904501
111	0xbce2761e	-0.027644213
112	0x3e91321e	0.2835855
113	0x3e8267fe	0.25469965
114	0xbeabe476	-0.3357274
115	0xbd528ee4	-0.051405802
116	0xbe3dcf4f	-0.18536113
117	0x3e8587b4	0.26080096
118	0x3e48f36d	0.1962411
119	0x3dc40dd8	0.09572953
120	0xbe8e94fb	-0.27848038
121	0x3c695ab7	0.0142428195
122	0x3ea7ce0f	0.32774398
123	0xbd4f0fa8	-0.05055204
124	0x3d40635e	0.046969764
125	0x3e1337f7	0.14376818
126	0xbdff8c48	-0.124779284
127	0xbdd5b864	-0.1043556
128	0xbeb76c2b	-0.35824713
129	0xbd18d1d0	-0.037309468
130	0x3e04ed81	0.12981226
131	0xbe1ce2d6	-0.15320906
132	0x3e8a06d2	0.26958328
133	0x3e81d040	0.25354195
134	0xbe2a3aa1	-0.16623928
135	0x3ca4cc52	0.020116959
136	0x3bbe410a	0.005806093
137	0xbde5cb5e	-0.1122043
138	0x3e01bf30	0.12670588
139	0x3d2127bc	0.039344534
140	0xbeb03714	-0.3441702
141	0x3e191aaa	0.14951578
142	0xbe3e731b	-0.18598597
143	0x3d236e1f	0.03989994
144	0xbcfb881d	-0.030704552
145	0x3d6cfea1	0.05786002
146	0xbea45661	-0.32097152
147	0x3d078c4a	0.033092774
148	0xbd6abd9e	-0.05730974
149	0xbe4c302c	-0.19940251
150	0xbe28e943	-0.16495232
151	0x3ecddaff	0.40206143
152	0x3dbf8393	0.09351268
153	0x3e1c370f	0.15255378
154	0xbe8ededa	-0.27904397
155	0x3e570705	0.20998771
156	0x3e1d2b7b	0.15348618
157	0x3de2425b	0.110478126
158	0xbd8dba1a	-0.06920262
159	0x3e99d72e	0.30046982
160	0x3d143070	0.036179006
161	0x3c58e333	0.013237762
162	0x3db88ca8	0.09011203
163	0x3e7d6a21	0.24747516
164	0xbd7676d5	-0.06017192
165	0xbd2ddf60	-0.042449355
166	0xbcf717ac	-0.030162655
167	0x3e070e47	0.1318904
168	0x3cf9b9f3	0.030484175
169	0x3d881d32	0.066461936
170	0xbe30d07f	-0.17267035
171	0x3e408ae9	0.1880299
172	0x3ea0d593	0.31412944
173	0x3e987d20	0.29782963
174	0x3f03272e	0.5123166
175	0x3e4317b7	0.19052015
176	0xbdc468b3	-0.09590282
177	0x3cf2059b	0.029543689
178	0x3ce60e06	0.028082859
179	0x3c821db8	0.015883312
180	0xbd9c38be	-0.0762801
181	0x3e6ce752	0.23135117
182	0x3ce55735	0.027995685
183	0x3d4c927a	0.04994438
184	0xbec868ca	-0.39142448
185	0x3dd15973	0.10222139
186	0x3e2eeb38	0.17081916
187	0xbeaded87	-0.3397028
188	0x3d8d1acf	0.06889879
189	0x3ec6d087	0.3883097
190	0xbe6561f6	-0.2240065
191	0x3e95cf2a	0.29259616
192	0x3e8afa53	0.27144107
193	0x3e9866c7	0.29765913
194	0xbb9f2120	-0.0048562437
195	0xbed5f9bb	-0.41792092
196	0xbcffc7ec	-0.03122326
197	0xbe5d8dca	-0.2163612
198	0x3d785c27	0.06063476
199	0x3e5c8335	0.21534427
200	0x3dd64722	0.10462786
201	0xbe054f3f	-0.13018511
202	0x3e445635	0.1917351
203	0x3d95071f	0.07276749
204	0xbe77e86e	-0.24209759
205	0xbde99bd7	-0.11406677
206	0xbd28b00e	-0.041183524
207	0xbe4939b1	-0.19650914
208	0x3c1fcb96	0.0097531285
209	0xbd6dfa3f	-0.05809998
210	0x3e2549e8	0.16141474
211	0xbd4bbe95	-0.0497423
212	0xbea51631	-0.32243493
213	0xbe9a7235	-0.30165258
214	0xbe4c031f	-0.19923066
215	0x3e4cff98	0.20019376
216	0x3e54bcc4	0.20775133
217	0xbe4ce643	-0.20009713
218	0x3b87163c	0.0041225236
219	0x3e5f9cf6	0.2183722
220	0x3e389933	0.18027191
221	0xbe892b61	-0.26790908
222	0xbe61e66c	-0.22060555
223	0x3d87377c	0.0660238
224	0xbde54ee5	-0.111966886
225	0xbd072a82	-0.032999523
226	0xbe899ebf	-0.26878926
227	0xbe122b2d	-0.14274283
228	0x3e881196	0.26575917
229	0x3e862e9b	0.26207432
230	0xbea4cfa9	-0.32189682
231	0x3e83ff24	0.25780594
232	0xbc2711a8	-0.010197081
233	0xbd324faf	-0.043533023
234	0x3e3f9b2b	0.18711536
235	0x3dad237f	0.08454036
236	0x3e25c961	0.16190101
237	0xbd2ad82a	-0.041710056
238	0xbbd1f7dd	-0.0064077214
239	0x3e6eb209	0.23310103
240	0x3e51471b	0.20437281
241	0xbdb63b2c	-0.08898005
242	0xbd9539a9	-0.072863884
243	0x3de2a0d7	0.11065834
244	0xbe80ff49	-0.25194767
245	0x3dbcf099	0.09225578
246	0x3dc937c1	0.09825087
247	0x3e58926d	0.21149607
248	0x3df3424c	0.118778795
249	0xbe9dfb8b	-0.30855975
250	0xbe933c01	-0.28756717
251	0x3db51cf8	0.08843416
252	0xbd19057b	-0.037358742
253	0xbe7a2355	-0.2442754
254	0x3e2a536a	0.16633382
255	0xbe16820b	-0.14698045

lstm.weight_hh_l2 f4 [40, 10]
0	0x3e1042da	0.14088002
1	0xbeba8d62	-0.36435992
2	0x3e5d1a2a	0.21592012
3	0x3db38ef3	0.087675
4	0x3e507920	0.20358706
5	0xbe6c45d6	-0.23073515
6	0x3e45f71d	0.19332547
7	0xbe0b492a	-0.13602129
8	0xbe6452b0	-0.22297168
9	0x3ef81388	0.484524
10	0x3e0cb902	0.1374245
11	0xbe344337	-0.17603765
12	0x3d14cc70	0.03632778
13	0xbb8bae62	-0.0042627314
14	0x3e7c9494	0.24666053
15	0xbe254b01	-0.16141893
16	0xbebc3266	-0.367572
17	0xbe5dbf6e	-0.21655056
18	0x3de9e5b3	0.11420765
19	0x3c08ca45	0.008349006
20	0x3ea312e3	0.31850347
21	0xbea08626	-0.31352347
22	0x3e9c97fc	0.30584705
23	0xbec5907c	-0.38586795
24	0x3db9de7d	0.090756394
25	0x3eb80832	0.35943753
26	0x3dc5e25f	0.096623175
27	0x3e21a7c0	0.15786648
28	0x3e6b5dcc	0.22985
29	0xbd47f6e2	-0.04881943
30	0xbd9b4d28	-0.07583076
31	0x3e47b590	0.19502854
32	0xbd8ec948	-0.06971985
33	0x3ead7c17	0.33883736
34	0xbe400add	-0.18754144
35	0xbe1744ba	-0.14772311
36	0xbe03f023	-0.12884574
37	0xbe140aa4	-0.14457184
38	0xbe14dadb	-0.14536612
39	0xbe31c338	-0.17359626
40	0x3c6cbfd9	0.014450037
41	0xbbb8b34a	-0.0056366073
42	0x3e50f57b	0.20406143
43	0xbe039eb3	-0.12853508
44	0xbead73b4	-0.33877337
45	0x3d78ac12	0.060710974
46	0xbd5cdef2	-0.053923555
47	0x3d0ef57b	0.034902077
48	0xbec56eaa	-0.38560992
49	0xbec98fe8	-0.39367604
50	0x3eb67243	0.3563405
51	0x3dd87ba6	0.10570459
52	0x3e902181	0.2815056
53	0x3e49882d	0.19680853
54	0xbca5308d	-0.020164752
55	0x3e221227	0.15827237
56	0x3de779eb	0.11302551
57	0xbe2dd39a	-0.16975251
58	0x3e5f2481	0.21791269
59	0xbeef99eb	-0.46797118
60	0x3e169116	0.14703783
61	0xbe8385fa	-0.25688154
62	0x3e0a5c89	0.13511862
63	0xbe315016	-0.17315707
64	0x3dd0574a	0.10172899
65	0xbdf603a2	-0.12012412
66	0x3eb08a87	0.34480688
67	0x3d0ede0f	0.03487974
68	0xbe850026	-0.25976676
69	0xbe249f29	-0.1607634
70	0xbd7a5e7b	-0.06112526
71	0xbe5d7e43	-0.21630196
72	0x3d8dfc71	0.06932915
73	0xbe559b0c	-0.20859927
74	0x3e9a78f1	0.30170396
75	0xbdf619da	-0.120166495
76	0x3e939908	0.2882769
77	0xbca2db10	-0.019879848
78	0x3cbe4980	0.023228407
79	0x3e64cf43	0.22344689
80	0x3dac54b4	0.08414593
81	0xbbc0c41d	-0.0058827535
82	0xbea922eb	-0.33034453
83	0x3e0a9453	0.13533144
84	0x3e6bf6ec	0.23043412
85	0xbdf38509	-0.11890609
86	0xbc4c08ea	-0.012453297
87	0xbd6bcd71	-0.05756897
88	0xbe3ef38a	-0.1864759
89	0xbc798864	-0.015230272
90	0xbeb10860	-0.34576702
91	0x3ee36b66	0.44417876
92	0x3e94ebce	0.29086155
93	0xbdb48b47	-0.088156275
94	0xbe8777ea	-0.26458675
95	0x3cc345a8	0.023836926
96	0xbd4fa164	-0.050691023
97	0xbda57fe1	-0.080810316
98	0x3e5bf649	0.21480669
99	0xbe2bc379	-0.16773786
100	0xbe7b43da	-0.24537602
101	0xbe7cd2bd	-0.24689765
102	0x3d9bee8e	0.0761386
103	0x3e16ba98	0.14719617
104	0xbf005016	-0.501222
105	0xbdbdbc04	-0.09264377
106	0x3e848a90	0.25886965
107	0x3c5a3534	0.013318349
108	0xbefd8caf	-0.49521396
109	0x3e91b85e	0.28460974
110	0xbead12ae	-0.33803314
111	0xbe8a8718	-0.27056193
112	0x3e2ef306	0.17084894
113	0x3e417493	0.18892126
114	0x3e0938dd	0.13400598
115	0x3d94798d	0.072497465
116	0x3e4de4f0	0.20106864
117	0x3ed17c50	0.40915155
118	0xbde0d9d5	-0.10979048
119	0x3df1b7e0	0.118026495
120	0xbcc72335	-0.02430878
121	0xbe8e2bfc	-0.27767932
122	0x3e95203c	0.29126155
123	0x3ec1343b	0.3773516
124	0xbe1d0913	-0.15335493
125	0x3db71322	0.08939196
126	0xbda70a40	-0.08156252
127	0x3e170306	0.14747247
128	0x3e8fa6c7	0.2805693
129	0xbecf3ee0	-0.40477657
130	0xbd869991	-0.06572259
131	0xbe01c538	-0.12672889
132	0x3dc0b370	0.09409225
133	0x3e5eeeb8	0.21770751
134	0xbdf64b4f	-0.12026083
135	0x3ea2f1e7	0.31825182
136	0x3ebfc956	0.37458295
137	0x3e590f6b	0.21197288
138	0xbeb2b5a1	-0.34904197
139	0x3e1fa52c	0.15590352
140	0xbe938ae8	-0.28816915
141	0xbdf29abe	-0.11845921
142	0x3df9b3ce	0.12192498
143	0xbd578aa7	-0.052622464
144	0xbdde9a0f	-0.10869228
145	0x3e2903c8	0.16505349
146	0x3b2967ea	0.002584929
147	0x3ed3f2bb	0.41396126
148	0xbdb8f299	-0.09030647
149	0xbeb4cdcb	-0.35313258
150	0x3dba1448	0.090858996
151	0xbe77fbc2	-0.24217132
152	0x3e59c49a	0.21266404
153	0x3d388a64	0.045053855
154	0xbd3b9083	-0.045792114
155	0x3eca7dd0	0.39549112
156	0xbd182560	-0.03714502
157	0x3ddab661	0.10679317
158	0x3c9c5a36	0.019085985
159	0xbee09d22	-0.43869883
160	0x3dfaa3cd	0.12238274
161	0xbead9e4a	-0.33909827
162	0x3ec2dfad	0.38061276
163	0xbda5b0d1	-0.08090366
164	0xbe41e618	-0.1893543
165	0x3eabe77c	0.33575046
166	0x3ec918c0	0.39276695
167	0x3ed4657e	0.41483682
168	0x3deb1f31	0.11480559
169	0x3cb0a0ab	0.021560987
170	0xbe9d7433	-0.30752715
171	0xbc9d4c2a	-0.019201357
172	0x3e3fa586	0.18715486
173	0x3ec372cb	0.38173518
174	0xbeb3aea2	-0.35094172
175	0x3ea6bb01	0.32564548
176	0x3ec87236	0.39149636
177	0x3ca58aae	0.02020773
178	0xbd63fc00	-0.055660248
179	0xbe14ee48	-0.14544022
180	0xbe97b343	-0.29628953
181	0x3da482a0	0.08032727
182	0x3e752f62	0.23943856
183	0x3dc2006a	0.09472735
184	0xbdd6e2b9	-0.10492463
185	0x3f0d4756	0.55186975
186	0x3eb54878	0.35406852
187	0x3dd5c6fe	0.104383454
188	0xbea904f6	-0.33011597
189	0x3dbb8c7a	0.09157653
190	0x3cae7d7c	0.02130007
191	0xbe82f4f8	-0.2557752
192	0xbdbf8286	-0.09351067
193	0x3ed068ec	0.4070505
194	0xbe4fb805	-0.20285042
195	0x3e9edd94	0.31028426
196	0x3ef6dd9a	0.48215944
197	0x3d741e05	0.05959894
198	0xbed5527d	-0.41664496
199	0xbdd4741f	-0.10373711
200	0xbd887906	-0.066637084
201	0x3e9eed62	0.31040484
202	0x3e1b19c6	0.1514655
203	0xbc4d3dbb	-0.012526925
204	0x3d88f87e	0.06688021
205	0x3ea140a3	0.31494626
206	0x3da77fc0	0.08178663
207	0xbe0f0cfd	-0.13969798
208	0x3e44c5ab	0.1921603
209	0xbce4cea2	-0.027930561
210	0x3d3f51a5	0.04670872
211	0x3ed90911	0.4238973
212	0xbe705342	-0.2346926
213	0xbed89998	-0.42304683
214	0x3ebffd9c	0.37498176
215	0x3d83c542	0.06434108
216	0xbdb4e885	-0.08833412
217	0x3e1c5e73	0.15270405
218	0x3e3d62c7	0.18494712
219	0x3e76e424	0.24110466
220	0x3dadcded	0.08486543
221	0xbed33229	-0.41249207
222	0x3eae0eee	0.33995765
223	0x3de251c6	0.11050753
224	0x3c8e0012	0.017334018
225	0x3e1be416	0.15223727
226	0xbe49b991	-0.19699694
227	0x3de3acf2	0.11116971
228	0xbdf4f8c4	-0.11961511
229	0xbe934905	-0.28766647
230	0xbe89164b	-0.2677482
231	0x3d57cae2	0.05268372
232	0x3ea2edbe	0.31822008
233	0x3e9258fd	0.28583518
234	0xbe52cdd6	-0.20586333
235	0x3e8464d0	0.25858164
236	0x3e5cb3e4	0.21552998
237	0x3e06d273	0.13166218
238	0x3dd79983	0.10527327
239	0xbba885d0	-0.005142905
240	0xbcff6faa	-0.031181175
241	0x3ef6b6e0	0.48186398
242	0xbd996136	-0.07489245
243	0xbee67171	-0.45008424
244	0x3d5c25a5	0.053746838
245	0xbbfe0b42	-0.007752807
246	0xbcbc45b4	-0.022982456
247	0xbe53f4d1	-0.20698859
248	0xbe62b388	-0.22138798
249	0x3e335aac	0.17515057
250	0xbdf96a7c	-0.121785134
251	0xbd8e21ce	-0.069400415
252	0x3e5ab679	0.2135867
253	0xbd22a86f	-0.039711412
254	0xbd0fa081	-0.035065178
255	0xbd5b8f7c	-0.053603634

lstm.bias_ih_l2 f4 [40]
0	0x3e85c11d	0.26123896
1	0xbdc46de2	-0.09591271
2	0xbea7abf3	-0.32748374
3	0x3e3c66d1	0.18398596
4	0x3e84b102	0.25916296
5	0x3c80c5af	0.015719263
6	0x3eafc1bd	0.34327498
7	0x3c5b50f4	0.013386
8	0x3eb3a036	0.3508317
9	0x3c5d3642	0.013501706
10	0x3ecdff6a	0.40233928
11	0x3ee3524a	0.4439872
12	0x3d4fe805	0.05075838
13	0xbd92400c	-0.07141122
14	0xbafa4a82	-0.0019095691
15	0x3e9e14eb	0.30875334
16	0x3c0dd307	0.00865627
17	0xbe701629	-0.23445953
18	0x3ed79a38	0.42109847
19	0x3e90ec51	0.28305295
20	0xbebeb5e8	-0.37248158
21	0x3e68dc48	0.2274028
22	0x3bd1e74e	0.0064057475
23	0x3dbd6662	0.092480436
24	0xbe29e7df	-0.16592358
25	0x3e51dd31	0.20494534
26	0x3e4f600e	0.20251486
27	0x3dee069a	0.11622353
28	0xbe672a16	-0.22574648
29	0x3dcb6b1d	0.099325396
30	0xbdd4ea3e	-0.10396241
31	0xbe31df91	-0.1737044
32	0xbc18a1c2	-0.00931591
33	0x3e85b8e2	0.26117617
34	0x3e18462b	0.14870517
35	0x3e3bdb35	0.1834534
36	0xbe4a5a5e	-0.19761035
37	0xbd822a5c	-0.06355736
38	0xbde4dd1f	-0.11174988
39	0xbe1a45a7	-0.15065633

lstm.bias_hh_l2 f4 [40]
0	0x3b43c520	0.0029872134
1	0x3d9e233c	0.07721564
2	0x3e7f0a97	0.24906383
3	0xbddceacf	-0.10786974
4	0xbe105046	-0.14093122
5	0xbdba58cb	-0.09098967
6	0x3d410e08	0.047132522
7	0xbca09a20	-0.019604743
8	0x3dcaf345	0.09909681
9	0xbe659054	-0.22418338
10	0x3e7e0b69	0.2480904
11	0x3ebe9672	0.37224156
12	0x3c9f5b8c	0.019452833
13	0x3e426483	0.18983655
14	0x3ea50212	0.32228142
15	0xbdb6c94c	-0.08925113
16	0x3e8aadaf	0.27085635
17	0xbd7e9a88	-0.06215909
18	0x3e32a0e4	0.17444187
19	0x3e8624bf	0.2619991
20	0x3b58a8cd	0.0033059597
21	0x3dcd45ec	0.10023102
22	0xbd0d2565	-0.03445949
23	0xbd122348	-0.035678178
24	0xbe22bdc5	-0.15892704
25	0xbda25a3d	-0.07927368
26	0xbd655910	-0.05599314
27	0x3cb5a5d2	0.022173796
28	0xbe91fa8d	-0.28511468
29	0x3d146445	0.036228437
30	0x3e872357	0.2639415
31	0xbcd91c07	-0.026502622
32	0x3d3e078b	0.046393912
33	0x3e93d00d	0.28869668
34	0xbd8482d1	-0.06470264
35	0x3e74d645	0.23909862
36	0xbe622d7e	-0.22087666
37	0xbd98c215	-0.07458893
38	0x3eb8e943	0.36115465
39	0xbe1767ff	-0.14785765
